AM_RL/Planner/model/pretraining_planner.pth (torch, 309056 bytes, 6 tensors)

mu.0.weight f4 [256, 22]
0	0xbe2705a5	-0.16310747
1	0x3e4037f3	0.18771343
2	0x3e0974ff	0.13423537
3	0x3e844552	0.25834137
4	0xbc19c94e	-0.009386374
5	0x3dd75676	0.10514538
6	0x3e1b14fb	0.15144722
7	0xbedec102	-0.43506628
8	0xbd72f846	-0.059318803
9	0x3d8d40fc	0.068971604
10	0x3d44ba68	0.048029333
11	0xbe403695	-0.18770821
12	0x3e97efe3	0.29675207
13	0xbd9bb251	-0.076023705
14	0x3ceef4b4	0.029169418
15	0x3d76453b	0.060124617
16	0x3e38479e	0.1799607
17	0x3e272ca2	0.1632562
18	0x3d61a490	0.05508858
19	0xbe1adc8b	-0.15123193
20	0x3d66f4b4	0.05638571
21	0x3e540221	0.20703937
22	0xbd0f2c3f	-0.034954306
23	0x3df2f46e	0.118630275
24	0x3d4ab6d7	0.049490776
25	0xbe6ac241	-0.22925664
26	0xbe1cf3b7	-0.15327345
27	0x3dabb4c3	0.08384087
28	0x3d36f71d	0.04466926
29	0xbe419e7f	-0.18908118
30	0x3e6e1d79	0.2325343
31	0x3b9daee2	0.0048121074
32	0x3d7d6f57	0.06187376
33	0x3d80c183	0.062869094
34	0x3e129ef5	0.1431845
35	0xbd8cdf2c	-0.06878504
36	0x3da32718	0.07966441
37	0x3e248147	0.1606494
38	0xbe67a0b1	-0.22619893
39	0xbe5aab9f	-0.21354531
40	0x3e1f248c	0.15541285
41	0x3db0cfc0	0.08633375
42	0x3e13a03c	0.14416593
43	0x3e1724e6	0.1476017
44	0xbe1e53f5	-0.15461715
45	0xbd909fbd	-0.07061718
46	0xbc6c08b8	-0.014406376
47	0x3c9c107b	0.019050827
48	0x3e1a943d	0.15095611
49	0xbc5468ef	-0.012964471
50	0xbda97f17	-0.082761936
51	0x3cabe214	0.020981826
52	0xbcddabaf	-0.027059404
53	0x3beea884	0.007283272
54	0xba9d9632	-0.0012022911
55	0xbd6bc00a	-0.05755619
56	0xbe26eb30	-0.16300654
57	0x3d4fe915	0.050759394
58	0xbd6a6d28	-0.057233006
59	0x3db313b6	0.08743994
60	0x3e4843c3	0.19557099
61	0x3e48d27b	0.19611542
62	0xbe179f56	-0.14806876
63	0x3dacccc6	0.08437495
64	0xbe4b1354	-0.19831592
65	0xbe33d8f1	-0.17563225
66	0xbe1cf131	-0.15326382
67	0x3a6ef1c7	0.0009115007
68	0x3e4f9816	0.2027286
69	0x3e435651	0.19075896
70	0x3cee331d	0.029077107
71	0xbe1ec2bf	-0.15503977
72	0x3dfa14c2	0.122109905
73	0x3d9cbd50	0.07653296
74	0xbdafe088	-0.08587748
75	0x3d5fe3d6	0.05466064
76	0x3dc565ce	0.09638558
77	0x3e812027	0.25219843
78	0xbd521ef1	-0.05129904
79	0x3e1be5f6	0.15224442
80	0x3e1e0925	0.15433176
81	0xbe0f757b	-0.14009659
82	0x3e3e01e4	0.18555409
83	0xbcaaf30c	-0.020867847
84	0x3c8e0086	0.017334234
85	0x3e47543b	0.19465725
86	0xbd69d883	-0.057091247
87	0xbdd3ee1b	-0.103481494
88	0xbe19ac38	-0.15007102
89	0xbda233ba	-0.07920022
90	0xbbf0d3a5	-0.0073494487
91	0xbd8049de	-0.06264089
92	0xbe4df851	-0.20114256
93	0xbc865cf8	-0.016401753
94	0xbd42f8a8	-0.04760042
95	0x3e995a3d	0.2995166
96	0xbe47caa7	-0.195109
97	0xbd695b37	-0.056971755
98	0xbd4d940e	-0.050190024
99	0xbdce21c9	-0.10065038
100	0xbd45b1aa	-0.048265137
101	0x3e413ad9	0.18870105
102	0xbe2ae1b7	-0.16687666
103	0xbe331b0a	-0.17490783
104	0xbd261f27	-0.040557053
105	0xbe433a23	-0.19065146
106	0xbd0f1630	-0.03493327
107	0xbe2e0228	-0.1699301
108	0xbe03d071	-0.12872483
109	0x3dfb372f	0.12266385
110	0xbd378a9e	-0.04480993
111	0xbe35c34e	-0.17750284
112	0x3e05fa82	0.13083842
113	0xbd3c71b9	-0.046006892
114	0xbe543fa0	-0.20727396
115	0xbe55ab35	-0.20866092
116	0xbcb17729	-0.021663265
117	0xbdae969a	-0.08524819
118	0xbdf75afa	-0.12077899
119	0x3e2723dc	0.16322273
120	0x3d91f725	0.07127217
121	0xbe1f08d1	-0.15530707
122	0xbe8e6329	-0.27810028
123	0x3e378ce5	0.17924841
124	0xbe4fd3f0	-0.20295691
125	0xbdb19e7e	-0.08672808
126	0x3e32300b	0.1740114
127	0xbd9e3e69	-0.077267475
128	0x3df174cd	0.11789856
129	0xbbe7bc81	-0.007072032
130	0x3e390101	0.18066789
131	0xbcedf6c7	-0.029048337
132	0xbe607f92	-0.21923664
133	0xbe5d05da	-0.21584263
134	0x3e30814f	0.17236827
135	0xbd882e4a	-0.06649454
136	0x3e3c73b1	0.18403508
137	0xbe0c7dd8	-0.1371988
138	0x3d5fd479	0.05464599
139	0x3e89e5d7	0.26933166
140	0xbd032556	-0.03201803
141	0xbe79cb70	-0.24394011
142	0x3d025218	0.031816572
143	0xbd69ec80	-0.05711031
144	0x3c8eb7f9	0.01742171
145	0xbdcdccbb	-0.10048815
146	0x3dcb4609	0.099254675
147	0x3dbbf41a	0.09177418
148	0x3ceaf553	0.028681433
149	0x3e2d13f1	0.16902138
150	0xbdd2421f	-0.10266518
151	0x3df46f62	0.11935307
152	0xbce35f9c	-0.027755551
153	0xbd9d1b71	-0.0767125
154	0x3e22363d	0.15841003
155	0xbe00b21d	-0.12567945
156	0x3e4b5aa1	0.19858791
157	0x3e76bd15	0.24095567
158	0x3e6a0b77	0.22855936
159	0xbd99f399	-0.07517166
160	0xbe60552b	-0.21907489
161	0x3e5e359a	0.21700135
162	0x3d966e63	0.07345273
163	0xbe7e6869	-0.24844517
164	0xbda87261	-0.08224941
165	0x3e695dc3	0.22789674
166	0x3e16b9ad	0.14719267
167	0x3cfbf4a8	0.03075631
168	0x3cbd6eac	0.023124062
169	0xbd563a33	-0.052301597
170	0x3e4cb248	0.19989884
171	0x3d02be41	0.03191972
172	0xbcd953ef	-0.02652928
173	0x3d25eafb	0.040507298
174	0x3e346947	0.17618285
175	0xbe1a4bd5	-0.1506799
176	0x3ce9e20d	0.028550172
177	0x3e5f19fb	0.21787255
178	0xbdef6221	-0.116886385
179	0xbddba09d	-0.10723994
180	0xbdfef33b	-0.12448736
181	0x3d9b9024	0.07595852
182	0xbd7e340e	-0.062061362
183	0xbdf7dbf4	-0.121024996
184	0xbd8177d5	-0.06321684
185	0xbdc257f1	-0.0948943
186	0x3e1dee11	0.15422846
187	0xbb953a70	-0.0045540854
188	0x3e5ea891	0.2174399
189	0xbdd203d8	-0.102546394
190	0x3dc81d0f	0.097711675
191	0x3ce632d2	0.028100405
192	0x3e107171	0.14105774
193	0x3cbe6c59	0.023245024
194	0xbe2b0f51	-0.16705061
195	0xbd593bdb	-0.0530356
196	0x3e0a3295	0.13495858
197	0xbdc05157	-0.09390514
198	0xbe51615e	-0.20447299
199	0xbe30a6e0	-0.17251158
200	0xbd91b2c2	-0.071141735
201	0xbd1272f1	-0.035754148
202	0x3d14d8b0	0.03633946
203	0x3e7f472a	0.2492949
204	0x3e37542d	0.17903204
205	0x3eeb5a74	0.45967448
206	0xbe4e85fd	-0.201683
207	0xbe87922f	-0.26478717
208	0x3d566058	0.052337974
209	0xbb0b3c9e	-0.0021245847
210	0x3e1d0d29	0.15337051
211	0xbda863f0	-0.082221866
212	0x3dbc143d	0.09183548
213	0x3e03c602	0.12868503
214	0xbe37ef4a	-0.17962375
215	0xbd4f5c08	-0.050624877
216	0x3e15fbe5	0.14646871
217	0xbcd2bef1	-0.025725814
218	0xbc862200	-0.016373634
219	0x3e0dea91	0.13859011
220	0x3c269771	0.010167942
221	0xbdc606be	-0.09669255
222	0x3d09f427	0.033680107
223	0xbe74f470	-0.2392137
224	0xbde68e5a	-0.1125762
225	0xbdf1cdad	-0.11806808
226	0x3d45fca0	0.048336625
227	0x3e5a632a	0.2132689
228	0x3dca0069	0.098633595
229	0xbe5c384b	-0.21505849
230	0xbe3396dd	-0.17538019
231	0x3d78bd03	0.06072713
232	0xbe67e191	-0.2264464
233	0xbd0b0610	-0.03394133
234	0xbda2e2fb	-0.07953449
235	0x3dcb6109	0.09930617
236	0xbe208754	-0.15676624
237	0x3e02010a	0.12695709
238	0xbde03860	-0.10948253
239	0xbc6c7107	-0.014431245
240	0xbe3f1dc6	-0.18663701
241	0xbc475907	-0.012167222
242	0x3e59da89	0.21274771
243	0xbe47ca30	-0.19510722
244	0x3db8099c	0.08986208
245	0xbd06f2a0	-0.03294623
246	0x3e8273db	0.25479016
247	0xbe4dac55	-0.2008527
248	0xbd16ef61	-0.036849383
249	0x3e3e901f	0.18609665
250	0xbd9f4a6e	-0.07777868
251	0xba2ebf57	-0.0006666085
252	0xbc924829	-0.017856674
253	0x3e61d091	0.22052218
254	0xbceb972a	-0.028758604
255	0x3d57bc75	0.05266996

mu.0.bias f4 [256]
0	0x3da3f3b3	0.08005466
1	0x3deea658	0.11652821
2	0x3df56324	0.119818
3	0x3da4a516	0.080393
4	0xbe39cd4b	-0.1814472
5	0x3d0c522f	0.034258064
6	0x3e1d745e	0.15376422
7	0x3e4b879b	0.19875948
8	0xbda1d591	-0.07902063
9	0xbd5915f4	-0.05299945
10	0xbe3f7ea0	-0.18700647
11	0xbd9a0a3f	-0.075214855
12	0x3d42b19f	0.047532674
13	0xbe2525f8	-0.16127765
14	0x3d677396	0.056506716
15	0x3e2cb85c	0.16867203
16	0xbd069c10	-0.032863677
17	0x3e43c625	0.19118555
18	0xbd1ce6e9	-0.03830615
19	0x3e34247b	0.17592041
20	0xbda6015d	-0.08105729
21	0xbdb4e564	-0.08832815
22	0xbca78edf	-0.020453868
23	0x3d26cbee	0.040721826
24	0xbd6abe8d	-0.05731063
25	0x3d8932d7	0.0669915
26	0xbe415746	-0.18880948
27	0x3d569b54	0.052394226
28	0x3e28ac24	0.16471916
29	0x3dc549be	0.09633206
30	0xbc58dcb4	-0.0132362135
31	0xbdbce384	-0.09223083
32	0xbde7e18d	-0.11322317
33	0x3e36ad73	0.17839603
34	0xbe1098c9	-0.14120783
35	0x3e033432	0.1281288
36	0x3d1a45f4	0.03766437
37	0x3d224d2c	0.039624378
38	0xbc81ecc0	-0.015859962
39	0xbe4e5b48	-0.20152009
40	0x3e04c06b	0.12964027
41	0xbe10542d	-0.1409461
42	0xbc4e4c12	-0.012591379
43	0xbc4add30	-0.012381837
44	0x3c93f525	0.01806123
45	0x3d8b07be	0.06788586
46	0xbd611819	-0.054954622
47	0x3e0add8b	0.13561074
48	0x3e04c9a3	0.12967543
49	0x3c94d32f	0.018167106
50	0xbc33e152	-0.0109790135
51	0xbe4d358a	-0.20039955
52	0x3de962a2	0.11395766
53	0xbdacd55f	-0.08439135
54	0xbc65f0d7	-0.0140344715
55	0xbe21b940	-0.15793324
56	0xbe076dd0	-0.13225484
57	0xbe2a949e	-0.16658255
58	0xbd8bc9c8	-0.06825596
59	0xbd8a9731	-0.06767119
60	0xbe189ca7	-0.14903508
61	0xbddeb6c8	-0.108747065
62	0xbe2935ab	-0.16524379
63	0xbe1b94df	-0.15193509
64	0xbd86228f	-0.0654956
65	0x3e439e5f	0.19103383
66	0x3e4b3436	0.19844136
67	0x3e2dfac5	0.16990192
68	0xbcf0d26c	-0.029397212
69	0xbde61c45	-0.11235861
70	0xbe0bc7f0	-0.13650489
71	0x3d16ce61	0.036817912
72	0x3d4b1d91	0.049588744
73	0x3e3f1a33	0.18662338
74	0x3d98274e	0.07429372
75	0x3de51070	0.11184776
76	0x3d26145c	0.04054676
77	0x3dc252a1	0.094884165
78	0xbdf98e27	-0.121853165
79	0x3dbcddf4	0.09222022
80	0xbe2bb9a4	-0.16770035
81	0x3e30afe8	0.17254603
82	0x3d93a44d	0.07209072
83	0x3d856497	0.065133266
84	0x3d88ddc6	0.06682925
85	0x3d9c5b57	0.07634609
86	0xbe08b475	-0.13350089
87	0x3df474da	0.1193635
88	0xbe086f64	-0.13323742
89	0xbdf2dc44	-0.118584186
90	0xbdce9080	-0.10086155
91	0xbd35f82e	-0.044426136
92	0xbe2e0dc8	-0.16997445
93	0xbe3363c6	-0.1751853
94	0xbda7b82e	-0.08189426
95	0x3e471287	0.19440661
96	0xbd5007d1	-0.050788704
97	0x3e4b69ba	0.1986455
98	0xbde759f5	-0.11296455
99	0xbd4fad6f	-0.05070251
100	0xbdc7f4f8	-0.09763521
101	0x3e3bd039	0.1834115
102	0xbce0d054	-0.027443089
103	0xbcabfaa6	-0.020993542
104	0x3df60090	0.12011826
105	0x3cf3cf83	0.029762035
106	0xbe2d6efa	-0.16936865
107	0x3d7a2bf7	0.061077084
108	0x3dc0722c	0.093967766
109	0x3c94a9ad	0.018147314
110	0xbe40a536	-0.18813023
111	0x3e3b0ea0	0.18267298
112	0xbe1a60e3	-0.15076022
113	0xbd9d0fd4	-0.076690346
114	0xbd97d835	-0.07414285
115	0xbcd96fe3	-0.02654261
116	0x3e4f3a2e	0.20237038
117	0xbdec1d00	-0.11528969
118	0xbdb33b49	-0.08751542
119	0xbe36fab4	-0.17869073
120	0x3d6a1960	0.057153106
121	0xbe396e63	-0.18108515
122	0xbd0f0694	-0.034918383
123	0x3de0f7b7	0.10984748
124	0x3e11ec7a	0.14250365
125	0x3dd61acb	0.10454329
126	0x3d05d356	0.03267225
127	0xbe0d1442	-0.13777259
128	0x3e166764	0.14687878
129	0xbd11a321	-0.035555962
130	0xbe360a30	-0.17777324
131	0xbe03f137	-0.12884985
132	0x3e150f3c	0.14556593
133	0x3e0f9b6f	0.14024137
134	0xbc88c70a	-0.016696472
135	0x3e18979d	0.14901586
136	0x3e0cea36	0.1376122
137	0x3dce7cf2	0.10082425
138	0x3cfc0a54	0.030766644
139	0xbd7f7361	-0.062365893
140	0x3e1eb4c7	0.15498649
141	0x3d50b0f0	0.05094999
142	0x3d6038db	0.05474172
143	0x3e3c1fe5	0.18371542
144	0xbd1223b4	-0.03567858
145	0x3c91f453	0.017816698
146	0x3e20d00b	0.15704362
147	0xbd72c0dd	-0.05926596
148	0xbd800d81	-0.06252576
149	0xbd2a1176	-0.04152056
150	0xbe232361	-0.15931465
151	0x3d590530	0.052983463
152	0x3e19b586	0.15010652
153	0x3d00ac95	0.031414587
154	0x3dcb49fc	0.09926221
155	0xbdee3eeb	-0.116330944
156	0xbdf18237	-0.11792415
157	0xbd100611	-0.035162035
158	0xbe07b73a	-0.13253489
159	0x3d1888a9	0.037239704
160	0x3d731578	0.059346646
161	0xbd90cab1	-0.0706991
162	0xbdcdbf2d	-0.100462295
163	0x3de181eb	0.11011108
164	0xbe2e4b85	-0.17020996
165	0x3dc80974	0.09767428
166	0xbdd83a54	-0.10558
167	0x3de0fea1	0.109860666
168	0xbe4c4f3b	-0.19952099
169	0xbe2469e8	-0.16056025
170	0x3c70d734	0.014699746
171	0xbe2e8485	-0.1704274
172	0xbd7e12bd	-0.06202959
173	0x3d22a5d2	0.03970892
174	0x3db2ba70	0.087269664
175	0xbdd33ac2	-0.103139415
176	0x3e381883	0.179781
177	0x3ae52e17	0.0017485049
178	0x3e078ef6	0.13238129
179	0x3d889f7f	0.066710465
180	0x3d0962a1	0.033541325
181	0x3dd3fe15	0.10351197
182	0xbe34839a	-0.17628327
183	0x3e129be7	0.14317285
184	0x3e1fa006	0.15588388
185	0x3e2be8f2	0.1678808
186	0xbcacb8d1	-0.021084221
187	0x3a4212f9	0.000740334
188	0xbcdcca44	-0.026951917
189	0x3e194468	0.14967501
190	0x3d85bc7f	0.065300934
191	0x3e3d2af6	0.1847342
192	0xbe0edc7b	-0.13951294
193	0x3df6663d	0.12031219
194	0xbcce1fca	-0.025161643
195	0xbcd31fe2	-0.025772039
196	0xbcae13bf	-0.02124965
197	0xbe1695b0	-0.14705539
198	0x3dea2fe2	0.11434914
199	0xbe0365d0	-0.12831807
200	0x3e0a2145	0.13489254
201	0x3d9aea46	0.07564215
202	0x3e0a8b36	0.13529667
203	0x3ccf7219	0.02532296
204	0x3dc02409	0.09381873
205	0xbe0d2d73	-0.13786869
206	0x3e0eb724	0.1393705
207	0xbd6881cc	-0.05676441
208	0x3de91d5a	0.113825515
209	0xbd9d9448	-0.07694298
210	0x3d77b205	0.060472507
211	0x3e1168ac	0.14200085
212	0x3d88e3c5	0.066840686
213	0xbc2823c5	-0.010262434
214	0x3e4a55c7	0.19759284
215	0xbda6e05a	-0.081482604
216	0xbd72ca02	-0.05927468
217	0xbda54a1a	-0.080707744
218	0x3e371726	0.17879924
219	0x3c94a952	0.018147144
220	0xbd6be9ba	-0.057595946
221	0xbdd50e06	-0.104030654
222	0x3e1be6f0	0.15224814
223	0xbd9f4bdc	-0.07778141
224	0x3e1c524b	0.15265767
225	0xbd3dc489	-0.04633001
226	0xbdf70de5	-0.12063197
227	0x3dfec587	0.12440019
228	0x3db3165a	0.087444976
229	0x3d9fce0f	0.078029744
230	0x3d23e29d	0.040011037
231	0x3e0f5553	0.13997392
232	0x3d158106	0.0365
233	0x3e387765	0.18014295
234	0x3d593813	0.053031992
235	0xbd7f0a27	-0.06226554
236	0x3d77908e	0.060440592
237	0xbda76dfa	-0.08175273
238	0x3d24cef0	0.040236413
239	0x3e0ddb9d	0.13853307
240	0x3da232a5	0.07919816
241	0xbd48ab4a	-0.04899148
242	0x3bc598ad	0.0060301633
243	0x3dd00527	0.10157233
244	0x3daff92b	0.08592447
245	0xbd9d4a8f	-0.076802365
246	0xbe088507	-0.13331996
247	0xbe11b72b	-0.1423003
248	0xbe3d6e7c	-0.18499178
249	0x3dbf5b28	0.093435585
250	0xbe1b4bc0	-0.15165615
251	0xbd8ccf64	-0.06875494
252	0x3de687e1	0.112563856
253	0x3b2726c9	0.0025505295
254	0x3e0e9419	0.13923682
255	0x3e2525f8	0.16127765

mu.2.weight f4 [256, 256]
0	0x3c8a926a	0.016915519
1	0xbc8ba0b1	-0.017044397
2	0x3c0e96a2	0.008702906
3	0xbd8c47ef	-0.06849658
4	0xbd230785	-0.039802093
5	0xbd28784f	-0.04113036
6	0xbd2dfd3d	-0.042477835
7	0x3cd2d3cd	0.02573576
8	0x3a4b5a80	0.0007757321
9	0x3c69a8b4	0.014261413
10	0xbd6b0b2a	-0.057383694
11	0x3bfb1036	0.0076618446
12	0x3c2d96c6	0.010595029
13	0x3d0710de	0.03297507
14	0x3d5631f2	0.052293725
15	0xbd8c83ad	-0.06861053
16	0x3d4da146	0.05020263
17	0xbbbfd567	-0.005854297
18	0xbd0ccbf0	-0.034374177
19	0xb74fd752	-1.2388295e-05
20	0xbc25ab48	-0.010111637
21	0x3d9fdefa	0.07806201
22	0xbca0d74d	-0.019633913
23	0x3ca9cc97	0.020727439
24	0xbd390727	-0.045172837
25	0x3d811785	0.06303314
26	0x3d1cadbf	0.038251635
27	0xbd257d16	-0.040402494
28	0x3d5548b1	0.052071277
29	0x3d58bfd2	0.05291731
30	0xbcdacaa0	-0.026707947
31	0xbce4e6ab	-0.027942022
32	0xbc6cbaf8	-0.014448874
33	0x3d836b57	0.06416958
34	0x3c317102	0.010830166
35	0xbd2443c5	-0.040103693
36	0xbd917f2b	-0.071043335
37	0x3d355369	0.044269
38	0xbbe85bad	-0.0070910067
39	0x3d49b22e	0.04924219
40	0x3d3fe59c	0.046849832
41	0xbd304bf2	-0.043041177
42	0x3ca64990	0.02029875
43	0xbbf73e1c	-0.007545246
44	0x3cf64d41	0.030066134
45	0x3cd6e498	0.026232049
46	0x3d50e22b	0.05099694
47	0x3c951c61	0.018202009
48	0xbce94a6b	-0.028477868
49	0x3d8c5a9f	0.06853222
50	0xbd33b868	-0.043877035
51	0x3c85ffd9	0.01635735
52	0xbd287b01	-0.04113293
53	0x3b3799be	0.0028015221
54	0x3b6a6092	0.0035763127
55	0x3c92038c	0.017823957
56	0xbd135032	-0.035965152
57	0x3babd083	0.0052433624
58	0xbb870589	-0.004120533
59	0x3d5b9769	0.053611193
60	0xbc7b60ab	-0.015342872
61	0xbc9bdf38	-0.019027337
62	0x3c5d0eb7	0.013492278
63	0x3aa1dfe4	0.001235005
64	0x3d115674	0.03548284
65	0x3c9f4b7b	0.019445172
66	0xbd223a66	-0.039606474
67	0xbc9952eb	-0.018716296
68	0xbb92bb29	-0.0044778776
69	0xbd272b59	-0.040812824
70	0x3c1ccdc1	0.00957054
71	0x3d15bf07	0.03655913
72	0x3bdb7591	0.0066973646
73	0x3d1f9036	0.03895589
74	0xbd63b81f	-0.055595513
75	0x3d5b3e65	0.0535263
76	0x3d855f67	0.06512337
77	0xbd05aad1	-0.032633606
78	0xbc3cc7e1	-0.011522264
79	0xbad2a3b6	-0.0016070518
80	0xbd0dc689	-0.034613166
81	0x3ce44a8c	0.027867578
82	0xbc54f6a4	-0.012998257
83	0x3be2ae7a	0.006917772
84	0xbd85f6a0	-0.065411806
85	0xbd0764ab	-0.03305499
86	0xbca479b3	-0.020077562
87	0x3d1ffb23	0.039057862
88	0xbc64abc4	-0.013956968
89	0xbd56caf0	-0.05243963
90	0xbd412a9e	-0.047159784
91	0x3bac9d7c	0.005267797
92	0x3d3f5c34	0.04671879
93	0x3c4a57c9	0.012350031
94	0xbd38d4ac	-0.045124695
95	0xbcf98804	-0.030460365
96	0x3b6f9463	0.0036556951
97	0xbd01353b	-0.031544905
98	0x3d0045c3	0.03131653
99	0xbcd7f0d4	-0.026359953
100	0x3d980dd0	0.074245095
101	0xbaccccbb	-0.0015624979
102	0x3d43ff0e	0.04785066
103	0x3d1c4db2	0.038160034
104	0x3a6b929c	0.0008986385
105	0x3caf33f1	0.021387072
106	0xbd59e45d	-0.0531963
107	0x3c90f7d9	0.017696308
108	0xbb11d219	-0.0022250472
109	0xbcc14992	-0.023594651
110	0x3c82ee75	0.015982846
111	0xbd024bfc	-0.031810746
112	0x3c566ec9	0.013087937
113	0xbcca5dd7	-0.02470295
114	0x3c03db85	0.008047943
115	0xbd5aa11a	-0.053376295
116	0x3d20d4fc	0.039265618
117	0x3dafc16f	0.085818164
118	0xbd962a28	-0.073322594
119	0xbd007b21	-0.031367425
120	0x3d81801c	0.06323263
121	0xbd256db9	-0.040387843
122	0x3ca7affd	0.02046966
123	0xbcb596ca	-0.022166628
124	0xb9759f5c	-0.00023424387
125	0x3cf94f7d	0.03043341
126	0xbcdee2f5	-0.02720783
127	0xbcd359da	-0.02579968
128	0xbc86b12d	-0.016441906
129	0xbb79ea43	-0.0038134016
130	0x3d3cd1ca	0.046098508
131	0xbd92638e	-0.07147895
132	0xbd1c33e2	-0.038135417
133	0x3d0aa0ac	0.033844635
134	0xbd1e43b4	-0.038638785
135	0xbd52b7d2	-0.051444836
136	0x3ce09224	0.027413435
137	0xbbbf7d08	-0.0058437623
138	0xbd8f23c6	-0.06989245
139	0x3b740eed	0.0037240342
140	0x3d65cce9	0.05610362
141	0xbcba2aa4	-0.02272541
142	0xbbe3469d	-0.006935908
143	0x3d20ecf9	0.039288495
144	0x3c9d0090	0.019165307
145	0x3d32db72	0.04366631
146	0xbd4743f2	-0.048648782
147	0x3d96e0c4	0.073670894
148	0x3cda1d51	0.026625307
149	0xbc434ef6	-0.011920681
150	0x3c17c0e5	0.009262298
151	0xbd47ce06	-0.048780464
152	0xbc90aa7c	-0.017659418
153	0x3d816e57	0.06319874
154	0xbd0a5ef5	-0.033781964
155	0xbd4fd33f	-0.05073857
156	0x3d878665	0.066174306
157	0xbc056976	-0.00814282
158	0x3d493a04	0.049127594
159	0x3ca43240	0.020043492
160	0x3d510419	0.0510293
161	0x3cd4cc94	0.025976457
162	0x3cd49fc7	0.025955094
163	0xbbb900d4	-0.0056458507
164	0x3d462d91	0.0483833
165	0xbd1b94a6	-0.03798356
166	0x3c8098d2	0.01569787
167	0xbd19e0ef	-0.03756803
168	0xbcd8f452	-0.026483689
169	0xbd3d4279	-0.04620597
170	0x3d92b30b	0.07163056
171	0xbd2d5f21	-0.04232705
172	0xbc8e23fb	-0.017351141
173	0x3d689f2f	0.056792434
174	0xbcb5f63a	-0.022212137
175	0x3d31c175	0.043397386
176	0x3cb252b1	0.021767946
177	0xbc9f9189	-0.019478576
178	0x3d47d6df	0.0487889
179	0x3c0e2cb4	0.00867765
180	0xbcc31ae4	-0.023816533
181	0xbcfafc32	-0.030637834
182	0x3baf916c	0.005357912
183	0x3c2a6f64	0.010402534
184	0xbadd7382	-0.0016895386
185	0x3d4a76a7	0.049429562
186	0xbd666d34	-0.056256488
187	0xbc712088	-0.014717229
188	0x3cdb2091	0.026748927
189	0xbcc29df9	-0.023756968
190	0x3d5adc8d	0.05343299
191	0xbb9ff850	-0.004881896
192	0x3cab72af	0.020928709
193	0xbd108c09	-0.035289798
194	0x3c7918f0	0.0152036995
195	0x3c24a300	0.010048628
196	0xbc06abbe	-0.0082196575
197	0xbc174186	-0.009231931
198	0xbd76c8ce	-0.060250096
199	0x3bed814d	0.00724808
200	0x3c5fab8c	0.01365174
201	0x3ce25c98	0.027632043
202	0x3d2a24f5	0.04153915
203	0xbc790d3c	-0.015200909
204	0x3cd2251b	0.025652459
205	0xbcdd1f59	-0.026992487
206	0x3d0c4d5d	0.034253467
207	0xbcfccd9d	-0.030859763
208	0x3a84dc98	0.0010136543
209	0x3d85ef6b	0.06539806
210	0xbce245f1	-0.027621241
211	0x3b1eb60d	0.0024217397
212	0xbd2fed53	-0.04295094
213	0x3b42babc	0.0029713353
214	0x3d57e734	0.052710727
215	0xbccc9e3d	-0.024977798
216	0x3c24359a	0.010022545
217	0x390970f8	0.00013107422
218	0xbce9812b	-0.028503975
219	0xbcbfe5d5	-0.023425022
220	0xbd1d0656	-0.03833612
221	0x3d569550	0.05238849
222	0xbd2d821a	-0.042360403
223	0x3cfdd8cf	0.030987171
224	0xbd3502c8	-0.044192106
225	0x3d176f79	0.036971543
226	0xbbaf2ff5	-0.005346293
227	0x3d1e4725	0.038642067
228	0xbd3a0cb5	-0.045422275
229	0xbcb95f17	-0.02262835
230	0xbdabd64a	-0.08390482
231	0x3d23876b	0.039924067
232	0x3d834b52	0.064108506
233	0x3d0f4359	0.034976337
234	0x3d6aab8b	0.057292502
235	0xbbdfdd1c	-0.006831778
236	0xbcddf275	-0.027093152
237	0xbc9cc5a8	-0.019137219
238	0xbc808bdc	-0.01569169
239	0xbd53009b	-0.05151425
240	0x3d7b1c01	0.061306003
241	0xbcc55ea6	-0.024092983
242	0xbd793f15	-0.060851175
243	0x3cdbd9b3	0.026837206
244	0xbb6c0704	-0.0036014924
245	0xbd4c5685	-0.0498872
246	0xbd6e9a6b	-0.058252733
247	0x3bc1f616	0.0059192283
248	0xbd500dc0	-0.050794363
249	0x3bdd2fb2	0.0067500705
250	0x3d016817	0.03159341
251	0x3bdb6f63	0.006696628
252	0xb9d7011b	-0.0004100882
253	0x3d67ae7c	0.056562886
254	0x3c26ace2	0.010173054
255	0x3c3b9700	0.011449575

mu.2.bias f4 [256]
0	0xbbbbeef6	-0.0057352735
1	0x3d7502a2	0.059816964
2	0xbd13d1e7	-0.03608885
3	0xbbc38c5c	-0.00596766
4	0xbd4ff80e	-0.050773673
5	0x3c41039f	0.0117806485
6	0xbbf3f20d	-0.007444626
7	0x3a98f0a2	0.0011668394
8	0xbc92910e	-0.017891433
9	0xbcd2350a	-0.025660057
10	0x3aa7296f	0.0012753437
11	0x3d1e5875	0.038658578
12	0x3caa17e8	0.020763353
13	0x3c12cad7	0.008959494
14	0xbd45690a	-0.048195876
15	0xbd1f6cd7	-0.038922157
16	0xbca61f83	-0.020278698
17	0xbd375e74	-0.044767812
18	0x3ca55449	0.020181792
19	0xbd4073ca	-0.046985425
20	0x3b68c0e2	0.0035515358
21	0xbd3a059b	-0.045415502
22	0x3cb47f65	0.022033403
23	0x3cb8676f	0.022510258
24	0x3d80216a	0.06256373
25	0x3cc3e285	0.023911724
26	0x3d420ad1	0.047373597
27	0x3a8391ea	0.0010037993
28	0xbd499266	-0.049211882
29	0xbc56eae5	-0.013117527
30	0x3d22d6b9	0.039755557
31	0x3d0dc483	0.034611236
32	0x3d0254a8	0.031819016
33	0xbca08c51	-0.019598158
34	0x3d08aadc	0.03336607
35	0xbd1abd17	-0.037777986
36	0x3c927fbb	0.017883172
37	0xbcae5d22	-0.021284644
38	0x3cf7a307	0.030229105
39	0xbd478ba2	-0.04871715
40	0x3c94b7e5	0.018154094
41	0xbd12bad0	-0.03582269
42	0x3bd196f3	0.0063961684
43	0xbd4d39bf	-0.0501039
44	0x3cae0b2e	0.021245565
45	0x3c00bf61	0.007858128
46	0xbd43bc03	-0.047786724
47	0xbd50abb7	-0.05094501
48	0xbd5ecc6a	-0.054394163
49	0xbbf5191b	-0.0074797994
50	0x3d22572f	0.039633926
51	0xbd0a8ac4	-0.033823743
52	0x3cb8c14f	0.022553114
53	0xbbbc8a50	-0.005753793
54	0x3d0caeb8	0.034346312
55	0x3b6c750e	0.0036080512
56	0x3d13c607	0.036077525
57	0xbd42ae3f	-0.047529455
58	0x3d087e70	0.033323705
59	0x3d369f52	0.044585533
60	0xba0f5322	-0.0005467405
61	0x3c489121	0.012241633
62	0xbd3bd579	-0.04585788
63	0x3b9d71cc	0.0048048254
64	0x3cef0700	0.029178143
65	0xbd29c923	-0.041451585
66	0xbc584332	-0.013199614
67	0x3d2144e3	0.039372336
68	0xbd401f12	-0.04690463
69	0x3b582bd8	0.0032985117
70	0x3d582871	0.052772943
71	0xba6d77ff	-0.00090587133
72	0x3c97b4a9	0.018518763
73	0xbd656595	-0.05600508
74	0xba970a0b	-0.0011523379
75	0x3d1428b3	0.036171626
76	0x3c251837	0.010076574
77	0xbc9fcc90	-0.019506723
78	0xbd657f2a	-0.056029476
79	0xbc09e1d0	-0.008415654
80	0xbd521cfa	-0.051297165
81	0x3ccbbba3	0.024869746
82	0x3d551a66	0.05202713
83	0x3d066bf9	0.032817814
84	0xbd841240	-0.064487934
85	0x3d5ecea8	0.0543963
86	0xbd72d522	-0.05928529
87	0xbc00a168	-0.007850982
88	0x3d2f7bb8	0.042842597
89	0x3bf11644	0.0073573906
90	0xbd2fd0c4	-0.042923704
91	0x3c5f8457	0.013642392
92	0xbd64e824	-0.05588545
93	0x3c3eb7b1	0.011640475
94	0x3cba3ca2	0.02273399
95	0xbcb15910	-0.021648914
96	0x3d249a40	0.040186167
97	0xbce796e4	-0.028270192
98	0x3d19b1c2	0.03752304
99	0x3a2e649c	0.0006652565
100	0xbd6c55f4	-0.05769916
101	0x3c98ddd9	0.018660473
102	0xbd579479	-0.05263183
103	0x3d69de7e	0.05709695
104	0xbd26e94a	-0.040749826
105	0xbcfc829c	-0.030823998
106	0x3d80ece3	0.062951826
107	0xbcf2fd87	-0.029661907
108	0xbcb59e8c	-0.022170328
109	0x3d0c3b25	0.034236092
110	0x3c9a0003	0.018798834
111	0xbd42246a	-0.04739801
112	0xbcafd3b5	-0.021463254
113	0xbd463c9c	-0.048397645
114	0x3d822429	0.06354553
115	0xbd5339ba	-0.051568724
116	0xbd4e5a35	-0.050378997
117	0xbd4f60ce	-0.05062943
118	0x3cab4c91	0.020910533
119	0xbd5e754e	-0.05431109
120	0xbd64d35b	-0.055865627
121	0x3cd73d24	0.026274271
122	0xbc3f62fe	-0.011681316
123	0xbcb9784a	-0.022640366
124	0xbd207705	-0.039176006
125	0x3ba5b3a8	0.005056817
126	0xbd61e797	-0.055152502
127	0x3c993f6b	0.018706998
128	0x3c83b4a8	0.016077355
129	0x3c154fae	0.009113235
130	0xbcb0ecfe	-0.021597382
131	0xbc92bf54	-0.017913498
132	0xbc29594d	-0.010336232
133	0xbd652518	-0.05594358
134	0x3c6be3f8	0.014397614
135	0xbd8276fe	-0.06370352
136	0xbd4dafbf	-0.050216433
137	0x3d752bd5	0.059856255
138	0x3c0c5315	0.00856473
139	0x3d475018	0.048660368
140	0xbd68abda	-0.056804515
141	0x3b8a5f0c	0.0042227563
142	0xbd24dea1	-0.040251378
143	0xbd559b97	-0.052150335
144	0x3cad878e	0.021182802
145	0xbd4c3b80	-0.04986143
146	0x3cc63ad4	0.024197973
147	0xbc6fc40e	-0.014634145
148	0x3a0cced7	0.0005371398
149	0x3acaa899	0.0015461623
150	0xbd5d9215	-0.054094393
151	0xbb250b56	-0.0025183759
152	0x3caa6c94	0.020803727
153	0xbd2c8758	-0.04212126
154	0xbd78c289	-0.0607324
155	0x3ce46857	0.027881784
156	0xbd0f5ee0	-0.03500259
157	0x3d13046c	0.03589289
158	0xbd8f0cad	-0.069848396
159	0x3d631c39	0.055446837
160	0x3d5a86b1	0.053351108
161	0xba29924f	-0.000646864
162	0x3d6aabd3	0.05729277
163	0xbd0de1e7	-0.034639265
164	0xbd0f7e93	-0.03503282
165	0xbd276ceb	-0.040875357
166	0xbd7c1aaf	-0.061548885
167	0xbd26a05d	-0.040680278
168	0x3c04ab11	0.008097426
169	0xbd131246	-0.0359061
170	0x3c1baf30	0.009502217
171	0x3d790fda	0.060806133
172	0x3d4d4516	0.050114714
173	0xbc1fb5cc	-0.009747934
174	0x3d4176df	0.047232505
175	0x3b905edd	0.00440584
176	0xbb9d02a9	-0.004791577
177	0xbca966e6	-0.020678949
178	0x3d672ce3	0.05643929
179	0xbcc4a082	-0.024002317
180	0xbcc2d554	-0.023783363
181	0x3bcdbc9c	0.0062785875
182	0xbd1d7960	-0.03844583
183	0xbd5fe991	-0.054666106
184	0xbd3edf3f	-0.046599623
185	0x3d3463d2	0.04404051
186	0x3d3cd41b	0.046100717
187	0xbcc782c0	-0.024354339
188	0x3d114714	0.035468176
189	0xbc1da8cc	-0.009622764
190	0xbd309635	-0.043112
191	0xbd3c90d2	-0.04603655
192	0xbc640e58	-0.013919435
193	0x3d2dd059	0.042435024
194	0x3bc06e08	0.0058724917
195	0xbca5d611	-0.020243676
196	0x3d1f3eef	0.038878378
197	0xbd5dd9ff	-0.054162975
198	0x3a49774a	0.0007685317
199	0xbab5aced	-0.001386074
200	0x3cbf6a4d	0.023366118
201	0x3bb8f7c5	0.005644771
202	0x3cfbf5f8	0.030756935
203	0x3c8a56fc	0.01688718
204	0x3bff9b93	0.0078005283
205	0xbc8231e2	-0.015892927
206	0xbd06fad1	-0.03295404
207	0x3c7ecd12	0.015551822
208	0xbcfcb63e	-0.030848619
209	0x3ca32a14	0.019917525
210	0x3d56f0c9	0.052475724
211	0xbd287eb1	-0.041136447
212	0x3d2ca3c1	0.042148355
213	0xbd36c602	-0.04462243
214	0x3c00acaf	0.007853671
215	0xbcd75ee2	-0.02629036
216	0x3c1021da	0.008797133
217	0x3d44a2e7	0.04800692
218	0x3d0ab773	0.033866357
219	0x3d05b33b	0.03264163
220	0xbd6d745b	-0.057972293
221	0x3cfec8ff	0.031101702
222	0xbc8c9046	-0.017158639
223	0x3d118864	0.035530463
224	0xbce22d06	-0.02760936
225	0x3bb8ae27	0.005635995
226	0xbd5cc298	-0.053896517
227	0xbd302e08	-0.04301265
228	0x3d34bcf5	0.044125516
229	0x3d1b6027	0.037933495
230	0xbc930bc1	-0.01794994
231	0xbd5b0b0a	-0.053477325
232	0x3d4d24de	0.050083987
233	0x3d135412	0.035968848
234	0xbbbb6947	-0.005719337
235	0x3cc36a6b	0.023854455
236	0x3b837615	0.004011879
237	0xbc9cb3b1	-0.019128652
238	0x3d19651f	0.037449952
239	0x3d45d63f	0.048300024
240	0x3ce96fa0	0.02849561
241	0xbc138fab	-0.009006421
242	0x3c535ffa	0.012901301
243	0x3c220077	0.009887806
244	0x3d41abb4	0.04728289
245	0xbd771b99	-0.060329054
246	0x3c071f55	0.008247216
247	0x3d1503c4	0.036380544
248	0x3c845ebb	0.016158452
249	0x3ce81286	0.028329145
250	0x3c822121	0.015884938
251	0xbd5887c2	-0.052863844
252	0xbd78bd30	-0.0607273
253	0x3d80ead0	0.06294787
254	0xbb2e60ab	-0.0026607912
255	0xbd18eac8	-0.03733328

mu.4.weight f4 [19, 256]
0	0x3d68f560	0.056874633
1	0x3cc0581e	0.023479518
2	0x3d2019c9	0.03908709
3	0xbd39f1f9	-0.04539678
4	0x3d797460	0.060902
5	0xbd866c67	-0.06563645
6	0x3d409951	0.047021214
7	0x3d28f3cd	0.04124813
8	0x3ce36102	0.027756218
9	0xbd196a82	-0.03745509
10	0x3d7ec2ee	0.06219762
11	0x3d5c0242	0.05371309
12	0xbd6214b2	-0.055195518
13	0xbd63f13e	-0.05564999
14	0x3d30456e	0.043034963
15	0x3ca1ed78	0.019766554
16	0xbd787c89	-0.06066564
17	0x3ba4d9a4	0.0050308276
18	0x3bd96447	0.0066342684
19	0xbdcd239e	-0.10016559
20	0xbc85cef3	-0.016334033
21	0x3c2dab3f	0.01059991
22	0x3c8c9a72	0.017163489
23	0x3d19df19	0.037566278
24	0xbd93d078	-0.07217497
25	0xbda5c199	-0.080935664
26	0xbd45fa6e	-0.04833453
27	0xbccfc955	-0.025364557
28	0xbce3157d	-0.027720207
29	0xbccf970f	-0.025340585
30	0xbd4e982e	-0.0504381
31	0x3bf450d7	0.007455926
32	0xbd44231a	-0.047885038
33	0xbd43daf5	-0.047816236
34	0x3ce07ce1	0.027403297
35	0x3d8a5650	0.06754744
36	0xbdb3fcb5	-0.087884344
37	0x3d478f81	0.04872084
38	0xbce02b34	-0.02736435
39	0x3d636cfa	0.05552385
40	0x3c3401ca	0.010986755
41	0x3d7e8a6a	0.06214372
42	0x3c6fb6da	0.014630998
43	0x3d42a24e	0.047518067
44	0xbd3b7f30	-0.045775592
45	0x3d82e666	0.06391601
46	0xbcdc48f3	-0.026890254
47	0xbae92c57	-0.0017789704
48	0xbcad5ce5	-0.02116246
49	0xbc7548cf	-0.014970972
50	0x3d181e32	0.03713817
51	0xbd352e60	-0.04423368
52	0x3c400750	0.011720493
53	0xbd591deb	-0.053007048
54	0x3d0ed6b9	0.034872744
55	0x3d8b1077	0.0679025
56	0x3d63463e	0.05548691
57	0x3b81bed7	0.0039595175
58	0x3dc7492f	0.097307555
59	0xbb98e77a	-0.004666266
60	0xbce59e1d	-0.028029496
61	0xbd2914ec	-0.04127972
62	0xbd4d169d	-0.050070394
63	0x3d76b3bc	0.06023
64	0xbcd3c718	-0.025851771
65	0xbdaca169	-0.08429224
66	0xbd60faeb	-0.054926794
67	0x3cd3d28c	0.025857233
68	0x3d2d8380	0.042361736
69	0x3ce2b3a0	0.027673542
70	0xbd3bc9e5	-0.04584684
71	0xbd7a5ab0	-0.061121643
72	0x3d91da9b	0.07121774
73	0x3c8a8f9f	0.016914187
74	0x3cd48c79	0.025945889
75	0x3cf6b162	0.03011388
76	0x3bfe714d	0.0077649713
77	0x3d669da4	0.05630268
78	0x3ce860a1	0.028366389
79	0xbd43e713	-0.04782779
80	0x3d5250f7	0.051346745
81	0xbc016b00	-0.007899046
82	0x3d43cc30	0.04780215
83	0x3d8d6219	0.06903476
84	0xbd856c88	-0.06514841
85	0xbd7edf2c	-0.062224552
86	0xbcf3daa3	-0.02976734
87	0xbc40c6dd	-0.011766163
88	0xbd85da20	-0.06535745
89	0x3d0801a0	0.033204675
90	0x3c75d9ea	0.015005568
91	0xbd904690	-0.07044709
92	0x3ccfd083	0.02536798
93	0xbd54077c	-0.05176495
94	0x3d10c208	0.035341293
95	0x3d63f490	0.055653155
96	0xbdbfce4d	-0.093655206
97	0xbd00e8c9	-0.031472
98	0x3d1ba59e	0.03799974
99	0x3d59b605	0.053152103
100	0xbb4fe41d	-0.003172166
101	0xbdaa54bf	-0.08316945
102	0x3d2822a7	0.041048672
103	0xbd293234	-0.041307643
104	0x3cc8d415	0.024515191
105	0x3c709613	0.014684218
106	0xbcdb2fab	-0.026756128
107	0x3d2ca4c0	0.042149305
108	0xba7a15e1	-0.00095400034
109	0x39a1e8f4	0.00030881877
110	0x3d26f0ea	0.040757097
111	0xbd25f0b0	-0.04051274
112	0xbd10e261	-0.03537214
113	0xbdafcaf9	-0.08583636
114	0x3d3a5699	0.045492742
115	0x3ce1ad40	0.027548432
116	0xbca43f8d	-0.020049835
117	0xbd412655	-0.047155697
118	0x3be9e95e	0.0071384152
119	0xbd1cac6e	-0.03825038
120	0x3d2134d8	0.039357036
121	0xbd8c5d82	-0.06853773
122	0xbc803acf	-0.015653042
123	0xba6e267f	-0.0009084716
124	0xbd522d51	-0.05131275
125	0x3d95105c	0.07278511
126	0xbd80c2c9	-0.06287152
127	0x3d3a8470	0.04553646
128	0xbd8bd435	-0.06827585
129	0x3d04a77e	0.032386295
130	0xbd66957b	-0.0562949
131	0x3d76ffc0	0.060302496
132	0x3d7f0d60	0.062268615
133	0x3cc20393	0.023683345
134	0x3d0b87d4	0.034065083
135	0x3c70753d	0.014676389
136	0x3d8a69a4	0.067584306
137	0xbcb6a645	-0.02229608
138	0xbd121b6b	-0.03567068
139	0xbda16624	-0.0788081
140	0x3c6ed5cd	0.014577341
141	0x3d359dbe	0.044339888
142	0xbd211461	-0.039326075
143	0xbd39ddfe	-0.045377724
144	0x3d17c2dd	0.03705107
145	0xbd34a03e	-0.04409813
146	0x3ba022dd	0.0048869685
147	0xbccdeb0b	-0.025136491
148	0x3cbd5793	0.023113048
149	0xbc4408e4	-0.01196501
150	0x3d30cfa9	0.04316679
151	0xbd2188b5	-0.039437015
152	0xbbf42666	-0.0074508665
153	0x3d2a9753	0.04164822
154	0x3d6fba53	0.058527302
155	0x3d201025	0.039077897
156	0xbb877587	-0.0041338834
157	0x3d12bd7b	0.035825234
158	0xbd2d8221	-0.04236043
159	0xbcf99bc9	-0.030469792
160	0xbd55126c	-0.05201952
161	0x3d81b4fc	0.06333348
162	0x3b9a358b	0.00470609
163	0x3d4348aa	0.04767672
164	0x3d26f9f9	0.040765736
165	0xbd2ff401	-0.04295731
166	0xba8d53be	-0.0010782403
167	0xbd49446d	-0.04913752
168	0xbccdd8f1	-0.02512786
169	0x3a953a11	0.0011385103
170	0x3d2fa8e4	0.042885676
171	0xbd6088c7	-0.05481794
172	0xbd87231c	-0.065984935
173	0xbd86f6c0	-0.065900326
174	0x3cb8b658	0.022547886
175	0xbd96f3b5	-0.07370702
176	0x3cf8bf92	0.030364785
177	0xbd27f270	-0.04100269
178	0x3ce259c5	0.027630696
179	0xbd1a2a51	-0.037638012
180	0xbcb3ed9d	-0.021963889
181	0xbc44bf65	-0.012008523
182	0xbd2def89	-0.042464767
183	0x3a34372b	0.0006874676
184	0x3da113aa	0.07865079
185	0x3d172b9a	0.036906816
186	0xbd51106b	-0.051041048
187	0xbd103c73	-0.0352139
188	0x3d543358	0.051806778
189	0xbc4c7f69	-0.012481549
190	0x3d63920f	0.055559214
191	0xbd67fe4c	-0.056639
192	0xbd2e855c	-0.04260765
193	0x3d0d30de	0.03447043
194	0x3c7d0aa2	0.01544443
195	0xbc36691c	-0.011133458
196	0xbcd08c27	-0.025457455
197	0xbd3807f1	-0.04492945
198	0x3ccbedbc	0.024893634
199	0x3d825dae	0.06365524
200	0x3cd92622	0.026507441
201	0x3c8a382e	0.016872492
202	0xb9da7bad	-0.00041672346
203	0x3d07f5e8	0.0331935
204	0x3d4197b9	0.047263835
205	0x3ca56dab	0.020193895
206	0x3d72dcb9	0.05929253
207	0xbd9585c0	-0.073009014
208	0xbcc97b59	-0.02459495
209	0x3d4299b3	0.04750986
210	0xbd894050	-0.0670172
211	0x3d2177e1	0.039420966
212	0xbd40abaf	-0.04703873
213	0xbcdc646b	-0.026903352
214	0x3da20b90	0.079123616
215	0x3cfb8a97	0.030705733
216	0x3bef3ab4	0.007300699
217	0xbd5382bb	-0.051638346
218	0xbccf7888	-0.025326028
219	0x3d8791c4	0.066195995
220	0xbda21fdc	-0.07916233
221	0xbd1b5700	-0.037924767
222	0xbd667a1a	-0.05626879
223	0x3d3d8d65	0.046277422
224	0x3d8c6346	0.068548724
225	0xbcb6c162	-0.022309009
226	0x3d32dd96	0.043668352
227	0xbbe6abbc	-0.0070395153
228	0xbbb1e323	-0.005428688
229	0xbc8d5f69	-0.01725741
230	0xbc9bf83d	-0.019039268
231	0x3cf98023	0.030456608
232	0xbd21949a	-0.039448358
233	0x3ce0c3bc	0.027437083
234	0x3c952616	0.018206637
235	0xbc4e96c1	-0.012609185
236	0x3c9fb5e8	0.01949592
237	0xbcc7242c	-0.02430924
238	0x3d7c235e	0.061557166
239	0x3d6b026d	0.05737536
240	0x3d05aee4	0.03263749
241	0x3ce5125e	0.02796286
242	0xbcac734a	-0.021051068
243	0x3dc70588	0.09717852
244	0xbd0310bc	-0.03199838
245	0xbcc721bb	-0.024308076
246	0xbcec7cff	-0.028868197
247	0xbd57ceea	-0.052687563
248	0x3d2e9158	0.04261908
249	0xbd7bca9d	-0.061472524
250	0x3d0b6db0	0.034040153
251	0x3b665de6	0.0035151183
252	0x3ce08a22	0.027409617
253	0xbcaa035b	-0.020753553
254	0x3c42e022	0.011894258
255	0xbccee8ff	-0.025257586

mu.4.bias f4 [19]
0	0x3d284b9d	0.041087735
1	0x3d065206	0.032793067
2	0xbce9cda6	-0.028540444
3	0xbd5cce8e	-0.053907923
4	0x3d1f1895	0.038841803
5	0x3d568782	0.052375324
6	0x3d66b48b	0.056324523
7	0xbca0b8a7	-0.0196193
8	0x3c168c0f	0.009188666
9	0x3c60246b	0.013680558
10	0x3b0a154e	0.0021069827
11	0x3d47bb96	0.04876288
12	0xbce20f0d	-0.027595067
13	0xba7bb32b	-0.0009601588
14	0x3ca854bd	0.020548219
15	0x3cbb218f	0.02284315
16	0xbc5866b0	-0.013208076
17	0xbb6a04d1	-0.0035708437
18	0xbd82f00d	-0.06393442
