AM_RL/Planner/model/pretraining_planner.pth (torch, 290560 bytes, 6 tensors)

mu.0.weight f4 [256, 13]
000000 3f 30 3b 3d ec aa 7f be 3a 11 33 be 2e af 91 3e
       0.045700308 -0.24967545 -0.1748704 0.28453964
000010 5c c8 05 be 21 94 1d 3e 47 87 91 3d b5 0a 11 3e
       -0.13064712 0.15388538 0.0710588 0.1416424
000020 c6 5b 13 3d 87 a4 1b 3e fb 9d 0b 3e 09 70 f4 3d
       0.035976194 0.15199481 0.13634484 0.119354315
000030 c8 37 76 3d fe 8d 2b 3e 8d 7d 39 3d 25 6a 91 3d
       0.06011179 0.16753384 0.04528575 0.071003236
000040 3d 68 86 3d 12 97 d9 3b 6b 3e 39 3c 62 2b e1 3c
       0.065628506 0.0066403234 0.0113063855 0.027486507
000050 1e 2a 3e 3d 6e df 79 3e e6 6b 1c 3c f8 8c 06 3e
       0.046426885 0.24401638 0.009547209 0.13139713
000060 6d 3f 5e 3c b0 da 07 3e 90 6e 53 be e7 f2 48 be
       0.013564927 0.13267016 -0.20647645 -0.1962391
000070 27 3f 82 3e 1c 61 81 be 74 13 90 3e 5c 45 93 3e
       0.25438806 -0.252694 0.28139842 0.28763855
000080 cf b7 7a be 21 3b 7c 3d 42 a5 8f be 3d 2f e7 3d
       -0.2448418 0.061579827 -0.2805577 0.11288307
000090 2a db f1 bc e4 84 4d 3e 6a f2 bb bd f9 66 51 be
       -0.02952345 0.20070225 -0.09177096 -0.20449437
0000a0 bb 3c 16 be 9b 50 99 3e ea 81 a3 3d 00 ac b1 bd
       -0.14671604 0.2994431 0.079837635 -0.086753845
0000b0 ec 90 7f 3e 01 0e 4f 3c b2 b8 58 3d c7 5f 32 3e
       0.24957627 0.012637616 0.052910514 0.17419349
0000c0 ba 17 c4 3d 27 da 00 bc 37 5c 2d be fe fb 65 3c
       0.09574838 -0.007864512 -0.16929708 0.01403713
0000d0 af 93 c2 bd 19 1c 81 3d a4 8b 2d 3d bf d9 6f 3e
       -0.09500825 0.06304187 0.0423695 0.23422907
0000e0 b4 2c 63 3e a7 c8 5f be 9b c8 09 3e f3 a8 3d 3e
       0.22185022 -0.21853887 0.13455431 0.1852148
0000f0 81 bd 8b 3e db be c2 3d bd 24 68 be 57 d0 a5 bc
       0.27293018 0.09509059 -0.22670265 -0.020240946
000100 cb f1 be bd 05 af 2b be b5 38 85 3e ff 37 eb 3c
       -0.09323462 -0.16765983 0.26019827 0.028713224
000110 e6 f6 9b be a8 5d 5a be 5d 61 e8 3c 89 b1 29 be
       -0.30461806 -0.2132479 0.028366739 -0.1657163
000120 40 42 23 3e 28 d2 0d 3d ad ad 61 be 25 b1 22 bd
       0.15943241 0.03462425 -0.22038908 -0.03971972
000130 d6 3e eb bd da 2a 42 be 86 67 d7 bd e6 4c 17 3e
       -0.114865944 -0.18961659 -0.105177924 0.14775428
000140 c7 f2 9e bd 9d 2a 7f 3d a6 0d a5 3d b6 83 60 3e
       -0.0776115 0.0622965 0.08059244 0.21925244
000150 a0 5c ea 3d 6d 58 69 3e b5 eb b6 bd 01 8e 4d 3e
       0.11443448 0.22787638 -0.08931676 0.20073701
000160 8f 10 42 3e 7d c5 3e bc 36 ba 42 3e fb 66 5d 3d
       0.18951629 -0.011643765 0.19016346 0.054053288
000170 18 dd e8 bd 2c 1a 76 be ed c2 6d bd d6 85 06 be
       -0.11370295 -0.24033421 -0.058047224 -0.13136992
000180 35 1e 53 be 2a 4b 38 3e a8 b6 8a be e7 ee 16 3e
       -0.20616992 0.17997423 -0.2709248 0.14739572
000190 5e a4 c4 bd d1 67 13 3d 9e 66 74 3d 73 75 61 3d
       -0.09601663 0.03598768 0.059668176 0.05504365
0001a0 6d ad 53 bd 0e e7 2a 3d c6 7f 02 3e a5 bc ba bc
       -0.051679064 0.041724257 0.12744054 -0.02279503
0001b0 04 3a 06 bd c5 f6 dc bd 2e 9d 3a 3e a7 74 54 be
       -0.03277017 -0.10789255 0.18224022 -0.20747624
0001c0 d9 0a 01 3e 03 7b 45 3e 8c ad 4a 3e 2c d6 0e be
       0.12601794 0.19285206 0.19792765 -0.13948888
0001d0 dd 0f 51 bd df c9 71 bd e1 6b 06 bd 34 fd 03 3e
       -0.05104052 -0.05903041 -0.032817725 0.12889558
0001e0 ff 96 2b 3d 2b 0e 63 3e 5a 56 4f be 21 99 0c be
       0.041892048 0.22173373 -0.20247784 -0.13730289
0001f0 ed 2c 07 be bf 2d 20 bd f3 9e 39 3e 17 d8 1e 3e
       -0.13200732 -0.039106127 0.1812704 0.15512119
000200 7d 3d 18 be 76 74 6d 3e d5 39 a2 3d f6 f9 70 3e
       -0.14867206 0.23188958 0.07921187 0.23532853
000210 bd 9a 46 3d d2 07 86 be bc dd f7 bd ce c4 3f 3e
       0.048487414 -0.2617784 -0.12102839 0.18727419
000220 2b ed ea 3d ee 39 40 3e 71 cf c6 3d 39 48 03 be
       0.114710175 0.18772098 0.09707535 -0.1282052
000230 aa 88 c6 bd 91 ad c9 bc 1b 10 32 bd bc 7e 51 3e
       -0.09694035 -0.024618896 -0.04347239 0.20458502
000240 6e 5d 7e 3e 69 45 3b 3e 3e fd 50 be 3e db 32 be
       0.24840328 0.18288197 -0.20409104 -0.17466447
000250 fa c5 02 be ab 2c 25 3e 3d 4c 73 bd 95 92 e7 3c
       -0.12770835 0.1613032 -0.05939888 0.028268138
000260 b0 76 3f be 9e 01 04 3e b3 0c 80 3c 98 5a ee bd
       -0.1869762 0.12891242 0.015631055 -0.11638373
000270 38 0f 87 be 34 2c 6a 3e 58 b8 7c be 13 7f 24 bd
       -0.26378798 0.22868425 -0.24679697 -0.04016025
000280 2c 29 84 3e 01 02 d8 bd 7b b6 5f 3d 87 1f 0b 3d
       0.25812662 -0.10547257 0.054617386 0.033965614
000290 ef 2c 91 be 57 50 72 bd ba 02 01 be 37 05 8b bd
       -0.28354594 -0.05915865 -0.12598696 -0.06788104
0002a0 b3 c1 87 be 6d 9c 9b 3d f2 e5 0e bd b2 0c 7c be
       -0.26514968 0.07598195 -0.03488726 -0.24614218
0002b0 b4 ca 02 be 22 2e c3 3d 78 78 74 3e 3b 3b 81 be
       -0.12772638 0.095302835 0.2387408 -0.25240502
0002c0 4c 2b c1 3c a8 6c f0 bc 65 cd d1 bb b3 65 56 3e
       0.023580216 -0.029348686 -0.0064026588 0.20937233
0002d0 84 38 c6 bd 56 08 47 3e 66 45 78 bd 05 c4 18 be
       -0.09678748 0.19436774 -0.06061306 -0.14918526
0002e0 69 67 96 3e c6 0a 12 3e da 4f b9 3b 57 ea 8b be
       0.2937577 0.14261922 0.005655271 -0.27327225
0002f0 34 65 5b 3e b8 7b f8 bd e2 3c 76 be 50 e7 8c 3e
       0.21425325 -0.121329725 -0.24046662 0.27520227
000300 cf e2 33 3d 8f 34 1f be b7 22 7f bd 92 d2 1b be
       0.043917473 -0.15547393 -0.062288966 -0.15217045
000310 5c b5 16 be 44 a3 88 be f3 f9 d3 bd 7b 8f 05 bd
       -0.1471762 -0.26687062 -0.103504084 -0.032607537
000320 4c dc 59 3d de 12 69 3d 09 2f 83 3e 78 44 4c be
       0.053188607 0.05690276 0.25621822 -0.19947994
000330 34 f1 1d be 0d 9e 04 3e c5 e8 29 3e a3 a6 25 be
       -0.15424043 0.12950917 0.16592701 -0.16176848
000340 fd f2 31 be 1a 40 7d be 86 6a 8b 3e 75 82 73 3e
       -0.17377849 -0.24731484 0.27229708 0.23780234
000350 87 8d a2 bd 6e 07 a1 3d 88 f0 c6 bc 14 46 66 3e
       -0.079371504 0.07862745 -0.024284616 0.2248767
000360 e7 0c 00 3e a7 03 88 be 91 43 7b 3e 9c 89 1c be
       0.12504922 -0.26565287 0.24537493 -0.15286869
000370 4e da 82 be 67 25 f2 3d 58 76 8b 3e 67 98 89 be
       -0.25557178 0.1182354 0.27238727 -0.26874086
000380 54 68 01 3e ac 73 39 be f1 f4 89 3e 31 58 33 be
       0.12637454 -0.18110532 0.26944688 -0.17514111
000390 8a c3 b7 3d 3d c1 d5 3d 1c 3b 5e bd 24 94 3f be
       0.08972843 0.10437248 -0.05425559 -0.18708855
0003a0 3b bf 45 be 36 05 3d 3e 4f 55 5b be e1 7b 3e 3c
       -0.1931123 0.18459019 -0.21419261 0.011626215
0003b0 c6 31 88 bd 2e 61 46 3c e1 69 c6 3b c8 0b d9 3c
       -0.066501185 0.01210813 0.006055102 0.026494876
0003c0 4c 36 79 be 6f 4a 4d 3e ad 86 27 3e 8d 44 44 3c
       -0.24337119 0.20047925 0.16359968 0.011979234
0003d0 9d 47 30 3e a1 1b 58 3d 17 ee c4 3c 55 06 80 3e
       0.17214818 0.052760724 0.024039311 0.2500483
0003e0 d2 a4 7a 3e c2 ea 84 3e 22 61 63 bc 79 6b 1c 3e
       0.24476936 0.25960356 -0.013878139 0.15275373
0003f0 67 ba 8a be b9 6a 80 3e ee b1 c3 3d dd 9c 49 3d
       -0.2709534 0.25081423 0.09555422 0.049221862

mu.0.bias f4 [256]
000000 aa d3 2b 3e 4b d4 89 be 59 03 96 3d f8 4e 62 3d
       0.16779962 -0.2691978 0.07324857 0.05525109
000010 89 67 6b 3e 58 60 8b be 20 ae 5c 3e ff 61 04 3d
       0.22988714 -0.27221942 0.21550798 0.03232002
000020 b2 6b 8f bc c3 ff 43 be c0 af 21 3e 06 72 bf bd
       -0.017507408 -0.19140534 0.157897 -0.0934792
000030 c7 60 29 3e a7 87 ed bb f8 f8 35 3c 36 0c 25 be
       0.16540824 -0.007248837 0.011106722 -0.1611794
000040 2b 8f 68 3e e3 61 21 be 25 bc 7b 3e e9 50 86 be
       0.22710864 -0.15759997 0.2458349 -0.26233605
000050 d4 b2 ac 3d 82 bb b5 bd 61 89 4d be 62 1a a6 bc
       0.08432546 -0.08873655 -0.20071937 -0.020276252
000060 7f c2 52 3e 8d 7f 64 bd 95 23 05 3e 91 7e 65 3e
       0.20582007 -0.055785704 0.13001855 0.22411563
000070 c5 2a 2a be 07 6d 9b bd 63 ed 0c be 9f 31 11 3e
       -0.16617878 -0.07589155 -0.13762431 0.14179085
000080 e8 b2 60 be b4 02 bb bd d2 07 c1 bd 9e 71 46 be
       -0.21943247 -0.09131375 -0.0942532 -0.19379279
000090 02 1b 11 3d bd 9b e2 bd 2e dc 8f 3d ca bd 59 be
       0.035426147 -0.11064861 0.07024418 -0.21263805
0000a0 6a 32 4b 3e af 37 13 3e c7 88 8d 3d 5e 1c 61 be
       0.1984345 0.1437671 0.06910854 -0.21983477
0000b0 24 ee ee 3d 34 43 36 3e 63 82 56 3e fd 81 69 be
       0.116665155 0.17799073 0.20948176 -0.22803493
0000c0 07 ed 40 be b0 d1 80 3e ce c3 a2 bd 1d 01 33 bc
       -0.18840419 0.2515998 -0.07947503 -0.010925558
0000d0 a7 36 50 3e 63 71 48 be f3 cd 12 3e ce 6b a6 bd
       0.20333348 -0.19574504 0.14336376 -0.08126031
0000e0 08 43 25 3e a2 58 d0 3d c4 6b 72 bd a0 8b 37 be
       0.16138852 0.10173155 -0.059184805 -0.17924356
0000f0 26 5b f3 bd 26 ef 7c 3e 9c af e9 bd ce 3c 0e be
       -0.118826196 0.24700603 -0.11410448 -0.13890383
000100 87 52 02 3e 31 92 9f bd 71 51 b8 ba bf 37 3e bd
       0.12726794 -0.07791556 -0.0014062357 -0.046439882
000110 42 b4 af bd a3 eb 61 3e f8 e4 22 3e f1 42 08 be
       -0.08579303 0.22062545 0.15907657 -0.13306786
000120 df 90 23 be 6a dc 22 be ef 0a 5a 3e ef 53 69 be
       -0.15973233 -0.15904394 0.21293233 -0.22785924
000130 59 aa 27 be 4f 40 66 3d d5 cd 8d 3e b2 05 9b 3a
       -0.16373576 0.056213673 0.276961 0.0011827259
000140 82 88 cb 3d ac 93 64 be db 73 57 3d c6 15 0d be
       0.09938146 -0.22321957 0.052600723 -0.13777837
000150 a0 a7 9c bd cc bc f0 3d 1d 66 28 3e fa 24 6a 3e
       -0.076491594 0.1175476 0.16445203 0.22865668
000160 45 47 f7 3d 07 ff 41 bd a1 0d 51 3e d6 e1 b3 bd
       0.120741405 -0.047362354 0.20415355 -0.08783309
000170 63 f7 0a be 53 6c 11 3e d0 2f 38 3e 45 5b 83 be
       -0.13570933 0.14201479 0.17986989 -0.2565557
000180 3c 65 7e be 45 02 00 3b 9f ff 76 3e 2f f8 e1 3d
       -0.24843305 0.0019532603 0.24120949 0.110336654
000190 ba 07 84 3e ad b9 74 3e f5 63 8c 3d 00 06 33 bd
       0.25787145 0.23898955 0.06855003 -0.043706894
0001a0 b1 34 f0 bd 7e b4 4f bd 7d e3 8f bd 9a e2 11 3e
       -0.117288 -0.05070924 -0.07025812 0.14246598
0001b0 27 d3 80 3e 55 b6 33 bd 47 97 80 be 1f 06 2d be
       0.25161096 -0.043875057 -0.25115415 -0.16896866
0001c0 90 50 76 be 7a 3f 24 3e 47 08 55 ba 57 81 06 be
       -0.2405417 0.1603984 -0.00081265386 -0.13135277
0001d0 da c4 48 3e 3d af f3 bd c2 66 32 be 00 63 59 be
       0.19606343 -0.118986584 -0.17422011 -0.21229172
0001e0 0e e7 7a 3d 58 e5 66 3e dd 64 ed 3d 63 7f e8 3d
       0.061255507 0.22548425 0.11591504 0.11352422
0001f0 c9 c4 7d be eb f7 59 3e ad 0a a1 bd ae d6 49 bd
       -0.24782099 0.2128598 -0.07863364 -0.049277
000200 71 83 8c 3e 27 89 7c be 21 fd a5 bb 21 39 26 3d
       0.27444032 -0.24661694 -0.0050655757 0.040581826
000210 e4 5f 4f 3e 10 73 7a be 0f ea 5a 3e bc 9c 46 bd
       0.20251423 -0.24457955 0.21378349 -0.048489317
000220 34 75 85 bd de 14 ba 3d 7e e7 8b 3d 10 45 94 3d
       -0.06516495 0.09086011 0.06831263 0.07239735
000230 5c 1f 26 3e e5 3c b6 3d 83 29 9f bc 5f 9e 56 be
       0.162229 0.088983335 -0.019428974 -0.20958851
000240 2b 8c 70 3e 09 63 26 bd 74 9f f3 bc b5 64 07 be
       0.2349097 -0.04062179 -0.02973912 -0.1322201
000250 07 04 3f 3c 5e ce d8 3d 9a 07 82 3e 9e 3a 00 be
       0.011658675 0.105862364 0.25396425 -0.1252236
000260 43 2b 3c bd 37 f8 05 3d 05 11 e9 bd b3 d6 25 3e
       -0.045939695 0.03270742 -0.11380199 0.16195183
000270 1a 99 a9 bd 73 83 15 be 0d b0 eb bd 4d 11 87 3e
       -0.08281155 -0.14600925 -0.115081884 0.26380387
000280 04 16 63 3d 9f 07 83 bd 70 b4 ca 3d dc 62 72 3b
       0.055440918 -0.06397938 0.09897697 0.0036985194
000290 c2 68 a0 3d a1 2c a6 bd e0 d5 86 3e 61 c9 09 be
       0.07832481 -0.08113981 0.2633505 -0.13455726
0002a0 94 10 22 3e 47 aa a2 bb 66 d0 88 be 55 7d 3a 3d
       0.15826637 -0.0049641463 -0.26721495 0.045529682
0002b0 43 5b 38 3d e4 98 76 3e 9c 04 f5 3c 34 97 b7 3d
       0.04500891 0.2408176 0.029909424 0.089643866
0002c0 a4 1d 7e be ad c2 30 be cd 03 87 be ce 80 81 be
       -0.24815995 -0.17261763 -0.26370087 -0.25293583
0002d0 46 05 85 be 56 59 84 3e fc fb 74 3e ab d0 9a 3d
       -0.25980586 0.25849408 0.2392425 0.075593315
0002e0 f6 65 9d bd 00 ad 7f be d2 fc 42 be e1 f1 19 3e
       -0.07685463 -0.24968338 -0.19041756 0.15033676
0002f0 e3 dc 08 be 4d ef 7f be d9 ad 1e 3e 2e 58 7d 3e
       -0.13365512 -0.2499363 0.15496005 0.24740669
000300 a6 94 63 3e 43 a9 c9 bb 83 f3 5b bd be 97 8c bc
       0.22224674 -0.006154211 -0.053699028 -0.0171622
000310 71 26 86 3e 77 6a 69 be 37 40 9b 3d f1 98 0a 3e
       0.26201203 -0.2279452 0.075806074 0.13534905
000320 02 1a c3 bd 8f 19 88 3c 9d 5b 66 3d 7a 14 4c 3d
       -0.09526445 0.01661375 0.056239713 0.049824215
000330 e8 46 60 be 78 07 6d 3e 82 77 af 3d b9 b0 ee 3d
       -0.21902049 0.2314738 0.08567716 0.11654801
000340 3f 06 20 bd 2d 3f 10 3e c7 81 1e 3e aa 33 8f be
       -0.039068457 0.140866 0.15479194 -0.27969104
000350 79 c7 5e be a9 a1 5b 3e e6 40 03 3d 25 b4 f7 bd
       -0.2175578 0.21448387 0.032044314 -0.12094907
000360 d1 8a 30 3e eb 52 b6 bd 27 87 80 3e 5b cf ba 3d
       0.17240454 -0.08902534 0.25103113 0.09121581
000370 b0 89 3a 3e 38 1e 17 bd 1c 31 aa 3c b4 c3 16 3e
       0.18216586 -0.036894053 0.02077537 0.14723092
000380 a0 6b 87 3e d2 be 58 3e ea d0 16 be 80 50 2c be
       0.264493 0.21166542 -0.14728132 -0.16827583
000390 ba 89 42 be c4 7b b4 bd b6 3b 16 be 62 01 8b 3e
       -0.18997851 -0.08812669 -0.14671215 0.27149493
0003a0 47 b8 b0 bd 79 e0 95 bc b0 a3 37 3d a4 6d 0a 3e
       -0.08628898 -0.018295513 0.04483384 0.13518387
0003b0 6f ca 30 3e c7 53 69 be cc 57 2b 3e 78 28 0c 3d
       0.17264722 -0.22785865 0.1673271 0.03421828
0003c0 72 b4 35 3e 72 61 5b 3d d3 d1 61 3d 47 ba 5f be
       0.17744616 0.053559728 0.055131745 -0.21848403
0003d0 98 44 63 3e 9a df 49 3e e7 7f 3c 3e 77 27 f6 3d
       0.22194135 0.19714203 0.18408166 0.12019246
0003e0 3d 0e 50 3e 2d a8 80 3e d6 86 65 3d 0b 48 7d 3e
       0.20317931 0.25128308 0.056036793 0.24734513
0003f0 18 e4 f5 bd a5 7f 64 be 51 e1 6d bd d6 ef d4 bc
       -0.12006396 -0.22314318 -0.058076207 -0.025993269

mu.2.weight f4 [256, 256]
000000 6c cf 74 bd ad 18 b6 bc ff 57 08 3c 19 06 15 bd
       -0.059768125 -0.022228563 0.008321761 -0.03638277
000010 9c 0f c9 3c 6c ec 8b 3c 78 c0 79 3b 0a 79 0b bd
       0.024543576 0.017080508 0.0038109105 -0.03405098
000020 09 e0 86 bc 4d 35 45 3d ac 6e 4f 3b 98 07 e6 b9
       -0.01646425 0.048146535 0.003165166 -0.00043874676
000030 58 de 09 3d 67 39 58 3b f6 2e a0 bd f3 d3 a7 3c
       0.03365931 0.00329932 -0.07821457 0.020486807
000040 ee 62 46 bd d2 1b 0e bb 33 6a 19 3c 5f a3 8a 3c
       -0.04843419 -0.0021684063 0.009363699 0.016923605
000050 da f2 9b bd a5 29 35 bc 5c c0 19 3d 57 27 64 3b
       -0.0761468 -0.011057292 0.037536964 0.0034813487
000060 85 a6 6b bc 42 37 65 3d b9 92 ab 3d 67 f8 62 3d
       -0.014382963 0.0559609 0.083775945 0.055412676
000070 f3 8b 65 3c 07 69 6f bd 91 c7 04 bd 59 4a 81 bd
       0.014010417 -0.05844977 -0.032416884 -0.06313009
000080 7e f3 47 bd 9c 6b 89 3d d0 fb b4 3c 0f 12 0f 3d
       -0.048816197 0.06709978 0.02209273 0.03492933
000090 ac a1 03 bd 9f 64 60 3c 81 0c 5b 3d 82 64 24 3d
       -0.032136604 0.013695865 0.05347872 0.040134914
0000a0 4d a4 b2 3c 87 95 8f bd 87 48 a1 3b ac 92 75 3b
       0.02180686 -0.07010942 0.004921976 0.0037471456
0000b0 55 75 65 bd 3a 8e 8d 3c 3b 94 d5 bb fd 11 92 bd
       -0.0560201 0.017279733 -0.0065179146 -0.07132337
0000c0 47 ca 2e 3c fb 65 68 3c 00 a1 92 3d d4 36 a3 3a
       0.010668344 0.01418447 0.071596146 0.0012452253
0000d0 6b c0 fe 3c ab fc 25 bd a4 c0 89 bd 63 42 9e bc
       0.031097611 -0.040524166 -0.067261964 -0.019318765
0000e0 d6 54 08 3c 0e 74 27 3d 77 2f a0 3c 63 77 33 3d
       0.008321008 0.040882163 0.019553883 0.043815028
0000f0 2f 9b 73 3d ab 6f d1 3d 2b 00 24 3d df 58 84 bc
       0.059474166 0.10226377 0.040039223 -0.016155658
000100 91 da 3f 3d f0 99 84 3c 41 a9 4e 3d 66 4c 0b 3d
       0.0468393 0.016186684 0.05045438 0.034008406
000110 fb e5 09 3c 10 93 78 bd d2 ac 48 b9 f9 9d 88 bd
       0.008416648 -0.060687125 -0.00019137867 -0.06670756
000120 56 2c af bd 65 e7 1f 3d d4 9d 6d bd 9d 02 d1 3c
       -0.08553378 0.039039034 -0.058011845 0.025513941
000130 87 d5 38 3d 47 79 6d bd f6 c8 09 3d db b7 a1 bd
       0.04512551 -0.057976987 0.033638917 -0.07896396
000140 ba ce 39 3c b6 4a 48 3d b5 46 94 3c 0c b2 e9 bc
       0.011340791 0.048899375 0.018100122 -0.028527282
000150 ca 1e c4 3c 0f 66 d9 3c 9f 5b 2a 3d f7 ba 2a 3d
       0.023940463 0.026537923 0.041591283 0.04168221
000160 65 4d 06 bd 05 36 24 bd 71 dc 01 3b 76 a6 10 bc
       -0.032788653 -0.04009058 0.0019815231 -0.00882875
000170 bb 9f 19 bd 64 bf 05 bd 7b aa b8 3c d6 b7 92 bc
       -0.037505846 -0.032653227 0.022542229 -0.017909925
000180 88 fc 2d bd fa 9c da ba 94 13 f4 bc 1c f8 55 bd
       -0.04247716 -0.0016678863 -0.029794492 -0.05223857
000190 5e 8f 77 bd 2c 2b e9 3c 9d 98 05 bd ca ab 13 bd
       -0.06043946 0.028462969 -0.032616246 -0.036052503
0001a0 b4 64 41 3d 69 04 15 bd b3 29 9f 3d 20 8a 8d 3d
       0.04721518 -0.03638116 0.07771625 0.06911111
0001b0 34 5b 8a bd ca a1 79 bd 92 81 79 3d e1 13 87 bc
       -0.06755677 -0.06094531 0.060914584 -0.016488971
0001c0 da 72 2a 3d 69 46 24 bd 01 28 04 bd ae 2c 91 bd
       0.041613437 -0.04010621 -0.032264713 -0.070886
0001d0 13 c1 17 bd e0 b6 2b 3b ad f7 34 3d 2e 4a 56 bd
       -0.037049364 0.0026201531 0.044181515 -0.052316837
0001e0 9c b6 6f bc f9 44 b8 3c 6a 44 5c bd 54 1d 4e bc
       -0.01463094 0.022493826 -0.053776182 -0.012580235
0001f0 a0 e7 e2 3b e8 11 04 3d 6a 7a 00 3d 76 96 90 3b
       0.0069245845 0.03224364 0.031366743 0.0044124676
000200 40 34 52 3c 08 f5 47 3d a6 5e 5b bd 63 3b bd bb
       0.01282984 0.048817664 -0.05355706 -0.0057749017
000210 69 57 26 bd 0f 0e 86 bc 31 4e 19 bd 53 8c 42 bd
       -0.040610705 -0.016364126 -0.037428085 -0.047497105
000220 ff 1a 1f 3d 14 c3 22 3d 0e 84 78 bd a2 8b 10 3d
       0.038844105 0.039736822 -0.060672812 0.035289414
000230 7c cb a0 3b 06 55 e2 3c eb 13 cd 3b 95 62 44 3c
       0.0049070697 0.027628433 0.006258478 0.011986394
000240 97 5d cd b8 38 9e 94 3d 6d 10 e5 bc 80 90 4f 3d
       -9.792594e-05 0.0725674 -0.027961934 0.050674915
000250 a6 c8 62 bd d1 e5 5d bd 3c 2b 04 bc 0d 20 f2 3c
       -0.055367135 -0.054174248 -0.0080669485 0.029556299
000260 17 ca 10 bd cd 82 87 3b 64 ae 36 bc 20 18 81 bc
       -0.035348978 0.0041354657 -0.011149976 -0.015758574
000270 59 90 87 bc 7a 02 45 3c e6 86 4c bd 61 a0 c7 bc
       -0.016548323 0.012024516 -0.049933337 -0.024368467
000280 a3 af 7d 3d 7e 55 52 3d 96 1d 6c 3d 33 79 ac 3c
       0.06193508 0.051351063 0.057645403 0.021053886
000290 28 93 07 bd 74 44 2c 3d d5 1d 43 3d db cd 97 3c
       -0.033099324 0.04205747 0.047635872 0.018530777
0002a0 77 f0 10 3d e5 b0 ad bb f6 78 9a 3c e7 4f c5 3b
       0.035385575 -0.0053006285 0.018856507 0.006021488
0002b0 b8 1b 20 3d 80 fb 1e 3d 1a 13 1f 3c 0c d8 3f bc
       0.039088935 0.038814068 0.009709144 -0.011709224
0002c0 fe 14 c2 3c f8 71 23 3d 7d 55 f2 bc 00 6c 47 3d
       0.02369165 0.03990361 -0.02958178 0.04868698
0002d0 e2 30 39 bd 89 6d 66 3d 8e cc 29 3d 32 db 9d bc
       -0.045212634 0.056256805 0.041454844 -0.01926956
0002e0 38 b2 ed bc 78 51 6d 3d c5 20 5d 3d a9 c6 f6 bc
       -0.029015645 0.057939023 0.05398633 -0.030124025
0002f0 d9 47 43 3d 77 25 e2 bb 09 51 1d bd 6d 3f dd bc
       0.04767594 -0.006901439 -0.03840736 -0.027007783
000300 23 35 cf 3c 38 f4 2d 3c 31 5e 9c 3c 31 f5 fc 3d
       0.025293892 0.010617308 0.019087883 0.12351454
000310 1c c3 19 bd 20 01 8f bc 9a 35 ac bc e5 e9 42 3d
       -0.037539586 -0.017456591 -0.021021653 0.04758634
000320 dd e3 97 3b 5c 07 01 bc 54 02 b3 bc b9 2c 78 3d
       0.0046353177 -0.00787529 -0.021851696 0.060589526
000330 b8 de a3 bc a3 38 df bc 82 46 7c bd d1 43 42 bc
       -0.020003662 -0.027248686 -0.06159068 -0.011856989
000340 c4 9e 8e bc 6b 43 93 bc 98 05 57 3d 49 c0 6b bd
       -0.01740969 -0.017976483 0.05249557 -0.057556424
000350 dc fc 60 3d 73 b2 00 bb 0a ca e9 3b 26 1d 4c bd
       0.054928645 -0.0019637614 0.0071346806 -0.049832486
000360 6b bd 18 3d 4c 13 8a 3d 42 cf 83 3d 59 d8 07 bd
       0.037290018 0.06741962 0.06436016 -0.03316531
000370 f4 05 f4 3c 6b 42 25 3c b5 2b f0 bb 0d 3e 1a 3d
       0.029787995 0.010086636 -0.007329429 0.037656832
000380 3c 26 db 3c 07 76 98 bb d9 d0 18 bd f8 d4 65 3d
       0.02675163 -0.004652742 -0.037308548 0.056111306
000390 60 bb 78 bc ca 5a 06 3d 6e 3d f6 3b 27 83 4a bd
       -0.015181392 0.032801427 0.007514647 -0.049441483
0003a0 ec 56 2b bd df bc 87 3d c6 11 b4 bb f8 22 8a bc
       -0.041830942 0.06627821 -0.005495283 -0.016862378
0003b0 d7 d5 e8 bc a1 7c 43 bd a3 9f 59 3d 44 b1 ea bb
       -0.02842228 -0.047726277 0.053130757 -0.007162245
0003c0 ae c8 c0 bb 65 57 73 3c d8 e5 27 3c 34 95 66 bd
       -0.005883298 0.014852379 0.01024767 -0.056294635
0003d0 39 d2 60 bd 02 f1 84 3d 4b 56 e3 3c 0f ed 63 bd
       -0.054887984 0.06491281 0.027751109 -0.055646
0003e0 1b b3 28 bd f2 98 cc 3c 47 74 d0 bc db 92 82 bd
       -0.041186433 0.024975274 -0.02544607 -0.06375667
0003f0 9e 14 8c 3d dc d5 d1 3c b9 cc 83 3d ba 74 3e bd
       0.0683987 0.025614671 0.06435532 -0.046498038

mu.2.bias f4 [256]
000000 63 21 16 bd 12 e5 55 3d 12 b0 f0 39 24 56 45 3d
       -0.036652934 0.05222041 0.0004590755 0.048177853
000010 6a 98 d2 bc 4e 6e a3 bb 44 38 74 3d 0e 1c 0d bd
       -0.025707442 -0.0049875146 0.05962397 -0.034450583
000020 97 47 1d 3d 46 61 38 3d a3 2a 0e 3b d4 74 79 bd
       0.03839835 0.045014642 0.0021692894 -0.06090243
000030 02 74 2d 3b 29 eb cc bc e0 50 1f 3d 67 a7 6c bd
       0.002646685 -0.025014477 0.038895488 -0.057776835
000040 06 a6 4b bd 02 2c 22 bd 7f 9e 95 ba 98 96 60 bd
       -0.04971888 -0.03959275 -0.0011415033 -0.054831117
000050 dc ff 2b bd 86 ed 43 3d 01 f1 ad 3c f2 d5 82 3c
       -0.041992053 0.047833942 0.021233084 0.015971158
000060 95 8c 71 bc b2 5d 6c 3d ec 8c 52 bd 55 40 64 bc
       -0.01474299 0.057706542 -0.051403925 -0.013931354
000070 c2 36 0e 3d 8f da 08 3d d9 b6 4b ba 85 01 bc 3c
       0.03472019 0.03341156 -0.0007771082 0.022949943
000080 1e cd f2 bc 55 a3 00 bd b7 ef 2f bd e4 3b 5b bc
       -0.029638823 -0.031405766 -0.04295322 -0.013380978
000090 ea 82 d6 bb fc b6 c5 bc 1f 7a 6b 3c 6b 7e b6 bc
       -0.006546368 -0.024135105 0.014372378 -0.022277078
0000a0 bb 6f a1 bc 3b 06 ff bc a3 51 e0 3b ed 5c e2 bc
       -0.019706598 -0.0311309 0.0068456694 -0.027632201
0000b0 00 1b 81 3d 85 ac 37 bd 47 a2 e3 3c 8f 3a cf 3c
       0.06303978 -0.04484226 0.02778734 0.025296478
0000c0 6a ff 28 3a 3b fa a5 bc 52 87 a4 bc 47 b8 72 bd
       0.0006446751 -0.02026092 -0.020084057 -0.05925777
0000d0 b6 0e 2d 3d e0 99 47 3c 18 48 10 bd 3e c1 37 bb
       0.042250358 0.012182683 -0.035225004 -0.0028038765
0000e0 e0 68 37 bd 60 83 52 bd 3b 70 4d 3c 0e a1 d3 3b
       -0.04477775 -0.05139482 0.012538965 0.006458408
0000f0 d8 49 c8 bc 03 2f 83 bd 17 7a 2f 3d 6d 1a f1 3b
       -0.024449274 -0.06405451 0.042841043 0.0073578865
000100 c8 70 df bc 53 05 79 bd e0 f9 cc bc 1f 24 f7 bc
       -0.027275458 -0.060796093 -0.025021493 -0.030168591
000110 5a 19 2b 3d 2c 95 25 bc 6b ff 0b bd df 93 46 3d
       0.041772224 -0.010106366 -0.034179132 0.048480865
000120 39 c6 15 bd 98 8c 1c 3d 69 80 40 bd 7f b9 46 bc
       -0.036565993 0.03822002 -0.04699746 -0.012129187
000130 b1 73 53 3d 7b a6 3e bd 5a 08 63 bc 87 f6 51 3d
       0.051624004 -0.046545487 -0.013856972 0.051260497
000140 d7 ec bf 3c 02 6e a3 3b f8 f3 0b bc c1 ab e2 bb
       0.023428364 0.004987479 -0.008542053 -0.0069174473
000150 67 61 24 bd 6b 01 0a 3d 5d cc 5a 3a 73 ee 64 3d
       -0.040131953 0.03369276 0.00083464925 0.055891465
000160 c5 84 c5 bc 86 ab aa 3c bd 6a 6f bd 26 95 70 3d
       -0.024111161 0.020833742 -0.058451403 0.05873599
000170 b4 f0 37 3d d3 27 cd 3b c4 74 9a 3c 9a 47 47 bc
       0.044907287 0.006260851 0.018854506 -0.012163067
000180 c7 7d 7d ba 97 ea 48 bd 50 09 16 bd a7 6d 3e 3d
       -0.00096699264 -0.049051847 -0.036629975 0.04649129
000190 9a df d8 bc ef a5 1b 3d 4f 2f 03 3d 2b 4a 78 3d
       -0.026473809 0.038000043 0.03202754 0.060617607
0001a0 b6 25 a7 3c 94 a2 ec 3c 45 86 f4 ba d6 eb 76 3d
       0.020403724 0.028886117 -0.0018655738 0.060283504
0001b0 1d fa 99 bd 06 36 ba 3c c3 7c 61 3d 39 f7 4c 3c
       -0.075184084 0.022730839 0.055050623 0.012510114
0001c0 cb ff de bc 98 41 4a bd 93 9b ef bc b5 f7 6a bc
       -0.027221581 -0.04937896 -0.029248988 -0.0143412845
0001d0 23 bc 11 bd 12 2c 41 3d 28 33 82 bd 96 73 67 bd
       -0.03557981 0.04716117 -0.063574135 -0.056506716
0001e0 b0 e8 0d bc 5d 6a 5c bd dd 60 b5 bc 85 9e 54 bd
       -0.008661434 -0.053812373 -0.022140915 -0.05190899
0001f0 dc 79 d9 bc da 61 a9 bb 5f 45 10 bd 49 62 7b 3c
       -0.026547365 -0.0051691355 -0.035222407 0.015343257
000200 af ca d5 bc 3d 2f 71 bc d1 15 71 bd ec 62 6c 3c
       -0.026097624 -0.014720735 -0.058858696 0.014427882
000210 31 12 96 bc f2 cf d4 bb 41 45 00 bd e2 44 8a 3c
       -0.018319221 -0.0064945156 -0.031316046 0.016878549
000220 04 03 8e bc f2 13 df 39 a5 db 47 bd 83 b2 39 3d
       -0.017335422 0.00042548735 -0.048793454 0.045336258
000230 e9 b0 85 3d c3 01 1f 3d 59 27 df bb 68 a1 a5 3a
       0.065278836 0.03882004 -0.0068101105 0.0012636604
000240 31 c3 1a bb d5 97 16 bb f7 34 3c bd b1 a3 40 bd
       -0.0023614878 -0.0022978683 -0.04594895 -0.04703111
000250 34 ce 1d bd 53 80 18 bd d7 65 4b 3d b0 b3 44 3d
       -0.03852673 -0.037231755 0.04965767 0.048022926
000260 c3 e1 de 3c 58 bb e5 3a d6 88 08 bd 0c 05 1d 3b
       0.027207261 0.0017527146 -0.033333622 0.0023959307
000270 69 7d 32 3d eb 14 d8 bc 51 13 89 3b 54 1d 0f bd
       0.04357663 -0.026377162 0.004183211 -0.03494008
000280 64 4e 34 3d 54 28 96 bc 20 7d a5 3c 1a 3e 5d bd
       0.04402007 -0.018329777 0.020201266 -0.054014303
000290 e3 d7 1d 3d 4c ee 9e 3c cb ec 82 bb 21 ef 06 3d
       0.038535964 0.019400738 -0.003995513 0.032942895
0002a0 a8 08 4b bd 7e 5a 5c bb 20 71 d2 bc 60 a4 88 bd
       -0.049568802 -0.0033623273 -0.025688708 -0.06671977
0002b0 ff d2 c5 3c bf 56 36 3c 92 ae 80 bc f5 4f 65 3b
       0.024148462 0.01112908 -0.015708242 0.0034990285
0002c0 65 40 15 bc 4a 1d 3b bc af d3 4d 3d 07 57 6f 3b
       -0.009109591 -0.011420557 0.050250705 0.0036520378
0002d0 dd e4 62 bd 9a c7 36 3d c5 ab 1c bd 22 40 1f bd
       -0.055394042 0.04462395 -0.03824975 -0.03887952
0002e0 ed 4d 3e bd f4 ad 33 3b 4f 86 72 3d a5 98 5a 3d
       -0.046461035 0.0027416917 0.059210118 0.05336823
0002f0 21 76 7d 3d 4b 52 a5 bb ee 25 40 3c 65 ea 68 3d
       0.061880235 -0.0050452105 0.011727793 0.05686416
000300 8f 4b fa 3b 88 b5 e0 3c 4c 6c 26 bd 0a b6 52 bd
       0.007638402 0.02743031 -0.040630624 -0.051443137
000310 b8 27 ad bc 87 f6 79 3d 03 6b 10 3d 7e 11 d1 bc
       -0.021137103 0.061026122 0.035258304 -0.025521036
000320 e2 b8 7c bd 8e 2d 6d bc 77 2e 55 3d a0 48 86 bc
       -0.061699755 -0.014476193 0.052046265 -0.016392052
000330 98 18 06 3d f0 c1 72 bc ea 8b 2a 3d ed 69 81 bd
       0.0327383 -0.014816746 0.04163734 -0.06319032
000340 45 37 dc bc b1 3a 85 bc a2 f6 53 bd 7c 35 86 3c
       -0.026881823 -0.016263338 -0.05174888 0.016382925
000350 18 ad e4 bc 10 c3 38 bd 22 a9 89 3b 0d 47 8b 3c
       -0.027914569 -0.0451079 0.0042010704 0.017001653
000360 d3 87 87 bd eb 0c 40 3c 43 f3 0f 3d 86 dd 92 3c
       -0.06617703 0.01172183 0.0351441 0.017927896
000370 62 8b 74 3d 71 11 04 bd 46 fb fe bc c7 10 56 bd
       0.05970324 -0.032243196 -0.031125676 -0.052262094
000380 f4 0f 1e 3d 70 59 1d bc 05 ba 34 bd 26 16 9c 3c
       0.038589433 -0.009603843 -0.044122715 0.01905353
000390 9d d2 e8 3b b9 88 6a 3d fe 2b e9 bc c9 25 42 3c
       0.007105185 0.057259295 -0.02846336 0.011849829
0003a0 55 91 e7 bb d5 66 c5 3c 03 36 03 3c ad 85 00 bd
       -0.0070668855 0.024096886 0.008008483 -0.031377483
0003b0 b8 d3 a6 bb 82 74 5f 3d 68 0a c7 bc 9d 5b 5b bd
       -0.005091157 0.05455447 -0.024296954 -0.053554166
0003c0 e7 02 91 ba ae d0 dc bc 22 2f d4 39 03 de fa 3c
       -0.0011063487 -0.026954975 0.00040470908 0.030623442
0003d0 28 e4 01 3d 78 cf 42 bc c7 52 4c 3d 4b 5e 10 bc
       0.031711727 -0.011890285 0.04988363 -0.008811544
0003e0 ca 0d d9 bb d9 aa b3 bc 1f ed 59 39 f6 30 b0 bc
       -0.0066239582 -0.021932052 0.00020783067 -0.021507721
0003f0 c8 e8 11 bd b1 51 da 3a 59 9b 4e 3d 91 52 15 bd
       -0.035622388 0.0016656426 0.05044112 -0.036455695

mu.4.weight f4 [10, 256]
000000 ee 67 0a 3c 87 4b 6b bd 00 83 ad 3c aa ab 89 3d
       0.00844763 -0.057445075 0.02118063 0.067221954
000010 85 14 1f 3c f8 74 b8 bc 90 3e 15 bd af ea 77 bc
       0.009709482 -0.022516713 -0.036436617 -0.0151316365
000020 5a 5b 1f bd 17 8a 90 bd fe 76 73 3d cf 20 ab 3d
       -0.03890548 -0.070575885 0.05943965 0.08355867
000030 85 5a 31 3d c7 48 6b bd 4c 2d 43 3c b8 3c 33 3c
       0.043299217 -0.057442453 0.011912655 0.010939769
000040 df ee 8a bd 13 91 37 3d a0 1a 25 3d 0c c9 85 bc
       -0.06783842 0.044816088 0.040308595 -0.016331218
000050 0c 5d d6 bc 50 91 96 bd 27 53 88 bc 40 e8 4a bd
       -0.026167415 -0.07351935 -0.016641213 -0.049537897
000060 f1 34 83 3c 42 4b 03 3d b8 ff a6 3d b7 9d 4d 3d
       0.016016455 0.032054193 0.08154243 0.050199237
000070 5a a7 9b bd 29 c2 4f 3d a8 89 9a 3d 4d bd a2 3d
       -0.07600279 0.050722275 0.07545787 0.079462625
000080 d0 50 72 bd 41 98 a3 bc d2 2b f8 3b 48 c5 4d bd
       -0.0591591 -0.019970061 0.007573583 -0.05023697
000090 7c 31 1c 3d 88 e5 5d 3d 54 52 74 3d 1a 36 3d bc
       0.03813313 0.054173976 0.059648827 -0.011548543
0000a0 89 62 0d bd 30 00 35 bd d4 30 2b 3d bf 23 b3 bc
       -0.0345178 -0.044189632 0.041794613 -0.021867631
0000b0 4b c4 81 bd 84 44 51 3d 24 ef 84 bd 5c 9d 58 bd
       -0.06336268 0.051090732 -0.06490925 -0.052884445
0000c0 fd bd 9c 3c 94 a4 d5 3c 9e ec 6d 3d d8 29 81 bd
       0.019133562 0.026079454 0.058086984 -0.06306809
0000d0 79 18 06 3d b2 24 96 bd 76 01 7f bc a2 d2 f7 3a
       0.032738183 -0.07331218 -0.015564313 0.0018907378
0000e0 63 b9 92 bc f3 6b 5d bd 35 4b fa 3b 8b 4b 74 3d
       -0.017910665 -0.054058027 0.00763836 0.059642356
0000f0 bc 90 16 3d 66 5e 9b 3d e3 5a 6c bd 9c b2 a3 bd
       0.036759123 0.075863644 -0.057703864 -0.079930514
000100 45 c7 90 3d 1a 96 90 3c b7 37 0c bc 06 c2 bf bc
       0.07069258 0.017649699 -0.008558205 -0.023407947
000110 7c d8 41 bd 53 e2 d9 bc 0c c9 d4 bc f1 82 8a 3d
       -0.047325596 -0.026597178 -0.025974773 0.06763256
000120 46 82 72 bd 6f 74 2f 3c cf 1d d6 3c c6 d6 4e 3d
       -0.05920627 0.010708912 0.02613726 0.050497793
000130 e0 73 14 bd d6 08 71 bd ac 46 59 bd 10 42 73 3d
       -0.03624332 -0.058846317 -0.053045914 0.059389174
000140 03 5d 8a 3b 03 4f 89 3d 3a 84 36 bd bd 3d 4c bd
       0.0042225136 0.067045234 -0.044559695 -0.049863566
000150 70 fd 53 bd 60 77 9b 3c 59 5c 54 3d 7c 87 36 bd
       -0.05175537 0.01897782 0.051845882 -0.0445628
000160 48 5c 19 bd 6b 6a 43 bd 01 1b 30 bd 39 8e 43 bc
       -0.037441522 -0.04770891 -0.042994503 -0.011935764
000170 2e 0d 95 bc 8c 58 05 bd b5 21 5c 3c fc eb 56 3c
       -0.018194761 -0.032555148 0.013435771 0.0131177865
000180 d4 19 2a bd 98 88 9d bd e3 d9 b1 3c 9a cd 26 bc
       -0.041528538 -0.07692069 0.021710342 -0.010180855
000190 b2 08 45 3d 72 ff ac ba 7e 81 75 bd 02 c8 67 3d
       0.048103996 -0.0013198687 -0.059937946 0.056587227
0001a0 84 2f 44 3b f8 24 21 bd da 31 7d 3d 13 c5 33 bd
       0.0029935548 -0.039341897 0.06181512 -0.043889116
0001b0 b5 4b 82 bd 04 28 fc 3c f3 f8 ac 38 00 33 87 3d
       -0.06362096 0.0307808 8.2479695e-05 0.06601524
0001c0 19 a4 1c bb 28 67 dc 3c b5 81 c3 39 37 2b 86 bc
       -0.002390152 0.026904657 0.00037289938 -0.016378028
0001d0 cf 2e b6 bc 1a 1f 6c bb e3 53 97 3d 3b 0d 46 bd
       -0.022239117 -0.003602928 0.07389047 -0.04835246
0001e0 26 8f 36 3c 0d 84 f8 bc 1e d3 16 bd 96 50 43 bd
       0.011142528 -0.030336404 -0.03682243 -0.047684275
0001f0 97 32 96 bc 4d db 8d bb 2a d1 1b bd 42 0b 75 3d
       -0.01833467 -0.004329121 -0.03804127 0.05982519
000200 37 71 98 bd 58 a9 bc 3b 68 19 31 3d 7c 0a 99 3d
       -0.07443469 0.005757492 0.04323712 0.07472703
000210 5d c3 90 3d 06 09 77 bc 60 ab 6b bd f5 2f 68 3d
       0.070685126 -0.015077835 -0.057536483 0.05668636
000220 09 93 3e bc eb 47 44 3c 57 ff f0 3c 4a 4c f5 bc
       -0.011631736 0.011980037 0.02941863 -0.029943604
000230 42 bf 5f 3d 66 31 9a 3c 4a 30 b7 3c 3e c9 81 bd
       0.054625757 0.018822383 0.022361893 -0.06337212
000240 9c f6 14 bd 4c fa 61 3d 97 5b 14 3d 46 b8 32 3d
       -0.036367998 0.055170342 0.03622016 0.043632768
000250 40 e0 f4 3c 51 ea d1 3b 11 19 26 3d 8b 40 68 3d
       0.029892087 0.0064061065 0.04055125 0.056702178
000260 44 1f 20 3c 18 8d 9a 3d 59 08 a0 3d b9 7d 7c 3d
       0.009773079 0.07546443 0.07814092 0.061643336
000270 c9 89 71 3c 85 33 4b bd b7 d9 ad 3d 88 3f c4 bc
       0.014742323 -0.04960968 0.084887914 -0.023956075
000280 de ea d3 3c 7b 4a bb 3c 11 f6 c0 3c 82 19 e0 3c
       0.02586883 0.022862663 0.023554834 0.027355913
000290 b5 5f 1e bc 76 88 a5 bc 9c df 5a bd bc 58 c0 bc
       -0.009666373 -0.020206671 -0.053435907 -0.023479812
0002a0 15 e8 90 3b 39 dc 35 3d 9d c2 03 bc 43 7a 90 bd
       0.0044221976 0.044399474 -0.008042005 -0.070545696
0002b0 6f e3 91 3d 68 03 eb 3c 5d bf 05 3d 3b c1 8e 3d
       0.07123458 0.028688148 0.0326532 0.069704495
0002c0 ff e0 2f bd e8 f2 9a 3d aa 3b 58 3d 43 26 5a bc
       -0.042939182 0.07565862 0.052791275 -0.013314786
0002d0 39 92 56 3c 33 5b 36 3d 1b 5e bc 37 ea 17 c0 3c
       0.013096386 0.044520568 2.2455168e-05 0.023448903
0002e0 8e fc 93 3c 2c fe 3e 3c 4d da 12 bd 1c 48 12 3d
       0.018064763 0.011657279 -0.03585272 0.0357133
0002f0 97 38 7c 3d f7 2e 53 3d c1 02 2c bd 9f ef b6 bc
       0.061577406 0.05155846 -0.041994814 -0.022331057
000300 5c 44 d8 bb e1 01 9d bd 27 ff 6e bd 9f 04 4d bd
       -0.006599946 -0.07666374 -0.0583488 -0.050053235
000310 d7 f8 2c 3d 9b 5a 27 3b 28 fe 95 3d 6a 85 91 3d
       0.0422295 0.0025536183 0.07323867 0.07105525
000320 20 e6 50 bd 57 21 79 bc 7f d8 62 bc a5 88 51 3d
       -0.051000714 -0.015205703 -0.013845562 0.051155705
000330 fe 61 1c 3d 87 55 87 3d bd 43 89 ba 2f 75 61 3d
       0.03817939 0.0660811 -0.0010472458 0.055043396
000340 b3 5f 7a 3d ec d0 10 3d ef 13 7e 3c 35 ea 91 3d
       0.061126422 0.035355493 0.015507682 0.071247496
000350 48 1d 36 bd 47 d6 3b bd 8b e5 04 3d 32 d8 0a 3d
       -0.04446152 -0.045858648 0.03244547 0.033897586
000360 dd e1 51 3d 69 95 4a bd 50 a0 7a 3d 3f a1 28 bd
       0.05124079 -0.049458895 0.061188042 -0.0411694
000370 d9 cd 38 3d b2 3f 8b 3d cb a2 b0 bc 9a 84 a5 3c
       0.045118187 0.06799258 -0.021562 0.02020483
000380 d9 4a 3f 3c 0c 08 1e 3d ba 7f cf bc 31 cc 38 3c
       0.01167556 0.038581893 -0.02532946 0.011279152
000390 06 66 21 bd f5 d0 60 bc 61 53 25 3d 75 e8 2c bc
       -0.039403938 -0.013721694 0.04036272 -0.010553469
0003a0 2d 2c 16 3d b6 3e c6 bc 7d b9 97 bd ab 81 b2 bc
       0.036663223 -0.024199825 -0.07408426 -0.021790346
0003b0 b4 de 69 bc 29 70 f7 ba 02 55 9e 3d 43 fb 9d bd
       -0.014274288 -0.0018878031 0.07731058 -0.0771394
0003c0 b3 e3 f1 bc d4 9a a2 3c bf ac 5c bd 8a c4 05 3d
       -0.02952752 0.019849218 -0.05387568 0.032658137
0003d0 d3 ff ef bb 01 e6 16 bc 4e c6 bb 3c ac 4f e1 bc
       -0.007324198 -0.009210111 0.022921707 -0.02750381
0003e0 18 fc 5a ba e3 2e fe bc bc 95 8f 3b 52 2e 96 3d
       -0.0008353605 -0.031028217 0.0043818634 0.07333054
0003f0 aa e4 8f bd eb 0d 70 3d b2 ad 6a bc 88 6f 7a 3d
       -0.07026036 0.058607023 -0.014323639 0.06114152

mu.4.bias f4 [10]
000000 b6 6b ac bc cc 26 40 bd e3 3d b5 3c 94 4b cb 3c
       -0.021047454 -0.046912 0.022124236 0.024816312
000010 36 96 04 3c c1 40 52 3d c4 2e ff 3c fa ed b6 3b
       0.008092454 0.051331285 0.03115023 0.0055825682
000020 02 8e 5e 3d f6 18 65 3c
       0.054334648 0.013983002
