AM_RL/Planner/model/pretraining_planner.pth (torch, 309056 bytes, 6 tensors)

net.0.weight f4 [256, 22]
0	0xbc7530bd	-0.014965233
1	0x3ddb194c	0.10698184
2	0xbe23be7c	-0.15990633
3	0xbe6d656f	-0.23183225
4	0x3e21102f	0.1572883
5	0x3ce1c8e4	0.027561612
6	0x3d175192	0.036943026
7	0xbe0b4d42	-0.1360369
8	0xbe1b1bdd	-0.15147348
9	0xbe466b41	-0.19376852
10	0x3d3b60ba	0.045746543
11	0x3d272e51	0.040815655
12	0xbe4dce71	-0.20098282
13	0xbd71fc2d	-0.059078384
14	0x3e4e6f8b	0.20159738
15	0x3e075629	0.13216461
16	0xbe135207	-0.1438676
17	0xbe3d51ad	-0.18488188
18	0xbb718caf	-0.0036857536
19	0xbe2b6727	-0.16738568
20	0x3dfa194d	0.12211857
21	0xbd2f406f	-0.042786058
22	0x3de996f6	0.11405747
23	0xbe2baa3b	-0.16764157
24	0xbc691afa	-0.014227623
25	0xbe0db13e	-0.13837144
26	0x3d957ab6	0.07298796
27	0x3d25d329	0.04048458
28	0xbe3bbf11	-0.18334605
29	0x3d5fdd5d	0.054654468
30	0xbe3d876e	-0.18508694
31	0x3dd6d71c	0.104902476
32	0x3db22147	0.086977534
33	0x3e4433c1	0.19160368
34	0xbd03806e	-0.032104902
35	0x3ddef2cb	0.10886153
36	0xbe270ea4	-0.16314179
37	0x3dc3fcb1	0.095696814
38	0xbdacca25	-0.084369935
39	0x3deb9ea3	0.11504867
40	0xbd96f8cc	-0.07371673
41	0x3d01c741	0.031684164
42	0x3d99ba2a	0.07506211
43	0x3d6cf936	0.057854854
44	0xbe2756c2	-0.16341689
45	0x3df40e93	0.11916842
46	0xbe090801	-0.1338196
47	0x3e1ff7e6	0.1562191
48	0x3e38be2b	0.18041293
49	0x3d8d9965	0.06914023
50	0x3db3f564	0.08787039
51	0xbd9376b5	-0.07200376
52	0xbe0c7cdf	-0.1371951
53	0x3d090e17	0.033460703
54	0x3dbee4f4	0.09321013
55	0x3e148d74	0.14507085
56	0xbc944313	-0.01809839
57	0x3df2b03c	0.1185002
58	0x3bc523c2	0.0060162256
59	0x3e2545af	0.16139863
60	0x3e0c6e60	0.1371398
61	0x3ba5082a	0.0050363736
62	0x3dda65bc	0.106639355
63	0x3d179c9c	0.03701459
64	0xbd39b3a3	-0.04533733
65	0xbe206e1b	-0.15667002
66	0x3d32c8fb	0.0436487
67	0xbd324171	-0.04351944
68	0x3d75b75e	0.059989326
69	0x3e1a0a19	0.15042914
70	0xbe3776d6	-0.17916426
71	0x3e4da560	0.20082617
72	0x3db720f0	0.08941829
73	0xbcfa4883	-0.030552154
74	0xbdcac6c0	-0.0990119
75	0xbe6bebe4	-0.23039204
76	0x3af99919	0.0019042819
77	0xbd60b9c8	-0.054864675
78	0xbd9b82e6	-0.07593326
79	0x3e2856d0	0.16439366
80	0x3d21e08c	0.039520785
81	0x3e3c1674	0.1836794
82	0x3d20e295	0.039278585
83	0x3e3547be	0.17703149
84	0xbe0f2bc3	-0.13981538
85	0x3d4bb4ac	0.04973285
86	0xbe3bff4a	-0.18359104
87	0x3e15d42f	0.14631723
88	0xbbf6b3f0	-0.0075287744
89	0xbe5684a3	-0.20949034
90	0xbdc08f9e	-0.09402393
91	0x3e4efca0	0.20213556
92	0xbd17f742	-0.037101038
93	0xbdc28ba2	-0.09499289
94	0xbe4def4a	-0.20110813
95	0x3c2e2069	0.010627844
96	0x3d52efd4	0.05149825
97	0x3e19f3c2	0.15034392
98	0xbe11d7f8	-0.14242542
99	0x3d97db15	0.074148335
100	0x3e036ef1	0.1283529
101	0xbdd30023	-0.103027605
102	0x3d961b6e	0.073294505
103	0x3e4248e1	0.18973114
104	0x3dd63d9f	0.10460972
105	0x3e1025fd	0.14076991
106	0x3d032f3b	0.032027464
107	0x3e00ccc4	0.12578112
108	0xbcad5cde	-0.021162447
109	0xbe2f974d	-0.1714756
110	0x3d25e599	0.040502165
111	0x3d97a9d4	0.07405439
112	0x3dd5518f	0.10415947
113	0xbe553cb6	-0.2082394
114	0xbe5e4907	-0.21707545
115	0xbd758662	-0.05994261
116	0xbe0aab0c	-0.13541812
117	0xbd6ade47	-0.057340886
118	0x3ea0df00	0.31420135
119	0x3dc2e17e	0.095156655
120	0xbe54b0da	-0.20770589
121	0x3e19dc39	0.15025415
122	0xbdde3a4d	-0.10850964
123	0xbcdeecae	-0.027212467
124	0x3d190e45	0.037367124
125	0xbe448679	-0.19191922
126	0x3c579c8a	0.01315988
127	0x3da0eba3	0.07857444
128	0xbdd2078b	-0.10255345
129	0xbd006449	-0.03134564
130	0x3dc4d626	0.09611158
131	0xbe253680	-0.16134071
132	0x3e35a50d	0.17738743
133	0xbdcf3f48	-0.10119492
134	0xbc395e0c	-0.011313926
135	0xbe16730a	-0.14692321
136	0x3dcc6b8d	0.09981451
137	0xbdd17cda	-0.10228892
138	0x3e4ec0e6	0.20190772
139	0xbd21e316	-0.039523207
140	0x3e0d3670	0.13790298
141	0x3e2bf329	0.16791977
142	0xbe3dff38	-0.1855439
143	0x3e297d47	0.16551696
144	0xbdd4857a	-0.10377021
145	0x3d929170	0.07156646
146	0xbcaec4ca	-0.02133407
147	0xbd493541	-0.049123053
148	0x3dc99ec5	0.09844736
149	0x3da3f920	0.08006501
150	0x3cecce89	0.028907077
151	0x3dfeccc3	0.12441399
152	0x3e05dccb	0.13072507
153	0xbe3530bb	-0.1769437
154	0x3e5c6a5c	0.21524948
155	0x3b929584	0.00447339
156	0xbe3376a9	-0.17525734
157	0x3d8203c3	0.06348374
158	0xbe2324b2	-0.15931967
159	0x3d2299a0	0.03969729
160	0x3dd6698f	0.104693525
161	0xbe28fcf9	-0.16502751
162	0xbbd88d22	-0.006608621
163	0x3e2d8e0d	0.1694872
164	0xbe1e29a6	-0.15445575
165	0xbd9a6f8a	-0.07540806
166	0x3e3e5609	0.18587507
167	0x3dd743ee	0.105110034
168	0x3e29f979	0.16599073
169	0x3e0286cf	0.12746738
170	0xbd463e5c	-0.048399314
171	0xbddff6e5	-0.10935763
172	0x3d99b73e	0.07505654
173	0x3d3f62d0	0.046725094
174	0xbd58b6b9	-0.052908633
175	0xbe2f2686	-0.1710454
176	0xbe24bc1e	-0.16087386
177	0x3e1de31c	0.15418667
178	0x3e3e2de4	0.18572193
179	0xbe20f2be	-0.15717599
180	0xbca072b1	-0.01958594
181	0xbc9c28a9	-0.019062357
182	0x3e2b4fa2	0.16729596
183	0x3e0f4f34	0.13995057
184	0x3eb8f504	0.36124432
185	0x3e1065eb	0.14101379
186	0xbe822141	-0.25415996
187	0xba09e536	-0.00052602903
188	0xbe83f3ce	-0.25771946
189	0xbe5cdba3	-0.2156816
190	0xbdb0876c	-0.0861958
191	0xbd8d3611	-0.06895078
192	0x3dff4e6a	0.12466128
193	0x3e6ae045	0.22937115
194	0x3dc19cb3	0.09453716
195	0x3ddecf75	0.10879413
196	0xbe4978c3	-0.19674973
197	0x3e1466fe	0.14492413
198	0xbd23f1ff	-0.040025707
199	0x3dbb26cd	0.0913826
200	0xbdd9944e	-0.1062399
201	0xbd1a05e8	-0.03760329
202	0xbdaea74c	-0.08528003
203	0xbe68ffa6	-0.22753772
204	0x3d67ddb6	0.056607924
205	0xbc840aa3	-0.016118353
206	0x3da169cc	0.07881507
207	0x3e463f8e	0.19360182
208	0x3e753888	0.23947346
209	0x3d356af6	0.04429146
210	0xbda7ca38	-0.08192867
211	0x3b21976a	0.00246569
212	0xbc80125f	-0.01563376
213	0xbe5360fa	-0.20642462
214	0xbdd9f42c	-0.10642275
215	0xbd14b562	-0.036305793
216	0xbe0d7645	-0.13814647
217	0xbe442bb2	-0.19157293
218	0x3dc11021	0.094269045
219	0xbdff3120	-0.12460542
220	0x3e018a30	0.1265037
221	0xbc5868d0	-0.013208583
222	0xbe392c26	-0.18083248
223	0xbc614dc0	-0.013751447
224	0xbe22d179	-0.1590022
225	0x3e1c302b	0.1525275
226	0x3e3e3951	0.18576552
227	0xbcb00512	-0.021486793
228	0x3d7b2cae	0.061321907
229	0x3e807dd5	0.25096002
230	0xbcf2b92c	-0.029629312
231	0x3d9f0263	0.07764127
232	0xbd8d6db7	-0.06905692
233	0xbe05eae1	-0.1307788
234	0xbe049c78	-0.12950313
235	0x3e36a416	0.17836031
236	0xbc8a6151	-0.016892107
237	0xbe0e8e7e	-0.13921544
238	0x3d50f68b	0.05101637
239	0x3e1ac2b9	0.15113343
240	0xbd050dec	-0.03248398
241	0xbe08dfc2	-0.13366607
242	0xbd2c55e5	-0.042074103
243	0xbc6a5db0	-0.014304563
244	0xbe523c15	-0.20530732
245	0x3e76d516	0.24104723
246	0xbe5c304f	-0.21502803
247	0xbcf77149	-0.030205386
248	0xbe5b746a	-0.21431127
249	0x3de55b25	0.11199025
250	0xbe002624	-0.1251455
251	0xbe01fce7	-0.12694131
252	0xbd4503cc	-0.048099324
253	0x3e181de5	0.14855154
254	0x3de42663	0.11140134
255	0x3e0541a7	0.13013326

net.0.bias f4 [256]
0	0xbe04fc3d	-0.12986846
1	0xbd69d2d4	-0.057085827
2	0x3d91e75b	0.07124206
3	0xbd10faa0	-0.035395265
4	0x3dbb6215	0.09149567
5	0xbe1fb877	-0.15597712
6	0xbe487a5c	-0.19577926
7	0xbe2488b7	-0.16067778
8	0xbe35e0d1	-0.17761542
9	0xbe06ffd0	-0.13183522
10	0xbd5e7cf1	-0.054318372
11	0x3da59ef5	0.08086959
12	0x3d83f7c3	0.06443741
13	0xbda53995	-0.080676235
14	0x3c06661d	0.008203057
15	0xbdce5321	-0.10074449
16	0xbd12fa0b	-0.03588299
17	0xbddedf1d	-0.10882399
18	0x3cf9432d	0.03042754
19	0xbe0ab216	-0.13544497
20	0xbd76e08b	-0.060272735
21	0x3ca9ad21	0.020712437
22	0x3d868d00	0.06569862
23	0x3df3a7fd	0.118972756
24	0xbe0d2f77	-0.13787638
25	0xbd910363	-0.07080724
26	0xbe022893	-0.1271079
27	0xbd9c3536	-0.07627337
28	0x3e09e009	0.13464369
29	0xbe3ab413	-0.18232755
30	0xbe0c1d31	-0.1368301
31	0x3d7ef213	0.06224258
32	0xbe239d75	-0.15978034
33	0x3e25e94d	0.16202278
34	0x3e314626	0.17311916
35	0xbe03199f	-0.12802742
36	0xbd517004	-0.051132217
37	0xbc8b2c80	-0.016988993
38	0x3d71b585	0.059011
39	0xbd864e50	-0.06557906
40	0x3e100a12	0.14066342
41	0x3c9dc194	0.019257344
42	0x3deef6e5	0.11668185
43	0x3e043555	0.1291097
44	0xbc1847e2	-0.009294482
45	0x3e03f331	0.12885739
46	0xbd4bc11f	-0.04974472
47	0xbdca0ff4	-0.09866324
48	0x3c7760f5	0.0150988
49	0xbe46a55f	-0.19399022
50	0xbdbe8626	-0.093029305
51	0xbde0a6d8	-0.10969323
52	0x3e414f71	0.1887796
53	0x3e404e52	0.18779877
54	0xbd66e6cd	-0.056372453
55	0xbe1065a6	-0.14101276
56	0x3934a6c6	0.00017228266
57	0x3da5b37c	0.080908746
58	0x3ad84660	0.0016500466
59	0xbd82bdbe	-0.06383847
60	0x3d9c9037	0.07644694
61	0x3dbdbb63	0.09264257
62	0x3db21eb9	0.08697266
63	0xbd3c1c7c	-0.045925602
64	0xbd9de99b	-0.07710572
65	0x3d2efcf7	0.042721715
66	0x3e056d95	0.13030083
67	0x3e163ca3	0.14671569
68	0x3e2068d6	0.15664992
69	0xbde17096	-0.11007802
70	0xbdf6c448	-0.120491564
71	0x3cbd626f	0.023118226
72	0x3e3d5dc7	0.18492804
73	0x3da1b8df	0.078965895
74	0xbdf5caa7	-0.120015435
75	0x3d34f27c	0.044176564
76	0x3e226b6b	0.15861289
77	0x3e1361d8	0.14392793
78	0x3df6b00a	0.120452955
79	0x3deb2e0e	0.114833936
80	0x3dfa0445	0.122078456
81	0xbe02cd50	-0.12773633
82	0x3bbfed8e	0.005857176
83	0x3e1cb162	0.15302041
84	0xbdc0661d	-0.093944766
85	0xbe3c12e1	-0.18366577
86	0xbe4947d4	-0.19656307
87	0x3dfd415a	0.123659804
88	0xbdb32ce9	-0.087488
89	0x3c202edb	0.009776796
90	0xbe402846	-0.18765363
91	0x3c06bf99	0.008224391
92	0x3ca959f9	0.020672785
93	0xbe22ff99	-0.15917815
94	0x3d9cb311	0.07651342
95	0xbd7b13ac	-0.061298057
96	0x3dbc5f65	0.091978826
97	0xbdd5439f	-0.10413288
98	0xbe3a0985	-0.18167694
99	0xbd7fde26	-0.062467717
100	0xbe18e039	-0.14929284
101	0xbe03d8c1	-0.12875654
102	0x3d1514b2	0.03639669
103	0xbd9bc180	-0.076052666
104	0x3dd51ff2	0.10406484
105	0xbe1f4955	-0.15555318
106	0x3e0f36fa	0.13985816
107	0x3ca12efe	0.019675728
108	0xbce6598c	-0.028118871
109	0xba983d81	-0.0011615009
110	0xbe2b35e5	-0.16719778
111	0xbdda2bf7	-0.10652917
112	0x3cb4c357	0.022065802
113	0x3cda0759	0.026614832
114	0xbc83df7a	-0.016097773
115	0x3d753560	0.059865355
116	0x3d6444ed	0.055729795
117	0x3d87a8eb	0.066240154
118	0xbc3098fb	-0.010778661
119	0xbd927232	-0.07150687
120	0x3dc78f42	0.09744121
121	0x3d69a5c4	0.057042852
122	0xbe3bfa9b	-0.18357317
123	0xbde28cea	-0.110620335
124	0x3e0c91f1	0.13727547
125	0x3d9b2908	0.075761855
126	0xbd6febc9	-0.05857447
127	0xbdf29981	-0.11845685
128	0xbe169da1	-0.14708568
129	0x3d797088	0.060898334
130	0xbe147f8e	-0.14501783
131	0xbdb8cffe	-0.09024046
132	0xbafe4664	-0.001939964
133	0x3de9534e	0.11392842
134	0x3d56af4a	0.052413262
135	0xbdf6b764	-0.12046698
136	0xbd1ec089	-0.038757835
137	0x3d9f8ae8	0.07790166
138	0x3be630b3	0.0070248484
139	0xbd60bc18	-0.05486688
140	0x3e0f7344	0.14008814
141	0x3df86cff	0.12130164
142	0x3d575a30	0.052576244
143	0xbca6de7c	-0.02036976
144	0x3de0b92b	0.10972818
145	0x3db73c81	0.08947087
146	0x3ddc7154	0.10763803
147	0xbe2e49fd	-0.17020412
148	0x3e3309cd	0.17484207
149	0xbd98e878	-0.07466215
150	0xbdb46b4e	-0.08809529
151	0x3d7afdbd	0.06127714
152	0x3e040e8f	0.12896179
153	0x3d92d772	0.07169999
154	0xbdc22933	-0.094805144
155	0xbd01384e	-0.031547837
156	0x3d976c54	0.07393709
157	0xbd03ffb5	-0.032226283
158	0xbd4d9335	-0.050189216
159	0x3c8f8577	0.017519696
160	0xbd927620	-0.07151437
161	0xbdd6c73c	-0.1048722
162	0x3d41a5dd	0.04727732
163	0xbb17d176	-0.002316562
164	0xbc7b1c73	-0.015326607
165	0xbe3f3041	-0.18670751
166	0xbd6aa959	-0.05729041
167	0xbd99d66a	-0.07511599
168	0xbcab605b	-0.02091997
169	0xbe465f0e	-0.19372198
170	0xbce40163	-0.027832692
171	0x3d8668e0	0.06562972
172	0xbdf1a754	-0.117994934
173	0xbcc0b0b8	-0.023521766
174	0xbe3de1b4	-0.1854313
175	0x3e4612ab	0.19343059
176	0xbe427493	-0.18989782
177	0xbd9085c4	-0.07056764
178	0xbe0f74a0	-0.14009333
179	0xbe140c4e	-0.14457819
180	0x3e044f93	0.1292098
181	0x3da4b0ef	0.0804156
182	0x3c563899	0.013075017
183	0x3dbfaca0	0.093590975
184	0x3dfc3d39	0.12316365
185	0x3e35e397	0.177626
186	0xbbc4e792	-0.0060090506
187	0xbcaec461	-0.021333875
188	0xbde62c29	-0.11238892
189	0x3e27a1a3	0.16370253
190	0xbe1e8392	-0.15479878
191	0x3e0c7f0b	0.13720338
192	0x3d29e9f4	0.04148288
193	0xbd7841e3	-0.06060971
194	0x3e2e59dc	0.17026466
195	0x3c509008	0.012729652
196	0xbbd0d02e	-0.006372473
197	0x3e10b661	0.14132072
198	0xbd19814f	-0.037476834
199	0x3e22f734	0.15914613
200	0x3e059c6e	0.13047954
201	0x3c5a0b2a	0.013308326
202	0xbe4daf38	-0.20086372
203	0x3d8cd221	0.068760164
204	0x3dde8ce9	0.1086672
205	0xbe300c61	-0.17192222
206	0xbd134cfc	-0.03596209
207	0xbd0e3207	-0.03471568
208	0x3e2fa927	0.1715437
209	0xbddaf2c4	-0.10690835
210	0xbd15ffda	-0.036620952
211	0x3d90269b	0.070386134
212	0xbc4c2a57	-0.0124612665
213	0xbcdcd352	-0.026956234
214	0x3cef2f78	0.02919744
215	0xbe125730	-0.14291072
216	0xbc33b9aa	-0.010969559
217	0x3e05ee17	0.13079105
218	0x3dcc3431	0.09970892
219	0x3cebbd17	0.028776689
220	0xbb754a99	-0.0037428497
221	0xbb901b7f	-0.004397809
222	0xbe1ea972	-0.15494326
223	0x3de33dd7	0.110957794
224	0x3da797c0	0.08183241
225	0x3e1a1dc4	0.15050417
226	0xbe16cc16	-0.1472629
227	0x3cf4834b	0.029847762
228	0x3d7e6649	0.062109265
229	0x3e4de8b0	0.20108294
230	0x3d090cca	0.033459462
231	0x3e04d561	0.12972023
232	0xbdfed991	-0.12443841
233	0x3e417e87	0.18895923
234	0xbd062616	-0.032751165
235	0x3de4fe76	0.11181347
236	0x3d9304cb	0.071786486
237	0x3dd721d2	0.105044976
238	0x3e265438	0.16243064
239	0xbe3aecb1	-0.18254353
240	0x3e3cd9e4	0.18442494
241	0xbc1742bd	-0.00923222
242	0xbcaf9ae1	-0.021436157
243	0xbd573f96	-0.052550875
244	0x3e4a5801	0.19760133
245	0xbe4786c9	-0.1948501
246	0x3d4c324b	0.04985265
247	0xbe0f58e4	-0.13998753
248	0x3deba351	0.115057595
249	0xbd8ef174	-0.06979647
250	0xbce78ea9	-0.028266268
251	0xbccb62c3	-0.024827367
252	0x3e3a958a	0.18221107
253	0x3e168bb1	0.14701726
254	0x3c88c5ea	0.016695935
255	0x3e04e64e	0.1297848

net.2.weight f4 [256, 256]
0	0xbbf7e265	-0.00756483
1	0x3abff4d4	0.0014645108
2	0x3d44a333	0.0480072
3	0xbcb3bdc4	-0.021941073
4	0x3d3a0260	0.04541242
5	0xbb49d7f4	-0.0030798884
6	0x3b28aa57	0.0025736296
7	0x3ca5cfd6	0.020240705
8	0x3d1532c4	0.036425367
9	0x3d534b77	0.05158564
10	0xbd3e873d	-0.046515692
11	0xbc82b114	-0.015953578
12	0x3d2d6ae6	0.042338274
13	0xbd1fb663	-0.038992297
14	0x3c517592	0.012784379
15	0xbc46750c	-0.012112867
16	0x3d102af2	0.035197206
17	0xbd81fcfa	-0.063470796
18	0x3ce26981	0.027638199
19	0xbd27bb73	-0.04095025
20	0xbc39025d	-0.011292067
21	0xbd86373d	-0.065535046
22	0xbc267b1f	-0.01016119
23	0x3d584229	0.05279747
24	0x3cfe7772	0.031062815
25	0xbd6d8bb3	-0.057994556
26	0xbd5cb690	-0.053885043
27	0x3cc3e549	0.023913043
28	0x3d38017d	0.044923294
29	0x3d4b7a5b	0.049677234
30	0x3d3a1145	0.045426626
31	0xbc64a45c	-0.013955202
32	0xbccb3df8	-0.024809822
33	0xbc869ec0	-0.01643312
34	0xbc98223f	-0.018571017
35	0x3d5ace6d	0.05341952
36	0xbd4f7ea9	-0.050657902
37	0xbc15f6a6	-0.009153044
38	0xbc36fd85	-0.011168842
39	0xbc08c64d	-0.00834806
40	0x3d1d1c91	0.03835732
41	0x3cfde21e	0.03099161
42	0xbd8f96b4	-0.07011166
43	0xbd5a66e7	-0.05332079
44	0x3d3acdec	0.04560654
45	0xbc98797d	-0.018612618
46	0xbd5ac78c	-0.05341296
47	0xbcdb8c72	-0.026800368
48	0xbc94e96a	-0.018177707
49	0xbd053bc2	-0.032527693
50	0xbc3b668c	-0.011438023
51	0x3c613b81	0.013747097
52	0xbd84ab4e	-0.06477986
53	0xbc5d0468	-0.01348982
54	0x3c807351	0.015679987
55	0xbc867882	-0.016414884
56	0xbd2e0af3	-0.04249091
57	0xbcec812e	-0.028870191
58	0x3cb713af	0.022348253
59	0x3d2eea32	0.042703815
60	0x3b456177	0.0030117908
61	0xbd51d69c	-0.051230058
62	0xbbaf7b96	-0.0053553088
63	0xbc12055e	-0.008912412
64	0xbca3eb17	-0.02000956
65	0xb9c64763	-0.0003781869
66	0x3c81583c	0.015789144
67	0xbcdf6ba1	-0.027273001
68	0x3cf08392	0.029359613
69	0xbd1a6b88	-0.037700206
70	0x3c0d6847	0.008630819
71	0x3d5a44cf	0.053288277
72	0xbc73fe9b	-0.014892246
73	0xbd4c1a20	-0.049829602
74	0x3bccb653	0.0062473207
75	0xbc8ce20b	-0.01719763
76	0x3d5d18d3	0.053978752
77	0xbd8b5909	-0.068040915
78	0xbd6c0fd4	-0.057632282
79	0xbcce4f6a	-0.025184352
80	0xbc1e9acf	-0.009680464
81	0x3cc92ced	0.024557555
82	0xbbc43026	-0.005987185
83	0x3b80697b	0.0039188243
84	0x3d4fb9ab	0.050714176
85	0xbd3b39b0	-0.045709312
86	0xbd61fb92	-0.055171557
87	0x3c4d3f83	0.012527349
88	0x3cc200f9	0.023682104
89	0x3d329972	0.043603368
90	0x3cb79e09	0.022414224
91	0x3d226632	0.039648242
92	0x3c9a66e1	0.018847885
93	0x3c204b60	0.009783596
94	0xbd13d547	-0.03609207
95	0x3d32929b	0.043596845
96	0x3d3cfca7	0.046139386
97	0xbcee5561	-0.029093446
98	0x3d16db62	0.036830314
99	0x3bed4582	0.007240952
100	0x3d33d3ff	0.043903347
101	0xbd73874a	-0.059455194
102	0x3cfc1092	0.03076962
103	0xbd803e35	-0.06261865
104	0x3c32e5b5	0.010919024
105	0x3bd59c9f	0.006518915
106	0x3d51f582	0.051259525
107	0xbcb64758	-0.022250816
108	0x3d7f9da2	0.06240619
109	0xbd8e5e4e	-0.06951581
110	0xbd7c675a	-0.061622
111	0xbcf65bc9	-0.030073063
112	0x3d1056f6	0.035239182
113	0x3d2b685e	0.04184758
114	0xbd1d66ea	-0.038428225
115	0x3c1fa934	0.009744931
116	0x3d30df85	0.043181915
117	0xbd0c23a1	-0.034213666
118	0xbcf82368	-0.03029032
119	0xbc458666	-0.012055969
120	0xbd345334	-0.04402466
121	0xbd79408d	-0.060852576
122	0x3d6842a3	0.056704175
123	0xbc3e0460	-0.011597723
124	0x3d4db041	0.050216917
125	0xbd225967	-0.039636042
126	0xbbf63cc7	-0.0075145694
127	0x3d51db0b	0.051234286
128	0x3aac71fc	0.0013156529
129	0x3cd6f3b4	0.026239254
130	0x3d848109	0.06469924
131	0x3b08811e	0.0020828913
132	0xbaa5ff08	-0.0012664506
133	0x3d0533be	0.03252005
134	0xbd0bffb1	-0.034179393
135	0x3d959379	0.07303519
136	0x3d56a157	0.05239996
137	0x3b102ee2	0.00220006
138	0x3d309586	0.043111347
139	0x3d22ad44	0.03971602
140	0x3d7508aa	0.059822716
141	0xbcfe022a	-0.031006891
142	0xbd0e47e0	-0.034736514
143	0x3cbf3924	0.023342676
144	0x3ce1284a	0.027485032
145	0xbd20f9d3	-0.03930075
146	0xbc4b7712	-0.012418525
147	0x3d289d0b	0.041165393
148	0x3c8394a0	0.01606208
149	0x3c56fc63	0.013121697
150	0xbca2d066	-0.019874763
151	0xbc6c38c4	-0.014417831
152	0x3c284287	0.010269768
153	0x3d8336e0	0.06406951
154	0xbd2ce274	-0.04220815
155	0xbd380d42	-0.04493452
156	0xbd4ad8ab	-0.049523037
157	0xbb975ce6	-0.0046192287
158	0xbd7979be	-0.060907118
159	0x3ced4955	0.028965631
160	0x3d6ad5bf	0.05733275
161	0xbd4cc263	-0.04999007
162	0xbd1b50b7	-0.037918773
163	0x3d340691	0.043951575
164	0x3d1fe29d	0.039034475
165	0xbc8f7183	-0.017510181
166	0xbd1b4e63	-0.037916552
167	0xbd37f562	-0.04491175
168	0xbd58774e	-0.052848153
169	0xbd025295	-0.031817038
170	0x3d393723	0.045218598
171	0x3d63c4f7	0.055607762
172	0xbd442c0a	-0.04789356
173	0xbd5a32c8	-0.053271085
174	0xbd65282f	-0.055946525
175	0xbb443aa9	-0.002994219
176	0x3c3b5f31	0.01143627
177	0x3d57a989	0.052651916
178	0xbd67acd2	-0.0565613
179	0xbd37bc5a	-0.04485736
180	0xbd4a91c7	-0.04945543
181	0xbd5ab608	-0.053396255
182	0xbd4a6d65	-0.049420733
183	0x3d774cf1	0.06037611
184	0x3cdc361d	0.026881272
185	0x3d85dd88	0.06536394
186	0x3c7839d8	0.01515051
187	0xbd2d876e	-0.042365484
188	0xbd3d7a21	-0.04625905
189	0x3d2ffdb4	0.04296656
190	0x3d0eab01	0.03483105
191	0x3bdda661	0.0067642187
192	0xbd07999f	-0.03310549
193	0x3d6d6339	0.057955954
194	0xbcedd6bd	-0.02903306
195	0xbcd7baad	-0.026334131
196	0xbcc2af25	-0.023765156
197	0xbcb5beb3	-0.022185659
198	0x3d431de8	0.047635943
199	0x3cc25eee	0.023726907
200	0x3cca38b7	0.024685247
201	0xbd8c751f	-0.068582766
202	0xbc23691a	-0.009973789
203	0xbb9f0948	-0.0048534013
204	0xbd788f56	-0.06068357
205	0x3d3cff8e	0.046142153
206	0xbd45ccce	-0.04829102
207	0x3c80b1a0	0.015709698
208	0x3d2f8a40	0.042856455
209	0xbca18d92	-0.019720826
210	0x3bc27f57	0.0059355902
211	0xbd272412	-0.040805884
212	0xbcabce79	-0.020972477
213	0x3d331e14	0.043729857
214	0x3ac0ddd3	0.0014714546
215	0x3d751864	0.059837714
216	0xbd273f5d	-0.040831912
217	0xbc955184	-0.018227346
218	0xbc0bffee	-0.008544905
219	0x3d477210	0.048692763
220	0xbcf81e28	-0.030287817
221	0x3a87c3ac	0.0010357997
222	0xbceebbb8	-0.029142246
223	0x3c000d05	0.007815604
224	0xbd78e9ba	-0.060769774
225	0x3c2c47c3	0.010515156
226	0xbd20a046	-0.03921535
227	0xbcf4ce4b	-0.029883524
228	0x3d37feae	0.044920616
229	0x3b816a04	0.0039494056
230	0xbd4e4ca7	-0.05036607
231	0xbc09b64f	-0.008405282
232	0x3d598d2a	0.05311314
233	0x3d21f020	0.03953564
234	0x3bbb6e7b	0.0057199574
235	0xbb5d64e3	-0.0033782057
236	0x3ce08859	0.027408766
237	0xbdb227a4	-0.08698967
238	0x3d429ea8	0.047514588
239	0xbcbb9e72	-0.022902701
240	0x3d87a16a	0.06622584
241	0xbca2a897	-0.01985578
242	0x3c688536	0.014191916
243	0x3d00500c	0.03132634
244	0x3d5f4126	0.05450549
245	0x3d190d76	0.037366353
246	0x3d229487	0.039692428
247	0xbc389f51	-0.011268453
248	0xbd9d24ee	-0.076730594
249	0xbd81e82d	-0.06343112
250	0xbcb27954	-0.02178637
251	0x3d0d8c3e	0.034557573
252	0xbb15cb64	-0.0022856826
253	0x3cc00d06	0.02344371
254	0x3d0270eb	0.03184597
255	0x3ca3e766	0.0200078

net.2.bias f4 [256]
0	0xbd1bbdf9	-0.03802297
1	0x3d0c319e	0.034227006
2	0xbad031d9	-0.0015883996
3	0xbd4df66f	-0.050283846
4	0xbd204e6f	-0.0391373
5	0x3d246dae	0.04014366
6	0x3d4d8374	0.05017419
7	0x3cc740e9	0.024322944
8	0xbd45773c	-0.048209414
9	0x3d08ccb8	0.03339836
10	0xbc89968c	-0.01679542
11	0x3d34ac25	0.044109482
12	0xbd660741	-0.05615926
13	0x3c81e3df	0.015855728
14	0x3c64addc	0.013957467
15	0x3d6c2034	0.0576479
16	0x3cadf794	0.021236219
17	0x3ce7af42	0.028281812
18	0x3cdebfbd	0.027191037
19	0xbcdc05c3	-0.026858216
20	0x3d66c9ea	0.056344904
21	0xbc8b6201	-0.017014505
22	0xbd34d400	-0.04414749
23	0x3bb805c9	0.005615924
24	0xb982bedb	-0.0002493773
25	0xbbd307fe	-0.0064401617
26	0x3d6f3488	0.058399707
27	0x3d4e77fa	0.050407387
28	0xbd0c2783	-0.03421737
29	0x3d67ef59	0.056624744
30	0x3cc109af	0.023564188
31	0xbd756d40	-0.059918642
32	0x3d464b62	0.048411734
33	0x3d16c4f2	0.036808915
34	0x3c07cdb6	0.008288791
35	0xbd2d9bed	-0.04238503
36	0xbc37a91a	-0.011209751
37	0x3d73f600	0.059560776
38	0x3c5432a4	0.012951527
39	0x3ab9895a	0.0014155314
40	0xbd6b4757	-0.05744108
41	0xbd55f542	-0.05223585
42	0xbd284f84	-0.041091457
43	0xbca90c32	-0.020635698
44	0x3c8128fe	0.015766617
45	0x3d5c289f	0.053749677
46	0x3ce9a499	0.02852087
47	0x3d2aa570	0.04166168
48	0x3ca21dd7	0.01978962
49	0xbcc0a0d3	-0.023514187
50	0x3d72e020	0.059295774
51	0xbd25ac71	-0.040447656
52	0x3d45a0bf	0.048249003
53	0x3d6da140	0.058015108
54	0xbcd19896	-0.025585454
55	0x3cbea865	0.023273656
56	0xbb7b24e8	-0.0038321558
57	0x3d1c5014	0.038162306
58	0x3d252028	0.04031387
59	0xbcb9c4cd	-0.02267685
60	0xbd0869dc	-0.03330408
61	0xbd1480c1	-0.0362556
62	0x3c9d47ab	0.019199213
63	0xbcffa95a	-0.031208683
64	0x356d1b10	8.832876e-07
65	0xbd1e6ebd	-0.038679827
66	0xbd60ae25	-0.054853577
67	0xbce308b9	-0.02771412
68	0xbb1eeda8	-0.002425054
69	0x3c168425	0.009186779
70	0xbd4b47b6	-0.049628936
71	0x3d053d97	0.03252944
72	0xbc085a39	-0.008322292
73	0x3d4a1c89	0.04934362
74	0xbd605552	-0.054768868
75	0x3cc5f43f	0.024164317
76	0x3a860425	0.0010224624
77	0x3bfac276	0.007652576
78	0xbd6a242c	-0.057163402
79	0xbc5ad85b	-0.013357247
80	0xbbb0a072	-0.0053902203
81	0x3c347369	0.011013844
82	0xbd419705	-0.047263164
83	0xbc9f8210	-0.019471198
84	0x3cc592dd	0.024117881
85	0xbcc42b61	-0.023946466
86	0xbd337604	-0.04381372
87	0xbd7621b8	-0.06009075
88	0xbd680ebe	-0.056654684
89	0x3c69a2ee	0.014260037
90	0x3ca62509	0.020281332
91	0x39a1a6a3	0.00030832467
92	0xbcd0ae8d	-0.025473857
93	0x3d077537	0.03307077
94	0x3d105cbf	0.0352447
95	0xbd088216	-0.033327185
96	0xbcbc2edf	-0.022971569
97	0x3b0048f0	0.0019574724
98	0x3d244825	0.040107865
99	0xbd80b84b	-0.06285151
100	0xbd5da63c	-0.05411361
101	0x3cd2661d	0.025683457
102	0xbd4afbd8	-0.049556583
103	0xbd28742c	-0.041126415
104	0x3c538722	0.012910636
105	0xbcf4cbff	-0.02988243
106	0x3cf5d516	0.030008834
107	0x3d71b25f	0.059008
108	0x3d5e2a0e	0.054239325
109	0xbbd95413	-0.006632337
110	0x3c61aa74	0.013773549
111	0x3c70308f	0.014660015
112	0xbc3eb027	-0.011638678
113	0x3d5f7e67	0.054563906
114	0xbd019b80	-0.031642437
115	0x3d1a8230	0.037721813
116	0x3d5519e7	0.052026656
117	0x3d5d1d83	0.053983223
118	0xbd6b84e0	-0.057499766
119	0xbd5a2263	-0.05325545
120	0x3cf8f662	0.030390922
121	0xbc9588e8	-0.018253759
122	0x3ce62c79	0.028097378
123	0x3d129886	0.03578999
124	0xbcd882d4	-0.026429571
125	0xbd5d2516	-0.053990446
126	0x3d4ee352	0.05050976
127	0xbd2ba439	-0.04190466
128	0x3d0faea7	0.03507867
129	0xbd401a9d	-0.04690038
130	0xbbdc1ac5	-0.0067170584
131	0xbcfb8bb4	-0.030706264
132	0x3d5ba142	0.053620584
133	0xbd5e6022	-0.0542909
134	0x3c31451a	0.010819698
135	0xbaec3f68	-0.0018024268
136	0x3cf27a94	0.029599465
137	0xbd6ab248	-0.05729893
138	0x3d0eff43	0.034911405
139	0xbc84a0d7	-0.016189976
140	0xbc884aea	-0.016637284
141	0x3cb8349b	0.022486022
142	0x3d255050	0.040359795
143	0xbcc6c45e	-0.024263557
144	0xbd54b975	-0.051934678
145	0x3ca90037	0.020629985
146	0xbd191842	-0.03737665
147	0xbd004ae6	-0.03132143
148	0xbc70be25	-0.0146937715
149	0x3cf1b899	0.029506968
150	0x3d187108	0.03721717
151	0xbcef78d0	-0.029232413
152	0xbc0ae8af	-0.008478328
153	0xbc6cebb9	-0.014460498
154	0xbd262d49	-0.04057053
155	0x3c6d83d8	0.014496766
156	0x3d6bfe7a	0.057615735
157	0x3d17639c	0.03696023
158	0xbd4d67fd	-0.050148
159	0x3d60a196	0.0548416
160	0x3cbbd862	0.022930328
161	0x3d31b87a	0.04338882
162	0xbd0407f1	-0.032234136
163	0x3b2f7cf7	0.0026777366
164	0xbd253dab	-0.040342014
165	0x3c285971	0.010275231
166	0x3bd92b86	0.006627503
167	0xbcbabe0f	-0.022795705
168	0xbd1f96b2	-0.038962074
169	0x3ad3cc10	0.0016158838
170	0xbc78f074	-0.015194047
171	0xbd73bce0	-0.059506297
172	0xba5d7006	-0.0008447174
173	0x3d1940a5	0.037415165
174	0x3d192f6f	0.03739875
175	0xbd58981b	-0.052879434
176	0xbd4bb5c8	-0.049733907
177	0x3d581889	0.052757774
178	0xbca34ef9	-0.019935118
179	0xbca2e277	-0.019883377
180	0x3d0b6ab0	0.034037292
181	0x3d31ff02	0.043456085
182	0xbca8ae59	-0.020590948
183	0xbce1a104	-0.027542599
184	0x3d64730c	0.05577378
185	0x3baac0b2	0.0052109594
186	0x3d49ac52	0.049236603
187	0x3d097be8	0.03356543
188	0xbd424956	-0.04743322
189	0xbc79a2b5	-0.015236546
190	0x3d709069	0.05873147
191	0x3d0f98bf	0.03505778
192	0xbcaf417d	-0.021393532
193	0xbd58af7f	-0.05290174
194	0xbc20474e	-0.009782625
195	0xbd076214	-0.03305252
196	0x3accd986	0.0015628792
197	0x3d391a28	0.04519096
198	0xbd681de7	-0.056669142
199	0xbd4f7bcd	-0.050655175
200	0xbcdf40db	-0.027252605
201	0x3cd11e2a	0.025527079
202	0xbc09e976	-0.008417478
203	0xbcfa03d8	-0.030519411
204	0xbcf33165	-0.02968664
205	0xbd0725ee	-0.032995157
206	0xbcf6cca4	-0.030126877
207	0x3d217b87	0.039424445
208	0x3cfe8c3c	0.031072728
209	0x3cbf73c8	0.023370638
210	0x3d858453	0.065193795
211	0xbbacc3b2	-0.005272352
212	0x3d67bc79	0.056576226
213	0xbca69934	-0.020336725
214	0x3ad23484	0.0016037379
215	0xbcb5f1fb	-0.022210112
216	0x3d5afcfd	0.053463925
217	0xbc8b8922	-0.017033163
218	0xbd4c4c99	-0.049877737
219	0xbc1b85fd	-0.0094923945
220	0xbd066bd2	-0.03281767
221	0x3d1bc003	0.038024914
222	0x3c9112cd	0.01770916
223	0x3d82ef40	0.063932896
224	0x3d495ae4	0.049158946
225	0x3d55f343	0.052233946
226	0xbd26a54e	-0.04068499
227	0xbd459401	-0.04823685
228	0x3d3c1de4	0.045926943
229	0xbd3eb11d	-0.046555627
230	0x3d5baf44	0.053633943
231	0xbd5a871f	-0.053351518
232	0xbc97bc9e	-0.018522557
233	0xbd3a836c	-0.04553549
234	0x3d14671d	0.03623115
235	0xbcd84dae	-0.026404228
236	0xbccfa86f	-0.02534887
237	0xbcd91d9a	-0.026503373
238	0xbd0c3356	-0.034228645
239	0xbc9221e5	-0.017838428
240	0x3d5e1dcb	0.05422763
241	0x3c5e6e8e	0.013576163
242	0xbca21245	-0.019784102
243	0x3d1bd7b9	0.038047526
244	0x3cdee8b0	0.027210563
245	0x3d2b5724	0.04183115
246	0x3af0a7d0	0.0018360559
247	0xbc7f50ab	-0.015583198
248	0x3d35faeb	0.044428747
249	0x3d23b6f8	0.039969414
250	0x3c4f8e57	0.012668214
251	0x3cf78a98	0.030217454
252	0x3d54f90a	0.051995315
253	0x3c033efa	0.00801062
254	0x3cb05f88	0.021529928
255	0x3a3b1012	0.00071358785

net.4.weight f4 [19, 256]
0	0xbca256a5	-0.019816706
1	0xbd295c22	-0.04134763
2	0x3d2d975c	0.042380676
3	0x3db08ff8	0.0862121
4	0x3d4423d6	0.04788574
5	0x3d47e3d6	0.048801266
6	0xbca28fc0	-0.019843936
7	0x3d7e14cc	0.062031552
8	0xbd383510	-0.04497248
9	0xbd1f747e	-0.038929455
10	0xbd59062c	-0.0529844
11	0x3c2ca383	0.010537031
12	0x3c72cbf9	0.014819139
13	0x3da0c202	0.07849504
14	0xbbf4eaa9	-0.0074742627
15	0x3d3c96d5	0.046042282
16	0xbc355de1	-0.011069746
17	0xbd1419a2	-0.036157258
18	0x3ccfd771	0.025371285
19	0x3cd1f143	0.025627738
20	0x3d6f7583	0.058461677
21	0xbdcb1221	-0.09915567
22	0xbb7fe8e0	-0.0039048716
23	0x3d975ed6	0.073911354
24	0x3c829138	0.015938386
25	0xbd012ca8	-0.03153673
26	0x3cc804df	0.024416385
27	0xbd82cb4e	-0.063864335
28	0xbd999a00	-0.07500076
29	0xbd4fb261	-0.050707225
30	0x3c88ddf8	0.016707405
31	0xbd80e84a	-0.062943056
32	0xbc2fe7b1	-0.010736392
33	0x3c154689	0.009111055
34	0xbd825694	-0.0636417
35	0x3c3481c2	0.011017265
36	0xbd51ee41	-0.051252607
37	0x3c14acb1	0.009074376
38	0x3d4170fc	0.04722689
39	0xbc698fe4	-0.014255498
40	0xbd94a7f8	-0.072586
41	0xbc85aa62	-0.016316596
42	0xbd2e3f6f	-0.042540964
43	0xbd818cfc	-0.06325719
44	0xbc9bc6e4	-0.019015737
45	0xbc66a47e	-0.014077304
46	0x3c281d31	0.010260866
47	0x3b25b526	0.0025284975
48	0xbd2d5595	-0.042317946
49	0xbd9badaf	-0.07601487
50	0x3d020d37	0.031750884
51	0x3d53496f	0.051583704
52	0x3d861af9	0.065481134
53	0xbd1c1cd0	-0.038113415
54	0x3c37d40d	0.01121999
55	0x3cbed25b	0.023293665
56	0x3bc83999	0.006110382
57	0x3db2ff51	0.08740104
58	0xbd43a414	-0.0477639
59	0x3d5fb9cb	0.054620545
60	0x3c0d3383	0.008618238
61	0x3d3373d1	0.043811623
62	0xbb0f89e8	-0.0021902267
63	0xbd61a496	-0.055088602
64	0x3c0275f3	0.007962692
65	0x3d31a065	0.043365855
66	0x3d119c87	0.035549667
67	0xbd44cae8	-0.04804507
68	0xbd476543	-0.048680555
69	0xbd41d0e6	-0.04731836
70	0xbd5f3cde	-0.054501407
71	0x3d035f3b	0.03207324
72	0xbd85d501	-0.06534768
73	0xbc874227	-0.016511036
74	0x3d8b981c	0.06816122
75	0xbc6c158e	-0.014409436
76	0x3d4f1900	0.05056095
77	0x3ce00c18	0.027349517
78	0xbd885342	-0.06656505
79	0x3d4efab0	0.050532043
80	0x3cfe82fe	0.031068321
81	0xbd41c95c	-0.047311172
82	0xbce5ec35	-0.028066734
83	0xbda65f06	-0.08123593
84	0x3d8a7813	0.067611836
85	0x3c8277d3	0.015926277
86	0x3d69ddc1	0.057096247
87	0xbcaccb71	-0.021093102
88	0x38b9d413	8.860989e-05
89	0xbd3abe35	-0.04559155
90	0x3d85ee01	0.06539536
91	0x3d56ed34	0.05247231
92	0xbd56f306	-0.05247786
93	0x3ca27e86	0.019835722
94	0xbd2f4457	-0.042789783
95	0xbd91abd8	-0.07112855
96	0xbd86fe17	-0.065914325
97	0x3ca1b910	0.019741565
98	0x3d5405a1	0.05176318
99	0x3d6e66f2	0.058203645
100	0x3d304c5a	0.043041565
101	0x3db39c82	0.08770086
102	0xbd3338b7	-0.04375526
103	0x3d451c43	0.048122656
104	0xbba23be4	-0.004950987
105	0xbd2da965	-0.042397875
106	0x3d97d81b	0.07414266
107	0x3ce6825f	0.028138338
108	0x3ba53b6f	0.0050424854
109	0xbd149ec1	-0.036284212
110	0x3d414c78	0.047192067
111	0xbd43f90d	-0.047844935
112	0xbbaf5d25	-0.00535168
113	0x3d3be012	0.045867987
114	0xbd3914fb	-0.045186024
115	0xbccf87c1	-0.025333287
116	0xbb638451	-0.0034716318
117	0x3c0c2fb0	0.008556291
118	0xbc63be29	-0.013900318
119	0x3d5960a9	0.053070698
120	0xbceaf04b	-0.028679034
121	0xbd084f91	-0.033279005
122	0xbd2ad4a0	-0.04170668
123	0x3db435c0	0.087993145
124	0xbd152b20	-0.03641808
125	0x3c95ecc4	0.018301375
126	0x3d123155	0.035691578
127	0xbd80b583	-0.062846206
128	0x3d9d5646	0.07682471
129	0x3c98c458	0.018648311
130	0xbd6a538a	-0.057208575
131	0x3cca2a7c	0.024678461
132	0xbd956f77	-0.07296651
133	0xbd1cbdfd	-0.038267124
134	0xbd361ba9	-0.044459973
135	0x3c566cf0	0.013087496
136	0x3b24fe14	0.0025175856
137	0xbd5074f9	-0.050892804
138	0x3d5e8c4d	0.05433302
139	0x3d7feb2e	0.062480144
140	0xbd6b1f53	-0.05740292
141	0xbd3c76c2	-0.046011694
142	0xbb25e89a	-0.0025315643
143	0x3d06b631	0.032888595
144	0xbc9be321	-0.019029202
145	0xbbc85abb	-0.0061143315
146	0xbc002480	-0.007821202
147	0xbd260804	-0.040534988
148	0xbc8dfd6a	-0.017332751
149	0x3d16afa8	0.036788613
150	0x3c25d055	0.010120471
151	0xbcc0ea09	-0.023549097
152	0xbd18b286	-0.03727963
153	0xbcfcce3f	-0.030860065
154	0xbd8c3dc1	-0.06847716
155	0x3d3ddb64	0.046351805
156	0xbd32cd0f	-0.04365259
157	0x3bd94ec0	0.006631702
158	0x3cf188be	0.029484149
159	0x3cd697fc	0.026195519
160	0xbb2145a7	-0.0024608166
161	0x3d94c24b	0.07263621
162	0xbd602d50	-0.054730713
163	0x3d7942dc	0.060854778
164	0x3c27c878	0.010240667
165	0x3d7e12c0	0.0620296
166	0xbd43a88c	-0.04776816
167	0x3d8ba1d2	0.06817974
168	0xbbdcc49c	-0.006737305
169	0xbda9ff30	-0.08300626
170	0xbca1bd4b	-0.019743582
171	0xbd5ce1d7	-0.053926315
172	0x3d4e2c6c	0.050335333
173	0x3c0910d1	0.008365826
174	0xbd645376	-0.055743657
175	0xbd31bcbb	-0.043392878
176	0xbdac6f8f	-0.084197156
177	0x3d81c34f	0.0633608
178	0x3a205f06	0.0006117675
179	0x3d5449c3	0.051828157
180	0xbd3e8b59	-0.04651961
181	0x3dab7dd2	0.08373608
182	0x3d9aebab	0.07564481
183	0xbd1a0ddf	-0.037610885
184	0x3bc7e575	0.0061003515
185	0xbd16aa2b	-0.03678338
186	0x3d161596	0.03664168
187	0xbd3ad96f	-0.045617517
188	0x3be66ac9	0.0070317728
189	0xbd47417f	-0.048646446
190	0x3d7b7211	0.06138808
191	0x3d287244	0.041124597
192	0xbc443209	-0.01197482
193	0xbb4d0fcc	-0.0031289933
194	0xbd986011	-0.07440198
195	0xbd22cae2	-0.039744265
196	0xbd31962d	-0.04335611
197	0x3cd7de12	0.026351009
198	0x3d0c5459	0.034260128
199	0xbd11e078	-0.03561446
200	0x3d8632ab	0.06552633
201	0x3d6fdef3	0.05856223
202	0x3d7b50fe	0.061356537
203	0x3d4e31e6	0.050340556
204	0xbcf0d6b0	-0.029399246
205	0xbd47ad12	-0.048749037
206	0xbc092673	-0.008370983
207	0x3d8b47d0	0.068008065
208	0xbd84e6bb	-0.06489321
209	0x3c93e32e	0.018052664
210	0x3bf0c0ae	0.007347188
211	0xbc3b69be	-0.011438785
212	0xbd1879e8	-0.037225634
213	0xbcaea943	-0.021320945
214	0x3d8e23ae	0.06940399
215	0xbd372121	-0.04470933
216	0xbd14b043	-0.03630091
217	0x3c841249	0.016122
218	0x3d4043f8	0.04693982
219	0xba78f488	-0.0009496887
220	0xbd6b5d11	-0.057461802
221	0x3c939bd1	0.018018635
222	0x3b78762f	0.003791224
223	0xbd823d03	-0.06359293
224	0xbd673718	-0.056449026
225	0x3b7f0af8	0.003891645
226	0x3d9d7033	0.07687416
227	0x3d196c7a	0.037456967
228	0x3d6cf239	0.05784819
229	0xbd387eb6	-0.045042716
230	0xbd795dae	-0.060880356
231	0xbd72808d	-0.059204627
232	0xbd676f46	-0.056502603
233	0x3cdac50a	0.026705284
234	0xbd34586d	-0.044029642
235	0x3cf22d31	0.029562565
236	0xbd91a5ff	-0.07111739
237	0xbc2545ea	-0.01008747
238	0x3a1c5b8e	0.00059645704
239	0x3cdc662d	0.02690419
240	0xbc353f95	-0.011062522
241	0xbc959ef7	-0.018264277
242	0x3d3706e0	0.04468429
243	0xbd500f36	-0.050795756
244	0x3d9f878b	0.07789525
245	0xbd2547c3	-0.04035164
246	0x3cff059d	0.031130606
247	0xbb727c0b	-0.0037000205
248	0x3cc092a7	0.02350743
249	0xbbbb951f	-0.0057245637
250	0xbd986e54	-0.074429184
251	0x3c562421	0.013070137
252	0xbb48d4c7	-0.0030644403
253	0x3d77e1eb	0.060518187
254	0x3c29ebd9	0.010371172
255	0x3d387374	0.04503198

net.4.bias f4 [19]
0	0x3b4b4c8e	0.0031020972
1	0x3d019f18	0.031645864
2	0xbd0b8363	-0.034060847
3	0xbc1be120	-0.009514123
4	0x3d10ac18	0.03532037
5	0xbd4c6f53	-0.049910855
6	0xbd1dce12	-0.038526602
7	0xbc99bff3	-0.018768286
8	0xbd531cd0	-0.05154115
9	0x3d1c38da	0.038140155
10	0xbd16c462	-0.03680838
11	0x3b11ab6c	0.002222742
12	0x3c5ff3b5	0.013668944
13	0xbb64c727	-0.0034908743
14	0x3d571816	0.052513205
15	0xbd01eb47	-0.03171852
16	0xbd474131	-0.048646156
17	0xbd414249	-0.047182355
18	0x3d538646	0.051641725
