AM_RL/planner/model/pretraining_planner.pth (torch, 309056 bytes, 6 tensors)

net.0.weight f4 [256, 22]
-0.15805118 -0.017908076 -0.106825404 0.14717454 -0.04797104 0.14316206 0.12709773 0.39179918
0.04452417 0.055995896 -0.29483727 0.4528158 0.15235797 0.09157178 0.09682398 0.16584165
-0.022819886 -0.18217576 0.20547721 0.011899261 0.11039005 -0.030602887 -0.13562652 0.074763216
-0.09275151 0.057549544 -0.1732764 0.15878913 0.096173145 -0.173381 0.06968719 -0.067447044
-0.18544872 -0.21386038 -0.11059937 0.04071435 -0.014518799 0.20324183 -0.22322795 0.24360332
-0.14923306 -0.26515457 -0.086501226 0.07711211 0.23654197 0.19222698 0.042950016 -0.107196696
-0.17317785 -0.1018619 0.19654475 1.0342989 -0.094606616 0.06026204 -0.14938988 -0.12889645
0.21846324 -0.13705422 0.17051895 0.103116736 -0.06368782 -0.12152016 -0.3706622 0.13024998
0.23602206 0.1726447 0.28509462 -0.049945805 0.18388405 -0.18351783 -0.09087989 -0.15644245
-0.07667676 0.4440051 0.25480863 0.14237793 0.2883702 0.048361644 0.24862498 -0.01910989
-0.08124985 -0.04418845 0.17772941 0.30705312 -0.4279287 0.028661583 -0.099542096 0.2335336
-0.033921912 -0.1187309 0.14520922 -0.09745459 0.18881476 0.12789541 0.33908993 0.52600014
0.12542829 0.14343145 -0.03549528 0.22076303 -0.07903128 0.12220683 0.0012744379 0.018789792
0.26173648 -0.291337 0.5861458 -0.2017532 0.1773429 0.1336165 0.016885508 -0.19141941
-0.18669505 0.033333935 -0.011519594 0.05660749 0.04091651 -0.88831455 0.15040469 0.18655466
0.16670842 0.18722728 -0.089646235 0.006522065 0.11934569 -0.086272866 0.1413053 0.036051333
-0.29701012 -0.12646161 0.17122306 0.19111352 0.22894883 0.09671301 0.12116969 -0.030002732
0.114113666 -0.1178953 -0.2635241 0.17379564 0.01183247 0.11325658 -0.20583196 0.15752536
-0.11877361 -0.15050945 0.016285177 -0.19336596 -0.23506595 0.0769137 0.14937209 0.18937154
0.042833306 -0.03899475 0.009318003 -0.10844662 0.1392724 0.09851536 -0.12955397 -0.0984056
0.03772299 -0.08790292 -0.08782539 -0.048034657 -0.113028176 0.13105159 -0.25811544 -0.06787084
-0.0055765146 0.034689892 -0.29887635 0.25109684 0.057771046 -0.009352051 0.16251653 0.019012978
-0.0026727815 0.1260921 -0.12049435 0.022839243 -0.042911634 -0.032379743 0.07386019 -0.44066176
-0.04264904 -0.13419332 0.16351216 -0.20679669 -0.085996784 0.10859234 -0.11439498 0.040198166
0.36713615 0.27201644 -0.16201721 0.2283234 -0.31900826 0.11659836 -0.012210389 -0.06128066
0.15335245 0.060409494 -0.053953663 0.082725435 0.2521074 -0.25079748 0.38136333 0.2181539
0.024991015 0.2353814 0.21751823 -0.024756493 -0.071005374 0.13996148 -0.25268945 0.06662529
0.16539927 -0.054461244 0.19875854 -0.20084332 -0.049434148 -0.23055992 0.023179233 -0.0036960966
-0.12516688 -0.055466905 -0.13527478 -0.33322856 0.3669789 0.1390122 -0.057582512 0.17470533
0.018567456 0.07114604 -0.08908998 -0.114087366 0.00064711727 0.27817377 0.5096152 -0.005700174
-0.18744318 -0.28515613 -0.14159521 0.07955341 0.13808666 0.09472244 0.06850489 0.14968814
-0.09866506 0.22205472 0.27801105 -0.01857097 0.4067391 -0.12399929 -0.16489735 0.17525482
00000000: 2bd8 21be f5b3 92bc 47c7 dabd ecb4 163e
00000010: 487d 44bd 1399 123e e825 023e e799 c83e
00000020: fa5e 363d f45b 653d e9f4 96be 79d7 e73e
00000030: ba03 1c3e fc89 bb3d a74b c63d 65d2 293e
00000040: c5f0 babc 488c 3abe 9e68 523e 1ef5 423c
00000050: 2e14 e23d e8b2 fabc aee1 0abe 751d 993d
00000060: 81f4 bdbd 12b9 6b3d 5e6f 31be 9e99 223e
00000070: 6df6 c43d ca8a 31be 28b8 8e3d ad21 8abd
00000080: 45e6 3dbe 37fe 5abe ec81 e2bd 17c4 263d
00000090: 42e0 6dbc a01e 503e de95 64be 2673 793e
000000a0: 8dd0 18be 57c2 87be 8e27 b1bd f4ec 9d3d
000000b0: 0f38 723e 26d7 443e 5bec 2f3d f189 dbbd
000000c0: 8955 31be f99c d0bd 0743 493e e863 843f
000000d0: 1dc1 c1bd 54d5 763d a9f9 18be 6efd 03be
000000e0: d4b4 5f3e f157 0cbe 859c 2e3e de2e d33d
000000f0: c36e 82bd 90df f8bd 70c7 bdbe 4060 053e
00000100: c4af 713e c6c9 303e ecf7 913e f993 4cbd
00000110: 1a4c 3c3e 19ec 3bbe 3c1f babd 7332 20be
00000120: b508 9dbd a354 e33e 4776 823e 85cb 113e
00000130: 42a5 933e dc16 463d 8c97 7e3e 588c 9cbc
00000140: 5266 a6bd f3fe 34bd b3fe 353e 1136 9d3e
00000150: 7819 dbbe b2cb ea3c badc cbbd 6f23 6f3e
00000160: b4f1 0abd 3029 f3bd bab1 143e 4696 c7bd
00000170: a858 413e 04f7 023e 329d ad3e f2a7 063f
00000180: 4670 003e b2df 123e 8063 11bd b40f 623e
00000190: 27db a1bd 9347 fa3d 0a0b a73a 0ded 993c
000001a0: 5302 863e 202a 95be a70d 163f 6498 4ebe
000001b0: 6199 353e c4d2 083e 7a53 8a3c 7303 44be
000001c0: fd2c 3fbe 2a89 083d aebc 3cbc 41dd 673d
000001d0: 1298 273d 9568 63bf b003 1a3e 2f08 3f3e
000001e0: 9db5 2a3e 82b8 3f3e 7298 b7bd 0cb7 d53b
000001f0: 836b f43d d4af b0bd 56b2 103e 90aa 133d
00000200: b611 98be 277f 01be 1955 2f3e 43b3 433e
00000210: 9071 6a3e 7811 c63d d027 f83d 4ac8 f5bc
00000220: 6db4 e93d 1773 f1bd a1ec 86be 7cf7 313e
00000230: fadc 413c 11f3 e73d 9dc5 52be 544e 213e
00000240: 943f f3bd 261f 1abe 7e68 853c ba01 46be
00000250: 21b5 70be ee84 9d3d fff4 183e 9dea 413e
00000260: fa71 2f3d f5b8 1fbd 8aaa 183c 4319 debd
00000270: 6d9d 0e3e 6cc2 c93d cca9 04be e088 c9bd
00000280: 6c83 1a3d 7206 b4bd ccdd b3bd fdbf 44bd
00000290: 517b e7bd 6332 063e b527 84be deff 8abd
000002a0: 32bb b6bb fd16 0e3d 5206 99be c48f 803e
000002b0: 55a1 6c3d 5839 19bc bc6a 263e 1bc1 9b3c
000002c0: d529 2fbb 4a1e 013e bec5 f6bd 5d19 bb3c
000002d0: 1cc4 2fbd 9fa0 04bd 0344 973d 6b9e e1be
000002e0: c3b0 2ebd f969 09be bb6f 273e 83c2 53be
000002f0: 151f b0bd a965 de3d ea47 eabd d5a6 243d
00000300: 45f9 bb3e bd45 8b3e d7e7 25be 9ccd 693e
00000310: 0d55 a3be 1fcb ee3d 150e 48bc 6e01 7bbd
00000320: 6d08 1d3e f26f 773d 84fe 5cbd f46b a93d
00000330: 3914 813e 8768 80be 0e42 c33e bc63 5f3e
00000340: f5b9 cc3c d207 713e 19bd 5e3e 21ce cabc
00000350: 446b 91bd 1052 0f3e 8360 81be d772 883d
00000360: 6d5e 293e c112 5fbd 5c87 4b3e dfa9 4dbe
00000370: 767b 4abd e617 6cbe 60e2 bd3c 363a 72bb
00000380: bf2b 00be 4431 63bd 7985 0abe ef9c aabe
00000390: a9e4 bb3e 3759 0e3e a4db 6bbd f4e5 323e
000003a0: c71a 983c 04b5 913d cf74 b6bd a3a6 e9bd
000003b0: 4ea3 293a cb6c 8e3e 2476 023f 86c8 babb
000003c0: 1bf1 3fbe fcff 91be 56fe 10be e6ec a23d
000003d0: 9766 0d3e d7fd c13d 4b4c 8c3d d947 193e
000003e0: e810 cabd 5062 633e 7757 8e3e 2622 98bc
000003f0: 1b40 d03e 57f3 fdbd dada 28be 0076 333e

net.0.bias f4 [256]
0.039658044 0.06732308 0.1859297 0.09193989 -0.0029775822 0.05790901 0.16610359 0.22580616
0.05277039 0.08877818 0.17458469 0.1250079 -0.064554036 -0.18287908 -0.09555031 -0.11324273
-0.039081186 -0.12205103 0.15457478 0.07651037 0.01694489 -0.22727808 -0.030576002 0.0020107764
0.09315273 0.20996797 -0.11401186 -0.098977126 -0.03202921 0.10661595 0.14464048 0.1284546
-0.19966163 0.12933469 0.1209838 0.21730185 0.07621296 -0.04120238 -0.012839289 -0.068572715
0.11903444 -0.10012095 0.16212174 -0.07757128 -0.12218108 0.044026155 0.016292872 -0.07451117
0.18049136 0.023758315 0.15145464 0.1312784 -0.1702976 0.07187106 -0.02271597 -0.0007990256
0.18294188 -0.066617936 0.15124178 -0.09934309 0.07887538 -0.058804765 -0.09402692 -0.17792054
-0.17067455 0.092894025 -0.07625126 0.047438666 0.15844104 -0.033755362 0.034050543 0.11788433
-0.037445843 0.15916745 0.078893214 0.07098351 -0.12574434 0.046308808 -0.08621292 -0.003992977
-0.13668193 0.1788728 0.15658996 0.20096798 0.03157829 -0.11791847 0.09952261 0.16505453
-0.13385434 0.16053833 0.05237385 -0.07817452 0.12247707 -0.094777524 -0.16844745 0.10316726
0.052111726 0.13631637 0.07075784 0.17605129 0.050353225 -0.067079455 0.16969033 0.013866401
-0.049228687 -0.21045516 -0.006031289 0.012703805 -0.048160926 0.07255225 0.12798758 0.009612213
0.050284427 -0.08895098 -0.07326309 0.10748042 -0.0132324025 0.04997418 0.14423543 -0.0002744256
-0.06829607 -0.0701906 0.037569057 0.1266265 0.09358185 0.059187155 -0.15352681 0.14668989
0.1046066 -0.104670145 0.059017446 0.07985461 -0.13405068 -0.095828556 -0.041729722 -0.22512765
-0.012931646 0.11890436 0.15532462 -0.10459491 -0.07208735 0.17345199 0.124410436 -0.12662837
-0.10455357 0.10735564 0.018680112 0.10841599 0.08246065 0.17590456 -0.10047916 -0.026887652
-0.14384148 0.1248148 -0.08800055 -0.08771516 0.11513038 0.12513058 0.084030494 0.16638483
0.06793071 -0.037043773 0.13041581 0.07404073 0.14682165 -0.16610532 0.12743928 0.16629887
-0.047190625 -0.04118906 0.20668767 0.045996152 0.06614502 -0.07954962 -0.10599857 0.15848249
-0.05311781 0.15271664 0.06119075 0.18604566 0.106981725 0.06961838 -0.092236586 0.2182186
0.006750552 -0.07362854 -0.095905036 0.05254049 -0.015130474 -0.019935858 0.048898317 -0.17784205
0.1290153 0.0028586073 -0.108549975 0.09517881 -0.035059106 -0.09330126 0.1368239 -0.12432038
-0.12608705 -0.061261103 0.0074632983 0.09353417 -0.12320763 0.17227148 0.057307918 0.084521204
-0.050628327 0.09755392 -0.066205285 0.16489108 -0.06349318 -0.13389465 -0.15558507 0.13029325
-0.04088255 -0.08184445 -0.09123744 0.032584053 -0.12968287 0.061046153 0.14062022 -0.089873806
-0.13096334 -0.204951 -0.022820408 0.03539788 0.14013289 0.10786381 -0.16869111 -0.02271322
0.1325924 -0.10568159 0.17009106 -0.08255674 -0.19151118 -0.12597807 0.16871414 -0.13184857
-0.008552295 0.097579785 0.12465779 0.21765555 0.0625432 0.16370131 -0.008083668 0.11076088
-0.05399715 -0.076288976 -0.13586292 0.14008917 0.12894224 0.1191959 -0.04721975 0.09335957
00000000: 7970 223d afe0 893d 5b64 3e3e fb4a bc3d
00000010: 8a23 43bb 0032 6d3d 0f17 2a3e bb39 673e
00000020: c425 583d 56d1 b53d 54c6 323e 1202 003e
00000030: e834 84bd a744 3bbe e2af c3bd ceeb e7bd
00000040: 9813 20bd e4f5 f9bd da48 1e3e 78b1 9c3d
00000050: 03d0 8a3c 96bb 68be 867a fabc 3bc7 033b
00000060: dcc6 be3d d801 573e 0d7f e9bd 85b4 cabd
00000070: 1031 03bd 7759 da3d a21c 143e 9a89 033e
00000080: 1974 4cbe 5070 043e 5bc6 f73d 6084 5e3e
00000090: 8a15 9c3d d4c3 28bd e25b 52bc da6f 8cbd
000000a0: 54c8 f33d 360c cdbd 3e03 263e b1dd 9ebd
000000b0: 133a fabd c554 343d a178 853c 5099 98bd
000000c0: bad2 383e cca0 c23c ed16 1b3e d86d 063e
000000d0: 7e62 2ebe 2231 933d d816 babc b375 51ba
000000e0: 1e55 3b3e fc6e 88bd 20df 1a3e 6474 cbbd
000000f0: 6a89 a13d 44dd 70bd 3091 c0bd cd30 36be
00000100: 4fc5 2ebe 393f be3d 9f29 9cbd 0c4f 423d
00000110: 5e3e 223e 1043 0abd 9578 0b3d 576d f13d
00000120: d060 19bd cbfc 223e c492 a13d cd5f 913d
00000130: 20c3 00be 4eae 3d3d 6690 b0bd 85d7 82bb
00000140: 59f6 0bbe 6e2a 373e 1e59 203e 8dca 4d3e
00000150: 3d58 013d 3d7f f1bd 83d2 cb3d 0e04 293e
00000160: 1d11 09be 2964 243e f685 563d f619 a0bd
00000170: 42d5 fa3d b81a c2bd 7d7d 2cbe 5b49 d33d
00000180: 1b73 553d 8596 0b3e 7de9 903d ca46 343e
00000190: 2f3f 4e3d f460 89bd 4dc3 2d3e e72f 633c
000001a0: 05a4 49bd 8f81 57be 1fa2 c5bb 9f23 503c
000001b0: 6444 45bd 4696 943d 2d0f 033e 8b7c 1d3c
000001c0: 0bf7 4d3d ee2b b6bd f50a 96bd b21e dc3d
000001d0: b8cc 58bc bab1 4c3d 74b2 133e c8e0 8fb9
000001e0: cfde 8bbd 17c0 8fbd 03e2 193d 61aa 013e
000001f0: d7a7 bf3d 3b6e 723d 2236 1dbe e035 163e
00000200: fc3b d63d 4d5d d6bd 47bc 713d d08a a33d
00000210: 9544 09be c341 c4bd c9ec 2abd dd87 66be
00000220: 41df 53bc 2184 f33d 6b0d 1f3e db35 d6bd
00000230: 88a2 93bd 669d 313e e6ca fe3d deaa 01be
00000240: 2f20 d6bd 46dd db3d 0907 993c 3409 de3d
00000250: 21e1 a83d 5320 343e 05c8 cdbd 7e43 dcbc
00000260: 2e4b 13be e79e ff3d a239 b4bd 01a4 b3bd
00000270: 7ac9 eb3d 3b22 003e 2e18 ac3d c960 2a3e
00000280: 421f 8b3d 36bb 17bd b98b 053e aba2 973d
00000290: 6a58 163e 8317 2abe 717f 023e 404a 2a3e
000002a0: f54a 41bd dcb5 28bd efa5 533e 7666 3c3d
000002b0: 0a77 873d e9ea a2bd c715 d9bd 3c49 223e
000002c0: 1092 59bd c061 1c3e 27a3 7a3d c182 3e3e
000002d0: 3c19 db3d 1594 8e3d 89e6 bcbd b274 5f3e
000002e0: bc33 dd3b 8fca 96bd dc69 c4bd b234 573d
000002f0: cfe5 77bc 8650 a3bc 9a49 483d 3a1c 36be
00000300: 961c 043e 7957 3b3b 734f debd 1ced c23d
00000310: 239a 0fbd bb14 bfbd 901b 0c3e af9b febd
00000320: f71c 01be ecec 7abd af8e f43b d88e bf3d
00000330: 4854 fcbd ef67 303e b5bb 6a3d 7419 ad3d
00000340: a65f 4fbd 59ca c73d a396 87bd 35d9 283e
00000350: b608 82bd ae1b 09be b151 1fbe 986b 053e
00000360: 7674 27bd 109e a7bd b2da babd db76 053d
00000370: 96cb 04be 880b 7a3d bffe 0f3e c20f b8bd
00000380: 411b 06be adde 51be ddf1 babc 5efd 103d
00000390: ff7e 0f3e b4e7 dc3d 5dbd 2cbe 1311 babc
000003a0: 4dc6 073e 976f d8bd 5a2c 2e3e 8213 a9bd
000003b0: 821b 44be 6500 01be 66c3 2c3e 5003 07be
000003c0: ed1e 0cbc e9d7 c73d 954c ff3d 19e1 5e3e
000003d0: a616 803d 51a1 273e 5c71 04bc 9ad6 e23d
000003e0: 1e2c 5dbd 653d 9cbd a61f 0bbe 8973 0f3e
000003f0: 6f09 043e fb1c f43d 7f69 41bd 4d33 bf3d

net.2.weight f4 [256, 256]
-0.021131564 0.0012136035 -0.015233881 0.054834332 0.021628138 0.006567417 0.07090346 -0.0025428194
0.04321925 -0.054998115 0.05498063 -0.00435807 -0.0138431685 0.13454433 0.08718436 0.1562437
0.0704996 0.028351098 0.028935622 -0.006126445 0.05157188 0.0144062545 0.08377457 -0.05584021
-0.039520584 0.073009595 -0.0013690778 -0.13610968 0.0041247183 0.017659517 0.03575102 -0.06095756
-0.01941213 -0.081844114 0.025676263 0.058797333 0.06758358 -0.06347254 0.0043792925 0.03635548
0.030771162 0.0010197174 -0.009159405 0.046908237 0.15928294 0.0098155 0.025705725 0.064439304
-0.07222624 0.00045646014 -0.008943878 0.031906232 -0.1041657 0.034235943 0.006693642 0.047776006
0.04090062 -0.05260946 0.011466692 -0.026881147 0.0455609 0.07841297 0.04643241 0.033969127
0.0018944986 -0.05607629 -0.11402842 0.020150507 -0.039124284 0.021460477 0.03175558 0.03810445
0.012797606 0.007135193 -0.007583873 -0.04558008 -0.07006275 -0.05570279 -0.045120414 0.051342625
0.062295053 0.006963971 0.048687983 -0.003644471 -0.010368159 0.009817935 0.057756316 0.008717432
-0.002116206 -0.06999551 0.06483214 0.018767316 -0.010594089 0.09540464 0.04312666 -0.0048638247
-0.021012584 -0.0036969872 0.0073863026 0.05586695 0.04026587 -0.048046708 0.06638554 0.003160592
-0.031851288 0.029392099 0.033689845 -0.035749797 -0.04653482 0.068603806 -0.047988247 -0.02384854
-0.033449885 -0.05868547 0.031836916 0.016110858 0.04037964 -0.01470673 0.02578736 0.06431755
-0.020453459 -0.042816736 0.04495596 0.036802545 -0.033283677 -0.021835532 -0.047257148 -0.032046527
-0.025462324 -0.027375985 -0.06323642 0.018405842 0.14184731 -0.016826829 0.1187846 0.14498398
-0.016954787 -0.04549304 -0.03583262 -0.004739581 0.15035707 -0.05257172 -0.041661706 0.06694543
-0.011631098 0.026442923 -0.017844561 -0.022072172 0.1080948 0.047638737 -0.10758772 -0.0029472078
0.095431335 0.06883479 0.09228912 -0.05096868 0.025855623 0.01818994 0.07363835 0.023596745
0.02125592 0.0026228973 0.04672838 -0.072148345 0.048008617 -0.060629375 -0.03652254 0.037325438
0.03822853 0.07628383 -0.0037714113 0.055909503 0.055115134 0.0056004454 0.1102976 0.024769716
-0.090876594 0.03506404 0.030474737 0.012831649 -0.0149545465 0.05156577 0.16540585 0.038841385
0.0024967447 -0.068914734 -0.08318181 0.057005167 0.10254849 -0.03813875 -0.08254842 0.062187515
0.06380648 0.004971807 0.0063272114 0.03820825 0.029303886 -0.078200385 0.05599176 -0.019268038
-0.022234306 0.012208831 -0.0047933953 0.008771247 0.08031145 0.06172686 0.04071514 0.0114367865
0.0061750486 -0.03074389 0.008008705 -0.025818873 0.096265845 -0.14452292 0.05406834 0.0017627816
-0.05278142 0.03635997 -0.13283344 0.06894029 0.026690729 0.037270993 -0.0117219025 -0.15840726
-0.03334012 0.07197592 -0.04047829 -0.041949723 -0.00082147087 0.058237985 -0.093259014 0.05637078
0.016489618 -0.07059966 -0.0021192224 0.04013655 -0.051149826 0.16048366 0.055472054 -0.042860985
0.025952684 -0.057975896 0.005274497 -0.067932025 0.0032956873 -0.053277355 -0.045825396 -0.0487509
0.030553034 0.015523116 -0.12742734 0.043498173 -0.032553587 -0.03680099 0.05178143 -0.04244041
00000000: 1a1c adbc c711 9f3a 8797 79bc f799 603d
00000010: 7e2d b13c 7d33 d73b d535 913d 6ea5 26bb
00000020: ab06 313d b445 61bd 5e33 613d 24ce 8ebb
00000030: 75ce 62bc fdc5 093e b78d b23d 59fe 1f3e
00000040: 1862 903d 9040 e83c 660a ed3c 58c0 c8bb
00000050: 093d 533d 3608 6c3c 0092 ab3d b4b8 64bd
00000060: 56e0 21bd 0e86 953d a172 b3ba 5660 0bbe
00000070: a528 873b b1aa 903c a96f 123d a2ae 79bd
00000080: 3006 9fbc e39d a7bd 0757 d23c 79d5 703d
00000090: 4369 8a3d e4fd 81bd 2b80 8f3b 7ce9 143d
000000a0: ce13 fc3c 0aa8 853a 5411 16bc da22 403d
000000b0: 111b 233e 31d1 203c d094 d23c c1f8 833d
000000c0: 5aeb 93bd 0b51 ef39 5889 12bc 1cb0 023d
000000d0: d454 d5bd fd3a 0c3d 5756 db3b c6b0 433d
000000e0: 6987 273d 047d 57bd cbde 3b3c da35 dcbc
000000f0: 119e 3a3d fb96 a03d e92f 3e3d 3623 0b3d
00000100: d350 f83a 40b0 65bd bb87 e9bd ad12 a53c
00000110: c940 20bd e2cd af3c 2412 023d 6913 1c3d
00000120: 0dad 513c 56ce e93b 2382 f8bb 2eb2 3abd
00000130: 0f7d 8fbd 9c28 64bd 2fd0 38bd a54c 523d
00000140: 1929 7f3d 0632 e43b 0d6d 473d 14d8 6ebb
00000150: 36df 29bc 67db 203c e391 6c3d 8fd3 0e3c
00000160: 0cb0 0abb ce59 8fbd b7c6 843d eabd 993c
00000170: d492 2dbc 8263 c33d 95a5 303d b860 9fbb
00000180: 9522 acbc 2749 72bb cc08 f23b bed4 643d
00000190: d3ed 243d a0cc 44bd 24f5 873d ef21 4f3b
000001a0: 7f76 02bd b3c7 f03c 5dfe 093d 616e 12bd
000001b0: 4c9b 3ebd 2780 8c3d 538f 44bd 035e c3bc
000001c0: bf02 09bd 2d60 70bd 6d67 023d ebfa 833c
000001d0: 1f65 253d 7ff4 70bc 0340 d33c ebb8 833d
000001e0: 038e a7bc 9a60 2fbd be23 383d 44be 163d
000001f0: 7754 08bd 6ee0 b2bc b690 41bd 3843 03bd
00000200: 5d96 d0bc 9a43 e0bc 1982 81bd d9c7 963c
00000210: 6c40 113e 6bd8 89bc 5745 f33d ae76 143e
00000220: c4e4 8abc e956 3abd 3ac5 12bd 7d4e 9bbb
00000230: 34f7 193e 7255 57bd 77a5 2abd b01a 893d
00000240: 5c90 3ebc d49e d83c c22e 92bc b3d0 b4bc
00000250: ce60 dd3d d620 433d f356 dcbd f125 41bb
00000260: 8171 c33d 41f9 8c3d 1402 bd3d 89c4 50bd
00000270: 2ccf d33c 1203 953c b4cf 963d f64d c13c
00000280: e520 ae3c eae4 2b3b 4266 3f3d 83c2 93bd
00000290: afa4 443d 8256 78bd a998 15bd 8fe2 183d
000002a0: 8595 1c3d b23a 9c3d c829 77bb 5d01 653d
000002b0: 68c0 613d f183 b73b b5e3 e13d dce9 ca3c
000002c0: 821d babd 509f 0f3d 28a6 f93c d63b 523c
000002d0: ea03 75bc a136 533d 2760 293e 2518 1f3d
000002e0: 6da0 233b 2b23 8dbd 3a5b aabd 407e 693d
000002f0: f104 d23d 6137 1cbd 250f a9bd 56b8 7e3d
00000300: f9ac 823d 8aea a23b 7f54 cf3b 4180 1c3d
00000310: b40e f03c 8627 a0bd 9e57 653d 01d8 9dbc
00000320: b824 b6bc 8c07 483c ea11 9dbb 47b5 0f3c
00000330: 547a a43d 4ed5 7c3d ebc4 263d 5c61 3b3c
00000340: 1058 ca3b 9cda fbbc f236 033c 1a82 d3bc
00000350: 0727 c53d d1fd 13be c476 5d3d 230d e73a
00000360: 5531 58bd 31ee 143d 7d05 08be 9130 8d3d
00000370: 84a6 da3c 78a9 183d 390d 40bc 8335 22be
00000380: a68f 08bd 1c68 933d 90cc 25bd 79d3 2bbd
00000390: fa57 57ba f48a 6e3d 95fe bebd 0ce5 663d
000003a0: 3c15 873c 8e96 90bd a7e2 0abb 3966 243d
000003b0: 7b82 51bd d455 243e aa36 633d 008f 2fbd
000003c0: b99a d43c 2278 6dbd b0d5 ac3b f21f 8bbd
000003d0: 75fc 573b 5b39 5abd 69b3 3bbd 06af 47bd
000003e0: 5b4a fa3c ab54 7e3c 507c 02be 242b 323d
000003f0: e956 05bd a3bc 16bd c418 543d ffd5 2dbd

net.2.bias f4 [256]
-0.045840997 0.0069449567 0.03274207 -0.008736347 0.057771917 -0.045472853 0.0016993126 0.05346586
-0.035530053 -0.033615693 -0.02569736 -0.046102054 -0.026764853 0.0071770824 -0.034117352 -0.00750866
0.057915784 0.025569396 0.059249137 -0.05296235 -0.06521018 -0.05678025 0.03281111 -0.03021171
0.034569737 -0.011473624 0.005949028 -0.026165074 -0.006940682 -0.011962894 0.054666165 0.0024938134
-0.047989674 0.01900819 -0.021286372 0.05352647 0.01890189 -0.0015882415 0.05590996 0.042745035
-0.05691605 0.024413753 0.023599572 -0.019320782 -0.030221496 0.05520445 -0.007344815 -0.0037651372
0.019629324 0.01449898 0.021859245 0.010304945 -0.0019869225 0.034526505 0.0042097787 0.036537178
0.06255208 0.010271748 -0.02773907 0.019101428 0.014279298 -0.016005345 -0.016027411 -0.00919767
-0.027409531 -0.025556935 0.019395376 -0.052776437 6.718576e-05 -0.020947596 -0.004975447 -0.028701581
0.021882804 -0.033180118 -0.0012470718 0.032365948 0.0068053496 0.069315195 0.0011643406 -0.044042695
0.0016792993 -0.04417901 0.020693857 -0.033908345 -0.035448607 0.05942198 -0.032487854 -0.023889346
-0.03232209 -0.011299971 0.036215033 -0.03758853 0.037882503 0.02960286 -0.032751486 0.048561066
0.04408958 0.025890013 -0.005103302 -0.0017172423 0.015095525 0.054535102 0.030820135 0.052065242
0.019323304 -0.009975916 0.028805722 -0.012638877 0.018495023 -0.015812032 0.013413305 0.044770893
0.054528635 -0.0025719877 -0.009747875 0.060576595 -0.018688295 0.010389448 0.06109189 0.011872331
-0.027370984 0.06099926 -0.032038294 -0.00743671 -0.044846904 0.04639516 -0.05246315 -0.035707485
-0.051036745 -0.026581686 -0.031666156 -0.0055018174 0.014323596 0.04573219 0.017641844 -0.044908598
0.026637785 0.05629147 0.03157195 0.0218821 0.056809857 -0.039420627 0.0274916 -0.021611402
0.00028556387 0.060455147 -0.032567624 0.012575428 -0.029272128 -0.046757314 0.037405856 -0.038861256
0.06135035 -0.057040244 -0.054910503 0.022842797 0.03806765 0.0005176274 0.0001119521 -0.028381687
0.060598016 0.057200927 0.022604289 0.056895845 0.021230014 -0.0010514932 0.05816708 -0.041598875
0.042715225 -0.0230446 0.021780608 0.026845938 0.055365436 0.00628404 0.008103188 -0.03431568
-0.013971956 -0.01269146 0.05741977 0.06396905 -0.019108055 0.006242914 -0.033707567 -0.0041199317
-0.047082018 0.006277195 -0.022030111 0.023967732 -0.058242615 -0.032161124 -0.010034693 0.053607874
0.02374348 -0.033617556 0.052409984 -0.0061346754 -0.0033835548 0.05672978 0.0052823504 0.03196112
0.06889526 -0.052933097 0.06694238 0.0070623904 -0.02921277 -0.016217671 -0.022050466 -0.045826834
0.03054298 0.05990818 -0.023624703 0.044980433 -0.03927327 0.04941997 -0.039337687 0.05490715
-0.011891681 0.03759027 -0.04808543 -0.035344712 -0.010590795 0.015083604 0.017513003 -0.050213367
0.058504198 -0.040921483 -0.023961158 -0.030682273 -0.049983013 -0.023995038 -0.015951429 -0.052396502
-0.013923494 0.06195668 -0.009802508 0.020636352 -0.0048308996 0.037557587 -0.029091999 -0.004122923
-0.047905587 0.06081189 0.04191539 -0.030368866 -0.024447402 0.01077914 -0.06355889 0.030514363
0.06364506 -0.039918426 0.04030195 0.032135714 -0.020600455 0.02942139 0.0045882226 0.031124609
00000000: c5c3 3bbd 8592 e33b 8c1c 063d e522 0fbc
00000010: 3fa2 6c3d be41 3abd 78bb de3a 05ff 5a3d
00000020: f687 11bd 9cb0 09bd 4583 d2bc 82d5 3cbd
00000030: f741 dbbc bb2d eb3b a3be 0bbd 350b f6bb
00000040: 1a39 6d3d e976 d13c 39af 723d 0def 58bd
00000050: ea8c 85bd 6892 68bd f164 063d 8c7e f7bc
00000060: ff98 0d3d defb 3bbc 10f0 c23b 2358 d6bc
00000070: a96e e3bb 0400 44bc a1e9 5f3d 3f6f 233b
00000080: d290 44bd 10b7 9b3c c260 aebc 923e 5b3d
00000090: 23d8 9a3c 8b2c d0ba d801 653d 6b15 2f3d
000000a0: ce20 69bd 5aff c73c e453 c13c 9e46 9ebc
000000b0: 1293 f7bc 101e 623d c6ac f0bb 85c0 76bb
000000c0: adcd a03c 218d 6d3c 2912 b33c 12d6 283c
000000d0: 0737 02bb aa6b 0d3d 2ff2 893b 02a8 153d
000000e0: 4e1b 803d d54a 283c 0c3d e3bc 997a 9c3c
000000f0: b7f3 693c a41d 83bc eb4b 83bc d3b1 16bc
00000100: f489 e0bc c75c d1bc 0de3 9e3c 1b2c 58bd
00000110: 15e6 8c38 4b9a abbc 1309 a3bb 941f ebbc
00000120: 9143 b33c e0e7 07bd c974 a3ba 2892 043d
00000130: 69ff de3b 20f5 8d3d ca9c 983a 1d66 34bd
00000140: ef1b dc3a 0df5 34bd 2a86 a93c 7ae3 0abd
00000150: 8f32 11bd 7664 733d fc11 05bd 97b3 c3bc
00000160: 2b64 04bd 8323 39bc 3756 143d 6ef6 19bd
00000170: af2a 1b3d b281 f23c 6c26 06bd f8e7 463d
00000180: 4797 343d 4b17 d43c 9a39 a7bb 1715 e1ba
00000190: 3953 773c 3360 5f3d 827a fc3c 5d42 553d
000001a0: e84b 9e3c 0672 23bc faf9 eb3c 4b13 4fbc
000001b0: e082 973c 3c88 81bc 7bc3 5b3c af61 373d
000001c0: 6b59 5f3d cb8e 28bb 8db5 1fbc 2a1f 783d
000001d0: 3218 99bc 8138 2a3c 7d3b 7a3d 2a84 423c
000001e0: 1d39 e0bc 5cda 793d 963a 03bd a5af f3bb
000001f0: 63b1 37bd da08 3e3d 9ae3 56bd 0342 12bd
00000200: e80b 51bd d6c1 d9bc 5fb4 01bd 9748 b4bb
00000210: 84ad 6a3c ad51 3b3d a185 903c 14f2 37bd
00000220: 7c37 da3c e291 663d 9751 013d 1742 b33c
00000230: 74b1 683d 8677 21bd 1036 e13c 650a b1bc
00000240: bcb7 9539 d19f 773d a165 05bd 2b09 4e3c
00000250: 1acc efbc 9984 3fbd e236 193d fb2c 1fbd
00000260: 814a 7b3d 08a3 69bd d6e9 60bd d120 bb3c
00000270: d3ec 1b3d 63b1 073a d3c7 ea38 b680 e8bc
00000280: a035 783d 854b 6a3d a12c b93c 9e0b 693d
00000290: 91ea ad3c 42d2 89ba 9b40 6e3d 9563 2abd
000002a0: 29f6 2e3d 07c8 bcbc 3f6d b23c 03ec db3c
000002b0: dec6 623d 59ea cd3b 3cc3 043c 998e 0cbd
000002c0: a2ea 64bc d7ef 4fbc fe30 6b3d 3502 833d
000002d0: 7f88 9cbc 5c91 cc3b f210 0abd 7e00 87bb
000002e0: 13d9 40bd eeb0 cd3b 7e78 b4bc fa57 c43c
000002f0: cf8f 6ebd 62bb 03bd 8e68 24bc ee93 5b3d
00000300: b081 c23c 90b2 09bd daab 563d 6305 c9bb
00000310: a1be 5dbb 7c5d 683d 9117 ad3b aae9 023d
00000320: f518 8d3d 60d0 58bd 1619 893d a06b e73b
00000330: 9e4f efbc ecda 84bc 2ea3 b4bc ebb4 3bbd
00000340: 4635 fa3c 4862 753d 9888 c1bc 673d 383d
00000350: 02dd 20bd 986c 4a3d 8e20 21bd 52e6 603d
00000360: 53d5 42bc 41f8 193d 3af5 44bd 9ec5 10bd
00000370: 0485 2dbc 3821 773c 6e77 8f3c 88ac 4dbd
00000380: 19a2 6f3d 499d 27bd 314a c4bc 6459 fbbc
00000390: fdba 4cbd 3e91 c4bc 92ac 82bc b79d 56bd
000003a0: 5e1f 64bc 4ac6 7d3d b39a 20bc 910d a93c
000003b0: 864c 9ebb fcd5 193d 5852 eebc 9619 87bb
000003c0: a638 44bd e315 793d 79af 2b3d 21c8 f8bc
000003d0: eb45 c8bc fd9a 303c 2a2b 82bd 42f9 f93c
000003e0: 5758 823d 8181 23bd a813 253d bda0 033d
000003f0: 49c2 a8bc 2005 f13c cd58 963b 09f9 fe3c

net.4.weight f4 [19, 256]
-0.011733857 0.008829839 0.00057154236 0.003830095 -0.04535132 -0.008323822 0.042020485 -0.042938024
0.0014673828 0.05409696 -0.0031682723 -0.050251655 -0.060926467 -0.0104913525 0.005893978 -0.0030369433
0.017367365 0.0061482317 0.02375798 -0.0032617743 0.055187535 0.0018477901 -0.006112553 0.022439867
-0.006580631 0.004478668 0.005404713 -0.0112692015 -0.0344081 0.00083190197 0.011875752 0.00296206
-0.0041156146 0.05303435 0.042520918 -0.019807965 -0.003679806 0.024513707 0.0102680735 -0.027909841
0.043639652 0.0064208605 0.030701462 -0.0038821816 0.023226656 -0.07288125 -0.00077046244 0.0049892226
-0.023610458 0.036339827 -0.048471805 0.039789245 0.009716646 -0.010283597 -0.0010555156 -0.029491717
0.024739707 0.015923243 0.0046334723 0.022535691 -0.04650941 -0.0038690735 0.045913916 -0.015251374
0.03490296 0.0053230906 0.009274072 0.005704342 0.029743621 0.019598208 0.027577225 0.017444894
-0.035612687 0.021613032 -0.0003321613 -0.020899305 -0.054889444 0.0066048875 0.016644197 -0.008306405
-0.02166506 0.031962525 0.0011267411 0.001717447 -0.007186664 -0.026722597 0.023427509 0.06894286
0.022261517 0.006591157 0.0062242798 0.0030583902 -0.011663388 -0.016863396 -0.04036396 0.026408749
-0.007769354 0.022016363 0.0011704229 0.0365535 0.0018102766 0.048578102 0.015673006 0.0075448025
-0.009282175 -0.04688389 -0.0011707835 0.02703627 -0.018567627 -0.029177606 0.008434472 0.0075671207
-0.033844393 -0.05140131 -0.06756379 0.014465899 0.024705378 -0.024844028 -0.039965097 -0.05621561
-0.0067611355 -0.007633225 0.0047411015 0.043156102 -0.0015245033 0.0033146022 0.04650564 0.009385152
0.003518219 0.002637789 0.00752486 -0.018134015 -0.010543918 0.050613783 -0.008816537 -0.0069094165
0.010689166 -0.010541696 0.0029622868 0.014629496 0.0064156894 -0.037938856 0.005184592 -0.045065705
0.0460797 -0.000982624 0.05276851 0.007270425 -0.048285242 -0.0046314453 -0.0044693933 -0.005319988
0.003647416 -0.023695692 0.04297106 -0.040610034 0.032275796 0.03128482 -0.0014942373 -0.003482207
0.03510992 -0.038085938 -0.017509501 -0.02783027 -0.014640714 -0.0023685389 0.024931565 0.028240765
0.024877125 -0.019921703 -0.035234228 -0.008243544 0.054584727 -0.04855666 0.006458257 -0.024703525
0.024713257 -0.022121804 -0.012697378 0.016010258 0.03286612 -0.0024757993 0.03994672 -0.028810527
-0.011982537 -0.033018358 0.0012985952 0.009205159 -0.03669774 -0.0027443343 -0.016686965 -0.019767184
-0.01628403 0.0013453983 -0.00866478 -0.011855893 0.0109359035 0.01049405 -0.014356801 0.029378844
-0.017973222 0.0018098418 0.032045554 0.044730745 -0.0011486425 0.055100698 0.0062368102 0.0051426035
-0.004449764 -0.019768566 -0.008575001 -0.010743143 0.016563712 0.008888965 0.020044947 0.054862402
-0.034551863 -0.006274247 -0.03672331 0.028272092 -0.0021836353 -0.02603745 -0.027254451 0.025339307
0.04035681 -0.06365615 -0.0631872 0.0062132105 -0.0012124584 -0.013174583 0.0025479577 0.00048638965
0.0018288663 -0.02519773 -0.0075037745 0.025718728 0.0026069423 -0.003906454 0.053449508 0.031592127
-0.009620154 0.007106105 0.0020127022 -0.003464435 -0.014727614 0.045158677 -0.013484048 0.030555548
-0.03922279 -0.05359195 0.04090953 0.014428618 0.013962528 -0.0005729152 -0.0012378779 -0.005777057
00000000: 5d3f 40bc 07ab 103c 8fd3 153a 5502 7b3b
00000010: 4ec2 39bd a460 08bc ac1d 2c3d c8df 2fbd
00000020: 3255 c03a c694 5d3d caa2 4fbb aed4 4dbd
00000030: 088e 79bd ece3 2bbc 4522 c13b 7407 47bb
00000040: 0146 8e3c 1b77 c93b 18a0 c23c 7ec3 55bb
00000050: 530c 623d 8c31 f23a d04b c8bb d0d3 b73c
00000060: 55a2 d7bb cac1 923b 051a b13b 75a2 38bc
00000070: 82ef 0cbd ff13 5a3a 8492 423c 1f1f 423b
00000080: 47dc 86bb 8c3a 593d 6a2a 2e3d 5044 a2bc
00000090: e628 71bb f8d0 c83c 6c3b 283c 2ea3 e4bc
000000a0: 7ebf 323d 1566 d23b a281 fb3c 336c 7ebb
000000b0: d445 be3c c442 95bd dcf8 49ba a27c a33b
000000c0: b86a c1bc 12d9 143d 5f8a 46bd 0cfa 223d
000000d0: 9132 1f3c 887c 28bc 3a59 8aba 9d98 f1bc
000000e0: edaa ca3c 7671 823c 62d4 973b c59c b83c
000000f0: a780 3ebd 4890 7dbb 3b10 3c3d e6e0 79bc
00000100: 68f6 0e3d 526d ae3b 47f2 173c 7deb ba3b
00000110: e5a8 f33c 6c8c a03c a2e9 e13c 98e8 8e3c
00000120: 9cde 11bd d00d b13c ef25 aeb9 0535 abbc
00000130: c1d3 60bd d06d d83b 6959 883c 9617 08bc
00000140: ed7a b1bc 23eb 023d 28af 933a f51b e13a
00000150: 1b7e ebbb 59e9 dabc 0ceb bf3c ea31 8d3d
00000160: c95d b63c a2fa d73b 0bf5 cb3b 466f 483b
00000170: cc17 3fbc 1b25 8abc ae54 25bd 2957 d83c
00000180: 1196 febb a95b b43c e068 993a 1fb9 153d
00000190: ce46 ed3a d5f9 463d ad64 803c 643a f73b
000001a0: 4414 18bc 5209 40bd fa74 99ba 2b7b dd3c
000001b0: 231b 98bc e005 efbc bd30 0a3c 9cf5 f73b
000001c0: 6ba0 0abd 2e8a 52bd e25e 8abd 6102 6d3c
000001d0: ef62 ca3c b485 cbbc 71b2 23bd 5742 66bd
000001e0: 848c ddbb 2220 fabb 3e5b 9b3b 74c4 303d
000001f0: d8d1 c7ba cc39 593b b37c 3e3d 2ec4 193c
00000200: ec91 663b c1de 2c3b 1a93 f63b c98d 94bc
00000210: 66c0 2cbc 6650 4f3d 3d73 10bc 6368 e2bb
00000220: 9d21 2f3c 14b7 2cbc ed22 423b 8eb0 6f3c
00000230: b43a d23b c665 1bbd 83e3 a93b d196 38bd
00000240: 11be 3c3d 64cb 80ba cb23 583d bf3c ee3b
00000250: bfc6 45bd 61c3 97bb fd73 92bb 4b53 aebb
00000260: 7c09 6f3b 781d c2bc 6c02 303d b556 26bd
00000270: a033 043d 8324 003d 49da c3ba bd35 64bb
00000280: 6bcf 0f3d 0000 1cbd 1670 8fbc 4efc e3bc
00000290: 9bdf 6fbc 7d39 1bbb 483d cc3c 2d59 e73c
000002a0: 1dcb cb3c d732 a3bc c451 10bd ee0f 07bc
000002b0: 3c94 5f3d 59e3 46bd c99f d33b 0c5f cabc
000002c0: 7573 ca3c c938 b5bc aa08 50bc f227 833c
000002d0: a09e 063d 0541 22bb 2c9f 233d 0e04 ecbc
000002e0: 6752 44bc 423e 07bd a035 aa3a 3cd1 163c
000002f0: 5f50 16bd 4ada 33bb 1ab3 88bc caee a1bc
00000300: 1666 85bc 1358 b03a b9f6 0dbc 383f 42bc
00000310: 812c 333c 3cef 2b3c ca38 6bbc e7ab f03c
00000320: 943c 93bc 3738 ed3a 3342 033d 9637 373d
00000330: 0c8e 96ba 45b1 613d 285e cc3b 4983 a83b
00000340: 53cf 91bb b0f1 a1bc 297e 0cbc 0204 30bc
00000350: 9fb0 873c 05a3 113c 4d35 a43c 66b7 603d
00000360: 4186 0dbd 3398 cdbb 2e6b 16bd e09a e73c
00000370: 521b 0fbb 7e4c d5bc ba44 dfbc 6194 cf3c
00000380: 2f4d 253d 285e 82bd 4a68 81bd 3098 cb3b
00000390: 5aeb 9eba 35da 57bc a3fb 263b 1d02 ff39
000003a0: 92b6 ef3a 786b cebc 39e2 f5bb 15b0 d23c
000003b0: 3cd9 2a3b b601 80bb dfed 5a3d bf66 013d
000003c0: da9d 1dbc 54da e83b 8ae7 033b 930b 63bb
000003d0: 174c 71bc 4ef8 383d 32ec 5cbc a14f fa3c
000003e0: 14a8 20bd 3c83 5bbd c090 273d 0366 6c3c
000003f0: 16c3 643c b02f 16ba 4a40 a2ba 774d bdbb

net.4.bias f4 [19]
-0.0045142723 0.029814191 0.042601913 0.031107066 0.0026716595 0.0077270838 0.020171816 -0.040102616
0.01531028 -0.015999893 0.0059212698 -0.03497079 -0.0220127 0.022155438 0.0331338 -0.053553373
-0.013327816 -0.051361684 -0.023371512
00000000: 76ec 93bb e43c f43c 587f 2e3d 3fd4 fe3c
00000010: 0217 2f3b 7a33 fd3b 5d3f a53c a442 24bd
00000020: f8d7 7a3c 3512 83bc 3607 c23b 883d 0fbd
00000030: fa53 b4bc 527f b53c 4fb7 073d c85a 5bbd
00000040: e95c 5abc a160 52bd 9d75 bfbc
