AM_RL/planner/model/pretraining_planner.pth (torch, 309056 bytes, 6 tensors)

net.0.weight f4 [256, 22]
000000 9b 1b 40 3e e9 f1 d6 bc d7 67 02 3e 36 29 12 bd
       0.1876053 -0.026238399 0.12734924 -0.035683833
000010 fc 25 f1 bd a9 be 18 3e 68 24 6b be d7 db 68 bd
       -0.11774823 0.14916481 -0.22963107 -0.05685028
000020 eb cd d7 3e 5d 21 68 3d 54 fc 70 be 97 1e 44 be
       0.4214929 0.056672443 -0.23533756 -0.19152294
000030 2f 78 16 3e 9b 14 f9 bd d9 88 a1 3d af e0 36 3e
       0.14694284 -0.12162133 0.0788743 0.17859147
000040 d6 98 a5 3e 4b 30 14 3d bf 05 3b 3c 1e 72 e7 bd
       0.32343167 0.03617887 0.011414944 -0.11301063
000050 0c 56 dd 3c d9 fc 20 be f9 56 44 3e 7e 0f d6 3d
       0.02701857 -0.15721454 0.19173802 0.10452174
000060 eb 1f 3b 3e 6b 33 a4 bd 5d eb 39 be a0 56 ad 3d
       0.18273894 -0.0801762 -0.1815619 0.08463788
000070 b7 65 05 3d 08 ad 67 bd 54 67 56 be 8b 5e 94 3d
       0.032567706 -0.0565615 -0.20937854 0.07244595
000080 00 76 79 be 5d 3a f9 bd 2c 8b 74 3e c8 c2 02 be
       -0.2436142 -0.12169335 0.23881215 -0.12769616
000090 55 be 57 3e b4 7b 39 3e 09 d8 6c 3e 06 69 3e 3e
       0.210687 0.18113595 0.23129286 0.18594751
0000a0 9f 22 86 be ce 43 5f 3e ad a5 ff bd 66 bb f5 3c
       -0.2619829 0.21803209 -0.12482772 0.029996585
0000b0 a2 41 53 3d 27 7e 28 3e d5 2c 8a 3d 48 cb 9b bd
       0.051576264 0.16454373 0.06746832 -0.07607132
0000c0 fc 53 7e bd ec 06 20 3e a9 a3 a6 be 30 7b 7e 3f
       -0.062091812 0.1562764 -0.32546738 0.9940672
0000d0 b1 8e 10 bf 76 f4 51 be 09 7c 82 3e 90 11 99 3d
       -0.5646773 -0.2050341 0.25485256 0.07474053
0000e0 a4 14 07 3e 3f 8a f2 bd cb 24 98 3d 58 78 f9 3d
       0.13191468 -0.118427746 0.07428893 0.12181157
0000f0 9c d5 c6 3d e6 62 e8 bd 0f 13 89 be aa ad 22 3e
       0.097087115 -0.113469884 -0.26772353 0.1588656
000100 da 34 13 be b1 36 36 3e 26 66 4d 3e f0 0b c8 3d
       -0.1437563 0.177943 0.20058498 0.09767902
000110 30 96 8d bc 74 99 26 3d 70 75 f8 bd 05 eb 38 3e
       -0.017283529 0.040673688 -0.121317744 0.18058403
000120 c1 13 76 bd ca a8 01 bf cb d8 89 3d 2e ca 2f be
       -0.060077433 -0.50648177 0.06730803 -0.17166969
000130 5a a9 8a 3d ab 25 24 be 3e 8c 2f be f7 b3 37 3d
       0.067705825 -0.16029994 -0.17143342 0.044849362
000140 b9 47 1e 3e 55 27 c6 3d 9f 19 b9 bd c9 dd 3b 3d
       0.15457048 0.09675471 -0.0903809 0.045865808
000150 b6 1f f5 be 38 9f 62 be 46 22 62 3e 5c e8 8e 3d
       -0.47875756 -0.2213105 0.22083387 0.06977913
000160 d1 fa 82 3c 0d 1b 2f 3d cf 93 1c be dd 16 41 be
       0.01598874 0.042750407 -0.1529076 -0.18856378
000170 fc 1b c3 3c 88 88 0d 3d 76 f2 51 bb 5d cc e6 bd
       0.023817055 0.034554034 -0.0032035387 -0.11269448
000180 36 78 e2 3e f5 2c 36 3d cb 09 ba 3d 82 d2 0e be
       0.4423234 0.044476468 0.09083899 -0.1394749
000190 3e 5a 4f 3d c5 66 1f 3e b8 5d d0 bd 01 96 9d 3d
       0.05062317 0.15566547 -0.101741254 0.076946266
0001a0 2b bd 78 be ae f5 6c 3e 48 b1 30 3c e8 88 1f bd
       -0.24290912 0.23140594 0.010784455 -0.038948923
0001b0 e3 88 16 3e bf 31 ba 3d fd 13 d9 bd 5c 31 3e be
       0.14700656 0.090915196 -0.105995156 -0.18573517
0001c0 85 f1 38 be 14 11 37 bd 00 7e 9f bd ba a1 2b 3e
       -0.18060882 -0.04469402 -0.077877045 0.16760913
0001d0 b0 08 28 be f2 c8 c3 be d9 02 6a be 5c 44 12 be
       -0.16409564 -0.38239247 -0.22852649 -0.1428389
0001e0 ef c6 11 3d 72 74 56 be ff 51 05 bd 6e 7d cd bd
       0.03559011 -0.20942858 -0.0325489 -0.100336894
0001f0 42 5d 1c 3e 27 49 69 3d e0 b6 89 3e 3e a0 54 3e
       0.1526995 0.05695453 0.26897335 0.20764253
000200 4e 4f 8b 3e d4 eb 01 be cf 78 54 3d 09 5b b0 bd
       0.27208942 -0.12687618 0.051873025 -0.086111136
000210 a3 6f 3b 3e 0e b6 35 3d e6 58 ec bd 87 f7 56 bd
       0.18304305 0.044363074 -0.115403935 -0.052482154
000220 cb c6 0c bd 11 3f 3e 3e db ce fa 3d 40 cc a2 be
       -0.03436927 0.18578745 0.12246486 -0.31796455
000230 86 9c d1 bd a1 d2 14 3e 8b 44 6d 3d c0 2c 61 be
       -0.102349326 0.14533474 0.057926696 -0.21989727
000240 d2 06 8b bc c7 e8 c1 bd b5 87 c6 bd f7 c5 f9 bd
       -0.016971026 -0.09468227 -0.09693853 -0.12195962
000250 6e 78 8d be 17 92 8f 3e 2b 7f 06 be 56 32 0d be
       -0.27630943 0.28041145 -0.13134448 -0.13788733
000260 4b 3c 37 be 81 f2 a1 bd f0 25 1e be 57 56 62 bd
       -0.17894094 -0.07907582 -0.1544416 -0.05525812
000270 19 7b 75 3d a1 3b 0e 3e 8d b8 a3 bd 1f 27 03 3e
       0.05993185 0.13889934 -0.07994185 0.12807892
000280 2d ad 31 3e b8 a2 4a bf c0 47 d1 be d3 77 f8 3d
       0.17351218 -0.7915454 -0.40875053 0.1213223
000290 37 46 97 be b5 e5 5f bd d0 b8 5c 3e 99 18 6f bb
       -0.29545757 -0.054662425 0.21554875 -0.0036483167
0002a0 1a b2 60 3d eb 4a 8c 3d 40 07 4d bd b7 f5 4c 3c
       0.05485735 0.06850227 -0.050055742 0.012509755
0002b0 96 3b 1c 3f 06 37 b3 3d 6b 02 0a be 62 6f 09 3c
       0.6102842 0.08750729 -0.13477485 0.008388372
0002c0 64 07 36 3d de 4b 53 be 39 f0 06 b9 9c 2d 02 3e
       0.044440642 -0.2063441 -0.00012868726 0.12712711
0002d0 f7 07 b8 bd df bb 9c 3d 80 57 0b bd 38 51 83 bf
       -0.08985894 0.07653021 -0.034018993 -1.0259161
0002e0 df 40 8c 3e b0 93 04 be 44 7f be 3e c8 f5 46 be
       0.27393243 -0.12946963 0.3720647 -0.19429696
0002f0 1a 5e 92 bd d4 35 38 be f7 b5 6e 3d 5c e2 be bd
       -0.07146855 -0.17989284 0.058279004 -0.093205184
000300 99 85 62 3e 7e 1b 05 3e 23 2f dc 3c cd 34 7b bc
       0.22121276 0.12998769 0.026877945 -0.015332413
000310 be 58 17 be 3a 13 41 3e 35 3d 80 bd c8 82 0d 3e
       -0.14779946 0.1885499 -0.06261674 0.1381942
000320 16 9a 59 be e5 ce 3a 3d 9d 75 2c 3d 6a b2 17 3c
       -0.21250185 0.045607466 0.042104352 0.009258846
000330 3f f1 14 bd 9b fc 41 3f e1 d1 b8 3e 3e 81 63 3d
       -0.036362883 0.7577607 0.36097625 0.055543177
000340 f4 d5 59 be e8 d7 9f be c3 e2 e3 bd c0 c5 ea 3d
       -0.21273023 -0.3121941 -0.11127236 0.11463499
000350 88 33 cb 3d af 8e 74 be de b7 04 be 87 7f 74 3c
       0.09921938 -0.23882554 -0.12960765 0.014922983
000360 2f ce f5 3e e3 00 f9 bd 2b 1d c3 3d 88 23 8c 3c
       0.48008868 -0.12158372 0.09527048 0.017106786
000370 e2 89 8d bc 34 4d 00 bd 56 48 05 be 12 54 a1 3d
       -0.017277662 -0.031323627 -0.13015875 0.07877363
000380 81 89 77 3d c0 2c fb bc b6 8a 42 be 31 00 18 3b
       0.06043387 -0.030660987 -0.18998227 0.0023193473
000390 a4 f1 89 3f 79 2d d3 bd bd 82 2c bf 95 c6 d7 be
       1.0776868 -0.103114076 -0.6738699 -0.42143694
0003a0 be a8 de bd 66 c6 0a 3e e7 0e 88 3d 05 18 eb 3c
       -0.10872029 0.13552245 0.066434674 0.028697977
0003b0 46 38 32 3e c2 29 b3 bd a8 2f 3d 3e 95 fe 5b be
       0.17404279 -0.08748199 0.1847521 -0.21483834
0003c0 7d 95 d8 bd bf 73 c3 3d 0c 36 28 3e a6 23 bf 3d
       -0.105753876 0.09543561 0.16426867 0.09332971
0003d0 15 7d 02 be bf 78 23 3e ae c6 2e 3e 5c 60 2b 3e
       -0.12743028 0.1596403 0.17067978 0.16735977
0003e0 7f e6 6a 3d 18 95 74 3d 09 48 08 3f 31 56 1d be
       0.057348724 0.0597125 0.53234917 -0.1536491
0003f0 d5 a9 69 be 35 07 49 3e 1f f5 06 3d 72 97 32 be
       -0.22818692 0.19631656 0.03294861 -0.17440584

net.0.bias f4 [256]
000000 96 be 2d be a7 1f 4e bb 12 a0 20 3e ad f9 30 be
       -0.16967234 -0.0031451972 0.15686062 -0.17282744
000010 83 1d 9a 3c f5 10 4a be a1 ff 1c be a9 f0 14 3e
       0.0188129 -0.19733031 -0.1533189 0.1454493
000020 77 f6 17 be 4a 64 05 3d 04 61 cf bd 49 87 96 bc
       -0.14840113 0.032566346 -0.10125926 -0.018375056
000030 9a ee ce 3d 23 68 8c bd 54 4b d9 bd 60 68 36 3e
       0.101041034 -0.068558 -0.10610071 0.17813253
000040 f4 ef 36 3e 62 05 8e 3d ab 23 32 be 3a e9 ba 3c
       0.17864972 0.069346204 -0.17396419 0.02281629
000050 47 e7 28 be 51 35 60 3d e8 fd 39 bd c1 a9 0f be
       -0.16494475 0.054738346 -0.04540816 -0.140296
000060 ae 4f 6b 3d ff d4 3a 3e ba df 9e 3d bb aa e8 3d
       0.057449035 0.18245314 0.07757516 0.11360689
000070 16 21 08 be 0b 73 ad 3d be 31 1a 3e 1b f5 b0 bd
       -0.13293871 0.08469208 0.15058038 -0.086405
000080 69 79 f8 bd 4f 88 0e 3e 29 f2 3c 3d eb d5 d1 3c
       -0.12132532 0.13919185 0.04612938 0.0256147
000090 52 ce 93 3d 41 28 a8 bd b1 ee 98 3d e9 76 59 bb
       0.07217087 -0.08210803 0.07467402 -0.0033182448
0000a0 0e 3b 1e be f9 6b 13 3a 2a 38 43 be 67 86 b4 bd
       -0.15452215 0.0005623694 -0.19064394 -0.08814698
0000b0 a0 cf e2 3d 5f 91 24 bd 52 87 c0 bd b5 3e 0c 3e
       0.110747576 -0.0401777 -0.0940081 0.13695796
0000c0 bf 6a f2 3b 94 a3 2d 3c 37 c9 00 3e 74 9c 67 bd
       0.007397979 0.010598082 0.12576757 -0.05654569
0000d0 62 0c e4 3d a5 82 23 3e 8b f5 18 bd 18 d7 9b bc
       0.11135174 0.15967806 -0.037343543 -0.019023463
0000e0 84 10 20 be 66 68 9e 3d 06 69 18 be b7 bc ea bb
       -0.156313 0.07734756 -0.14883813 -0.00716361
0000f0 c8 5a 82 bc 3f 4b 1d 3d 59 ec 08 be 4d 9f 16 be
       -0.015912428 0.03840184 -0.1337141 -0.14709206
000100 b4 97 29 bc 03 51 77 3c 05 94 3b 3e 92 03 e1 bd
       -0.01035111 0.015094998 0.18318184 -0.10987009
000110 9e fb ce bd e8 46 04 be 98 16 aa 3d 83 71 1c 3e
       -0.10106586 -0.12917674 0.08305091 0.15277676
000120 61 1a 24 3e eb 10 06 3e 60 4c 58 bc 52 60 c3 bd
       0.16025688 0.13092391 -0.013201803 -0.09539856
000130 57 ed 1e bc a1 dd 10 3e ab 34 e1 3d 28 30 45 be
       -0.009700141 0.14147045 0.10996374 -0.19256651
000140 b5 94 83 bd 5c 9e 19 3e 41 72 e5 bd 0a 3f 96 bd
       -0.06424848 0.15001816 -0.11203433 -0.073362425
000150 e1 d4 24 3e be 09 e5 3d cb 6f 5c be 23 b6 49 3e
       0.16096832 0.11183499 -0.2152702 0.19698386
000160 76 a8 ed bc 55 fe 25 3e cf d7 01 3e 98 58 ec 3d
       -0.029010992 0.16210301 0.1267998 0.115403354
000170 67 f5 a9 3d 8e aa fe bd e4 64 85 3d 07 3a 4b bd
       0.0829876 -0.124348745 0.06513384 -0.049615886
000180 c2 97 18 3e 90 00 35 bd 37 29 ae 3d 7a e3 cf 3d
       0.14901641 -0.04418999 0.08503955 0.101508096
000190 e8 87 cd bd 18 20 62 3d 0c 75 02 be ea 4d 7c bd
       -0.10035688 0.05520639 -0.12739962 -0.061597742
0001a0 76 8c c1 bd 36 1b 61 bd 51 25 1b bd 7a a8 b5 3d
       -0.09450619 -0.05495759 -0.037877385 0.08870025
0001b0 ab ca d0 bd 46 a5 ab bd 6c 15 e5 bd b1 99 41 3e
       -0.10194906 -0.08381133 -0.111857265 0.18906285
0001c0 2a 20 3d 3d 05 9e f5 bd 0c db 32 bd 92 b6 03 3e
       0.046173252 -0.119930305 -0.04366593 0.12862614
0001d0 58 3b b4 bd 89 34 0e 3e 26 88 42 3d 42 a5 82 3d
       -0.088003814 0.13887228 0.047493123 0.06379177
0001e0 3f da aa 3d b0 bf 43 3e 68 72 44 be db 21 88 3d
       0.083424084 0.19116092 -0.19184268 0.066470824
0001f0 38 00 00 3c 6f 22 54 3d 99 cb 0f be a2 16 77 bc
       0.007812552 0.05179065 -0.1404251 -0.01508108
000200 c7 7b ac 3d 3a 98 f7 3d a3 4c 12 be 3e a3 2e 3e
       0.08422046 0.12089582 -0.14287047 0.1705446
000210 06 b0 c2 bd f8 ce 73 bc 91 70 1f 3d 68 41 14 3e
       -0.0950623 -0.014880888 0.03892571 0.14478076
000220 eb 7a 13 bd 95 d3 2f 3d 24 7d eb bd 9e 49 49 be
       -0.036005896 0.04292639 -0.11498478 -0.19656989
000230 43 0a 73 bb df 7e 0f be 5b dc b2 3d 7f 8c 8f bd
       -0.0037084974 -0.14013241 0.08733436 -0.070092194
000240 7b 3a 49 bd 08 ae 34 be 6e f6 d3 3d 25 79 f3 bd
       -0.049128037 -0.17644513 0.10349737 -0.11888341
000250 ca 0f f0 3c 00 05 0c 3d 5b 56 2c 3e aa 78 66 bd
       0.029304404 0.034184456 0.16829817 -0.056267418
000260 60 34 a5 3d 63 7f 83 bd 85 25 ab 3d c9 96 6f bd
       0.0806663 -0.064207815 0.08356766 -0.05849341
000270 fd 8e 68 3d 06 36 2a 3e 15 83 8b 3d 4f ba 38 3e
       0.05677699 0.16622171 0.06812111 0.18039821
000280 57 6d 7d 3d f6 ef 25 bd 4d 8c de 3c 8c 27 35 be
       0.061871853 -0.040512048 0.02716651 -0.17690867
000290 91 ea 67 bc 9f 11 8d 3d 56 07 9b bc 98 80 14 3d
       -0.014155046 0.068881266 -0.018924396 0.03625545
0002a0 e6 a6 86 bc 4e 1d 33 3d 42 a5 e6 3d bc 5b e3 bd
       -0.016437005 0.04372912 0.11261989 -0.11101481
0002b0 98 69 0e bd b6 e2 2f be 0e 13 31 3e 10 2b 25 be
       -0.03476867 -0.17176327 0.17292425 -0.16129708
0002c0 19 5c 32 be b9 d9 85 bd 9b 80 db 3d 60 ce 74 3c
       -0.17417945 -0.06535668 0.10717889 0.014941782
0002d0 35 59 1d bd 5e 2b 7b 3d d3 63 3e bd 96 ee 19 be
       -0.038415153 0.061320655 -0.04648192 -0.1503242
0002e0 05 ce ad bd 2f cb 45 3e 0a c4 4e bd 4f 67 18 3e
       -0.08486561 0.1931579 -0.050479926 0.14883159
0002f0 a5 f9 df 3d 92 25 3e 3e ef 84 22 3e 77 de 35 3d
       0.10936288 0.1856902 0.15871023 0.044401612
000300 76 71 84 bd d6 48 34 be 38 bb 27 be 82 ba aa bc
       -0.064669535 -0.1760591 -0.16380012 -0.020840887
000310 86 5d e5 bd 13 fa 4b 3d 80 b7 01 3d 4d 96 06 3e
       -0.11199479 0.049799036 0.03166914 0.13143273
000320 95 34 f7 bd 61 54 4a 3b f9 81 55 bd 85 1a 98 3d
       -0.12070576 0.0030873048 -0.052125905 0.07426933
000330 90 3a 14 3e 1c 47 9a 3d 52 1d 3b 3e dd 3f 9d 3d
       0.14475465 0.07533094 0.18272904 0.076781966
000340 13 a0 a0 3c e2 7b 27 bd b1 d0 28 3d 2a 40 0e 3e
       0.01960758 -0.04088963 0.04121465 0.13891664
000350 3e 39 23 be 7e 75 03 be 97 95 d0 3d 44 ed 93 3d
       -0.15939805 -0.12837788 0.10184782 0.07222989
000360 97 c5 15 3d c2 ae 35 be db e8 a2 bd 44 63 3c 3e
       0.03656539 -0.17742446 -0.0795457 0.18397242
000370 e9 b8 10 be 6b 94 a3 3d 0c 68 ff bd 48 62 ce 3d
       -0.14133038 0.07987293 -0.12471017 0.100773394
000380 d0 4d e2 3d 32 aa fe 3d c4 a4 34 3e 88 22 0c be
       0.11049998 0.12434806 0.17640978 -0.13685048
000390 62 75 eb bd 58 8f 2f 3e 5b 11 1a be 83 f8 77 bd
       -0.11496998 0.17144525 -0.15045683 -0.060539734
0003a0 63 ca c7 3d 3d 76 2c bd 6e ba 31 be 61 8c 39 bd
       0.09755399 -0.04210495 -0.17356274 -0.04529989
0003b0 23 36 c7 bd fb 75 8f 3d 9d a2 35 be 06 f2 23 bd
       -0.09727123 0.07004925 -0.17737813 -0.040025733
0003c0 2b c9 4e bd 59 e1 72 bd a9 76 44 be 28 0b e7 3c
       -0.050484817 -0.05929694 -0.1918589 0.028203562
0003d0 a3 f1 9e 3d fc 03 28 bd 6f 56 21 3e b8 0e 11 bd
       0.07760932 -0.041019425 0.15755628 -0.035414428
0003e0 54 50 80 3d 9b 52 3e be d4 af 4a be 8d 1c 89 3d
       0.062653214 -0.18586199 -0.19793636 0.06694899
0003f0 31 6c 55 bd a3 6e 76 bd 2a 1e d8 bd 6f 44 45 3e
       -0.052105132 -0.060164105 -0.10552628 0.19264387

net.2.weight f4 [256, 256]
000000 e2 c0 2e 3d b0 ec f0 bc 36 33 5f 3c 51 0d 59 ba
       0.042664416 -0.029409736 0.0136230495 -0.00082798774
000010 e6 e0 f0 3a d4 50 1e bc 3f 60 f6 3c 79 8a 1a bd
       0.0018377572 -0.009662826 0.03007519 -0.037729714
000020 9b d9 94 bd c3 4c 40 bd 8d 7e 69 bd 2b ae 0d bd
       -0.072680674 -0.046948206 -0.057005454 -0.034589928
000030 86 11 49 3d 7e 43 44 3d 02 4e 0c 3d 8c fa 15 bd
       0.049088977 0.047915928 0.03425408 -0.036615893
000040 03 cc fe 3c 66 79 11 bc f7 0e 2f bd 0a dd 13 bb
       0.03110314 -0.008879041 -0.04273888 -0.002256217
000050 84 33 3e bd 75 7c 1a 3d 2c 94 fd bc 14 83 98 bd
       -0.046435848 0.037716348 -0.030954443 -0.07446876
000060 ec 16 59 3d ad b2 a7 bc ba 67 8c 3d 48 d9 6d bd
       0.053000376 -0.020470941 0.06855722 -0.058068544
000070 2a 37 36 3d 10 99 00 3d 21 1d 3f bd e4 5b 8c 3d
       0.044486202 0.03139597 -0.04665864 0.06853464
000080 89 c0 31 3d f9 c6 e5 b9 2e 7f 35 3d b3 07 7e bd
       0.043396506 -0.0004382653 0.04431074 -0.06201906
000090 8c 3a 81 3d 92 c3 29 bd ba 7e 0e 3c fb 03 54 3d
       0.06309995 -0.041446276 0.008697206 0.05176161
0000a0 6e 40 0b 3c 72 e7 31 bd 70 06 29 3d a4 5a 8e 3d
       0.008499248 -0.043433614 0.041265905 0.06950882
0000b0 92 4d c7 3c e0 6f 5d 3d e0 3a 64 3d 5a 7b 62 bc
       0.02432898 0.05406177 0.05572021 -0.013823355
0000c0 df 89 d1 bc 27 07 bb bc 0a c6 6c bc 97 8d c2 bd
       -0.025578437 -0.022830559 -0.014451513 -0.09499662
0000d0 b7 48 04 bd cd 12 82 bc b9 1a b0 bc a7 65 87 3d
       -0.03229591 -0.015878106 -0.021497117 0.066111855
0000e0 a3 2e fb 3b ca 21 0b bd 9c 1d 51 3d 5e f1 72 3d
       0.0076654716 -0.03396777 0.05105363 0.059312217
0000f0 43 a3 0d bd 44 83 a3 3c 29 91 8d bc fb 8f a1 bc
       -0.034579527 0.019960053 -0.017281132 -0.019721976
000100 05 6f 0c 3d 3f a2 09 3d 40 51 98 bc 0e e0 3f bd
       0.034285564 0.033601996 -0.01859343 -0.046844535
000110 35 8c 4e 3d d6 7c bd bd 39 35 8e 3d c8 d5 20 3d
       0.05042668 -0.09252326 0.06943745 0.039266378
000120 7c be ec bb d8 84 4b 3d 16 56 08 3c d3 45 8c 3c
       -0.007224856 0.049687237 0.008321306 0.017123139
000130 12 1f 50 3d c0 99 c3 3d ff 54 de bb 8f c1 d1 bc
       0.05081088 0.0955081 -0.0067850347 -0.025604991
000140 bf fc 8d bd dd 71 eb 3c c4 ef 8f 3d 2c 38 12 3d
       -0.06932973 0.028740818 0.070281535 0.0356981
000150 07 c0 3c 3d fc 4f 97 bd f2 dd 75 bd bc 70 a1 3c
       0.04608157 -0.07388303 -0.060026117 0.019707076
000160 18 87 26 bc bb fa 10 3d 42 7d d6 3c b8 83 3b 3c
       -0.010164045 0.035395365 0.026182774 0.011444978
000170 bb cf 48 3d aa 86 db 3c f9 09 60 bd d6 9b c3 3b
       0.049026232 0.026797611 -0.05469701 0.005969505
000180 48 73 5c 3d 5c 7e fc bc f4 05 9e bc e5 d2 3b bd
       0.05382088 -0.030821972 -0.019289948 -0.04585542
000190 54 86 f0 bc f4 f7 83 ba 28 21 17 b9 d9 65 89 bc
       -0.029360928 -0.0010068403 -0.00014412834 -0.016772198
0001a0 1e 01 5e bd 0b 32 da 3c 21 c5 d0 3d 05 5f 97 bd
       -0.054200284 0.02663519 0.10193849 -0.073911704
0001b0 03 8b e1 3c a3 57 f5 3c 88 6a 02 bc ea 67 53 3d
       0.027532106 0.029949015 -0.007959969 0.051612772
0001c0 9f 6e 81 3d c6 ec 0f bd 8d 67 bf 3a 14 35 1f 3b
       0.063199274 -0.035137914 0.0014603004 0.0024293112
0001d0 e2 0b 72 bc db 89 44 bc 59 a6 9e 3d 89 2e 8a 3d
       -0.014773341 -0.011995758 0.07746572 0.06747157
0001e0 af 84 62 bd d3 44 a8 3c fd dc c1 3c a5 8e 21 bc
       -0.05530232 0.02054063 0.023664946 -0.009860669
0001f0 49 90 d4 bd b6 23 ff 3b 46 3d 1a bb 35 d1 64 bd
       -0.10379083 0.0077862395 -0.0023535057 -0.055863578
000200 87 ff 9e 3d f6 9a 74 3c 9b 26 9e 3d c8 4a f7 bc
       0.07763582 0.014929524 0.07722207 -0.030187026
000210 e3 04 21 3d ae 77 23 3d a2 ed 49 3c e4 5f 0e bc
       0.0393113 0.039909057 0.0123247225 -0.008689854
000220 69 33 9d 3d 63 25 82 3d 14 9a 18 bd 6c 86 08 3d
       0.07675821 0.06354787 -0.037256315 0.03333132
000230 bf 2c f9 bc c3 5b a3 3b 70 60 ac 3c d5 c9 b6 bd
       -0.030416844 0.004985304 0.021042079 -0.08925215
000240 2b a7 2c bd 18 0b 86 3d e3 d0 13 bd 7d d9 24 3c
       -0.04215161 0.06545085 -0.03608788 0.010061619
000250 bc e1 a1 3d e2 e6 09 bd 3d 54 d2 3b 80 bd b5 3c
       0.079043835 -0.033667453 0.0064187334 0.022185087
000260 bf 6a 2c bc 57 f9 9e 3d bf d1 ac bc 23 83 89 3d
       -0.010523497 0.077624016 -0.021096108 0.067144655
000270 e0 b5 7e bd b5 cb 22 3d a5 47 2f bb 3d 3b 46 bd
       -0.06218517 0.03974505 -0.0026745584 -0.048396338
000280 49 bf 5f bb 18 c6 60 3d 1c c4 39 3c 99 39 0e bd
       -0.0034141114 0.054876417 0.01133826 -0.0347229
000290 e2 db 5f 3d 79 b2 bb bd b3 a6 73 bc ee 8c 76 3c
       0.054653056 -0.091649 -0.014871287 0.015048249
0002a0 84 b7 50 bd 1a 39 79 bc 03 5b 81 3c bb c2 05 bd
       -0.050956264 -0.015211368 0.015790468 -0.032656413
0002b0 7e 5a 10 3d 4e e1 84 bc 42 0a bd bb 8a a1 65 3d
       0.03524255 -0.016220715 -0.005769045 0.05606226
0002c0 b1 a4 0e 3c d5 8f 43 3d 99 22 7c 3c 7a 16 d8 bc
       0.008706258 0.04774459 0.015389108 -0.026377905
0002d0 87 e5 e8 3d 46 de 5d 3d 30 8f 85 bc e2 26 b7 bb
       0.11371904 0.054167055 -0.016303629 -0.005589352
0002e0 43 06 1a 3d 14 8c 75 3d a3 7f 7c bb 30 92 c4 bc
       0.037603628 0.059948042 -0.0038528226 -0.023995489
0002f0 9a 5c 89 bd 5b 63 c2 3b 27 86 99 3d 8d 84 3d bc
       -0.067071155 0.0059322543 0.07496291 -0.011567247
000300 8d 99 3d bc 4e 7e 5e bc 38 5d 1e bc 76 40 ad bb
       -0.011572254 -0.013579918 -0.00966578 -0.0052872254
000310 a3 cc 16 3d 1f 01 96 bd 69 10 6c 3c eb 57 27 bb
       0.03681625 -0.073244326 0.014408209 -0.002553458
000320 17 39 8d bd 58 73 67 bd 6d 61 7f bd 43 db d9 bc
       -0.06895655 -0.056506485 -0.06234877 -0.02659381
000330 6f b9 45 bd 7b 5f 6d bb 01 4b 25 3c ec 46 2f bc
       -0.048272546 -0.003622024 0.010088683 -0.010698061
000340 f3 14 5f 3c 67 95 a7 bd 2e 73 16 3d 33 e2 41 bd
       0.0136158345 -0.08182793 0.036730938 -0.04733486
000350 03 0c 25 3d db b3 18 bd ac 46 08 3d 71 48 f8 bc
       0.04029466 -0.0372809 0.033270523 -0.03030798
000360 45 a6 88 bb 37 53 0b 3d a1 56 b6 bd c5 f5 49 3d
       -0.0041702115 0.034014907 -0.08903242 0.04930665
000370 7c 42 4a 3d e9 d3 81 3d 58 58 2c bd 0d 02 59 3d
       0.04937981 0.06339247 -0.04207644 0.05298047
000380 f1 b8 b4 3b 99 83 0e bd e0 bc 22 bd 53 ff 9d bc
       0.005515211 -0.03479347 -0.039730906 -0.019286787
000390 c2 ac 1b 3d b1 2e 8e 3c 76 b4 57 3b 33 34 12 3d
       0.03800655 0.017356249 0.003291396 0.035694312
0003a0 9f 0c 01 3d 68 98 44 bd 86 dd 49 bd 4e 10 8f 3d
       0.031506177 -0.04799691 -0.049283527 0.06985532
0003b0 98 1b 10 bd b2 69 e7 bb 37 03 3a bb 2a 4e e9 bc
       -0.035182565 -0.0070621604 -0.0028383264 -0.028479654
0003c0 a4 ab 2d bd fc 07 38 3d 06 80 ec 3c e2 fc af bc
       -0.042400017 0.04492949 0.02886964 -0.021482889
0003d0 b1 42 2c bc ed 32 b4 bd de c2 27 bc 40 70 9e bd
       -0.010513947 -0.08798776 -0.010239331 -0.07736254
0003e0 34 e8 98 bd d6 2f 04 bd cb a0 66 ba cf 10 2f 3d
       -0.07466164 -0.032272182 -0.0008797764 0.04274064
0003f0 4f 90 81 bd 03 3d ff bc 67 8f b7 bb f3 df 41 bd
       -0.06326353 -0.031157022 -0.0056018117 -0.047332715

net.2.bias f4 [256]
000000 4e 87 66 bd bf da 2f bd 8b 84 4b bc e5 de 08 bd
       -0.05628138 -0.042933222 -0.012421737 -0.033415694
000010 59 7c 3b bd 16 ca e5 bc a7 ce 4c 3d be e4 29 3d
       -0.045772884 -0.028050464 0.050001767 0.04147791
000020 26 41 e2 3c 67 43 3a 3c f6 9f 6a 3d 18 3b 03 bc
       0.027618956 0.011368609 0.057281457 -0.0080096945
000030 fd ae 78 bd 32 f0 6b bd a0 0c ed bb b7 86 67 3d
       -0.060713757 -0.057602115 -0.007234171 0.05652496
000040 79 88 2b bd 2e ad 08 3c 2a c8 1a bd 5b 27 bb 3c
       -0.041878197 0.0083420705 -0.037788548 0.022845915
000050 4e ba 61 3d 71 f7 43 bd fa 0c 2e 3d ea d8 37 bc
       0.055109315 -0.0478434 0.042492844 -0.01122115
000060 ed 06 ba 3c e0 84 b9 3c 00 b4 d9 bc fd 34 97 3c
       0.02270838 0.022646368 -0.026575089 0.018457884
000070 ee 80 1e 3d 92 0e ab 3c 65 66 34 3d 17 5c 28 3d
       0.038697176 0.020880971 0.044042964 0.04110345
000080 84 86 6e 3d ab 49 62 3c 08 6c c3 3c fe 59 f2 3c
       0.058233753 0.013811509 0.023855224 0.029583927
000090 25 21 8c bd 20 57 1d 3b 77 4f 33 3c 65 75 1a 3d
       -0.06842259 0.002400823 0.010944239 0.037709612
0000a0 da 01 73 bb 17 55 7a bd 64 a1 25 3d 28 29 09 bd
       -0.003707996 -0.061116304 0.040437117 -0.033486515
0000b0 45 50 0e 3d 87 8f 02 3d 7d 30 64 3d ab e3 81 3d
       0.03474452 0.03187516 0.055710305 0.06342252
0000c0 2a 97 ba 3c 20 b9 59 bd 64 64 47 3c 3a ea ef 3c
       0.022777159 -0.053155065 0.012169931 0.029286493
0000d0 86 65 d8 3c 86 70 da 3c 48 0d e2 bc f1 b3 25 3c
       0.026415598 0.026664983 -0.027594224 0.010113702
0000e0 34 dc 79 3c 54 01 e8 bc ad 1a af 3c ac 67 24 3d
       0.015250254 -0.028320946 0.021375025 0.04013793
0000f0 74 b1 11 3d 73 2a 11 bd 92 98 05 3d 3b 1b ef bc
       0.035569623 -0.035440873 0.032616206 -0.02918779
000100 4a 07 bb bc 40 ba 09 bd 64 e4 5b 3c 88 95 ae 3b
       -0.022830624 -0.033624887 0.013421152 0.005327884
000110 ff ed 28 3b c4 60 57 bc 8a 39 22 bd ad d4 cc 3b
       0.0025776622 -0.013145629 -0.039605655 0.006250939
000120 40 6a 95 3c ef 21 79 bd 15 4f 4f bd 2a 29 25 bd
       0.01823914 -0.060823377 -0.050612528 -0.04032246
000130 a8 0b 88 3c 46 3d 51 3d 46 a3 43 3d 35 53 60 3d
       0.01660712 0.051083826 0.04776313 0.054766852
000140 be df 10 bd 79 2f df bc 65 8e 19 3c a7 f0 0a ba
       -0.035369627 -0.027244316 0.009372328 -0.0005300142
000150 55 76 42 bd 34 e9 06 3c 28 13 62 bd af 3b 57 3c
       -0.04747613 0.008234311 -0.05519405 0.013136788
000160 21 fb 5a bd 77 e1 68 3d 89 70 44 3d 37 5e ec 3c
       -0.05346215 0.056855645 0.047958884 0.028853519
000170 7f 58 4c bd 00 19 87 bd 49 5b 90 bc 34 b2 72 3d
       -0.049889084 -0.06596565 -0.017621653 0.05925198
000180 e6 8d 6b 3d 3d e8 71 bd 32 cd dc bc c7 69 f7 bc
       0.05750837 -0.05905937 -0.026953313 -0.030201806
000190 67 ef 1d bd 26 3c 41 3d 7c a6 90 ba 92 ef 47 3d
       -0.03855839 0.047176503 -0.0011035944 0.048812456
0001a0 d5 e3 56 3d bb 20 51 bc e6 d0 5f bd 7a 09 9c 3c
       0.05246337 -0.012764151 -0.05464258 0.019047488
0001b0 9d ba 9a 3d 13 e7 f1 3c 30 8c 21 bd 42 5f 54 3d
       0.07555125 0.02952913 -0.039440334 0.051848657
0001c0 68 7b bd 3b 00 46 ce bc ca 81 4e bd 0a 76 3f 3d
       0.0057825334 -0.025179863 -0.050416745 0.04674343
0001d0 65 41 48 bd 3b 24 53 3a 39 3e 1a 3d 0c c7 42 bd
       -0.04889049 0.000805441 0.037656996 -0.047553107
0001e0 08 e2 21 3d 56 62 ce 3b 3e 3d 3b bd d7 ba 67 bd
       0.0395222 0.0062983437 -0.045712702 -0.05657467
0001f0 5b a3 86 3d 8d 4e 14 bd eb 31 1d bd 5e 95 24 3d
       0.06574126 -0.036207724 -0.038377684 0.04018151
000200 32 32 18 3d 63 30 54 3d f2 cf 1a 3d a6 0b 11 bd
       0.037157245 0.051803958 0.03779597 -0.0354115
000210 e7 e5 17 3c c6 ae 44 bd ce 16 82 3d 8b 13 cf bc
       0.009271122 -0.04801824 0.06352006 -0.025277874
000220 d4 dd c5 3c 6b 13 18 bd 4e fb d7 bb f0 8a 14 3d
       0.024153627 -0.037127893 -0.006591237 0.036265314
000230 6c d5 92 bc 6f c1 59 3c ef 2a e2 3c 4f 1a 5b bd
       -0.017924033 0.013290747 0.027608363 -0.053491887
000240 06 49 0c 3b e7 5e 19 bd 41 e5 a7 bb 37 3a 5d 3c
       0.002140583 -0.03744402 -0.0051237647 0.013502649
000250 b7 de 55 bd dc 7e c6 3c 50 09 1e bd 61 2b 85 bc
       -0.05221435 0.024230413 -0.0385831 -0.016256036
000260 33 7a 2a 3d b5 fe 4b 3d 07 bb 04 3d 8c 86 1d 3c
       0.041620445 0.049803454 0.032404926 0.009614598
000270 c2 54 2a 3d 9d f0 a6 3c 7f 61 10 bc 88 e7 3e 3d
       0.041584738 0.020378405 -0.008812307 0.046607524
000280 1d b1 19 3d c8 6d 28 3c 01 89 89 bc 4b 34 7e 3d
       0.037522424 0.01028008 -0.016788961 0.06206159
000290 27 cf be bc 1c 3c 83 3b 1e 2c 05 3d 81 23 0b bc
       -0.023292137 0.0040049683 0.032512777 -0.0084923515
0002a0 b3 ea 02 bd a6 a1 31 bb fe a7 32 bd 5b 03 21 3d
       -0.031962108 -0.0027104407 -0.04361724 0.03930984
0002b0 8b 67 11 bb b6 f1 51 bd 21 b1 f2 bc d3 26 4f bd
       -0.002218696 -0.051255904 -0.029625477 -0.050574135
0002c0 60 6f 06 bc 3d fa 37 3d b7 c5 ae bc 17 31 7c bd
       -0.008205265 0.04491638 -0.021334512 -0.061570253
0002d0 e8 67 cf 3c 92 6d 6c bc 1c b7 16 ba b3 f9 13 bd
       0.025318101 -0.0144304205 -0.00057493313 -0.036126804
0002e0 b4 56 2b 3d 14 6b 28 3d 16 ad 4f bd dd 9e ce 3b
       0.041830733 0.041117743 -0.050702177 0.006305559
0002f0 57 f7 b8 3a 6c 5c 77 38 0b b5 65 bb 3b c8 1e 3d
       0.0014111799 5.8975464e-05 -0.0035050537 0.038765173
000300 e6 4f ec bc 81 f0 d5 bc d9 c2 1c 3c 13 7a a8 bb
       -0.028846692 -0.026115658 0.00956794 -0.0051415055
000310 f8 b2 fe 3c da 0a 6c 3d 20 9f ce bc 8a 7c f3 bc
       0.031091198 0.057627536 -0.025222361 -0.02972247
000320 d8 9f f7 3c 21 5f 78 3d 54 92 dd 3b 97 2c 0a 3d
       0.030227587 0.060637597 0.0067618284 0.03373393
000330 c7 07 54 3d b1 e5 51 3c 49 8a a2 bc e3 32 6b 3d
       0.05176523 0.01281111 -0.01984133 0.057421576
000340 88 57 4e bc 79 b5 13 bd 8a c2 64 bd 59 99 33 3c
       -0.012594111 -0.036061738 -0.05584959 0.010961854
000350 c9 0e 9e bb 80 98 b7 3c 4c a8 27 3c 6a 91 cc 3c
       -0.00482354 0.022411585 0.010232996 0.024971683
000360 95 60 38 3d e5 93 20 bd 36 3a 95 bc 6b 95 3a 3c
       0.045013983 -0.039203543 -0.018216234 0.011388163
000370 82 9a 16 bd a7 5f 24 3d 60 9b ac bb 3f ef 25 3c
       -0.036768444 0.040130284 -0.0052675456 0.0101278415
000380 fb 25 32 3d 2b c9 f2 3b 9b 59 c4 3c dc e5 17 3d
       0.043493252 0.007409235 0.023968508 0.037084445
000390 8e 14 c5 3c 19 7e 66 bc 91 08 e2 3c 49 ed 64 bd
       0.024057653 -0.01406815 0.027591975 -0.055890355
0003a0 a4 5b c6 3b 6f b7 70 3d 06 4b b2 3c fa 30 83 bc
       0.006053405 0.058768686 0.02176429 -0.016014565
0003b0 74 3c 5a 3d fe 42 60 3d a6 e5 fe bc a2 95 89 3b
       0.05328031 0.05475139 -0.031115364 0.004198746
0003c0 e4 28 74 bd d1 ff 0b 3d 42 8d 49 bd 7d 44 48 bd
       -0.05960931 0.034179512 -0.04920698 -0.04889344
0003d0 bf bd e3 3c 88 c8 86 3c a1 a9 e2 bc be 96 3c bd
       0.027800439 0.016453043 -0.027668776 -0.046042196
0003e0 91 67 ed 3c 92 24 70 bd c1 f0 39 3d ad 36 9e 3b
       0.028980048 -0.058628626 0.045395616 0.004828295
0003f0 d6 3e fd bc 24 01 f0 bc 5d fe 26 bd 00 ac 43 bc
       -0.030913752 -0.029297419 -0.040769923 -0.011942863

net.4.weight f4 [19, 256]
000000 04 8e fc bc ff 4a f8 bc c9 07 45 bc 99 85 65 3d
       -0.030829437 -0.030309198 -0.012025782 0.05603561
000010 e2 64 c2 3c 74 04 06 3d 31 15 67 3a 8e 2d a4 bc
       0.023729745 0.03271909 0.00088151084 -0.020041253
000020 fd 89 d0 bb 93 11 84 bd 67 a3 5e 3c 29 80 be bc
       -0.0063641057 -0.064486645 0.013588763 -0.02325447
000030 fd 43 fa 3c 63 4f 87 3d 6b f6 38 bd 11 81 10 bd
       0.030549997 0.06606939 -0.045156877 -0.035279337
000040 c8 1b 55 3d ab a8 80 3b b0 28 fb 3c 9a 30 18 3d
       0.052028447 0.003926357 0.03065905 0.037155725
000050 00 6b 6d bc eb b3 4f 3c 96 01 01 bd 62 48 f8 bc
       -0.014490843 0.012677173 -0.031495653 -0.030307952
000060 b8 ba 99 bd 2c d8 77 3d 74 f8 04 bd 2b 68 ca bc
       -0.07506317 0.060508892 -0.032463506 -0.024707874
000070 94 d1 83 bc e4 fb 2b 3d 9a 44 fe 3b b8 34 b3 bc
       -0.016091146 0.04198827 0.007759643 -0.021875724
000080 71 aa 42 ba 6b 0f a9 3c aa 4d 39 3d ea d8 9c bc
       -0.00074259104 0.020637235 0.04524008 -0.019146401
000090 b0 41 43 3c 4a dc 11 3d 4a 19 14 3d d9 7f 4c bd
       0.011917517 0.035610475 0.03615693 -0.049926613
0000a0 44 b5 e0 3c 54 da 74 bc d4 18 8c bc d1 7e ba 3c
       0.027430184 -0.014944632 -0.017101683 0.022765549
0000b0 32 0e 41 3d 4e 72 92 bd 30 59 b7 3c 07 3b 03 bd
       0.04713268 -0.07150708 0.022381395 -0.032038715
0000c0 2d f4 85 bb 66 98 60 bd f8 da b8 bc 0c eb 63 3d
       -0.004087946 -0.05483284 -0.02256535 0.05564408
0000d0 7e 5c ae bb cd 4b 5b bc 1a 75 aa 3c f4 57 b3 bc
       -0.0053210845 -0.0133847715 0.020807792 -0.021892525
0000e0 3c 60 54 bd 71 bc 35 3d 06 9c b5 3c 1e ac 70 bc
       -0.05184959 0.044369165 0.022169124 -0.014689473
0000f0 66 d3 62 bd a0 7a 1e bd bc 34 1d bd 99 37 53 bb
       -0.055377387 -0.038691163 -0.03838037 -0.0032229184
000100 bd d0 12 3c 87 67 b8 bb b2 51 43 3d 45 06 26 bd
       0.0089609 -0.005627576 0.047685333 -0.040533323
000110 48 0e 3c 3c a6 bc ed 3b 72 73 e9 bc ac 6d 79 3b
       0.011478014 0.0072551547 -0.028497431 0.0038059754
000120 6d fa a0 3c eb bd 75 3d 26 dd 49 3d a9 3e 4f bd
       0.019650662 0.059995573 0.04928317 -0.050596867
000130 25 3c 66 3d aa b5 02 bd 90 7b 90 39 23 5e bd bc
       0.056209702 -0.03191153 0.00027557882 -0.023116177
000140 bf 66 82 bc f1 22 16 bd c1 02 e8 3b 06 e0 1f bd
       -0.015918134 -0.036654416 0.0070804064 -0.039032005
000150 ae cb b5 bd cb 7e f5 3c 6e d5 eb 3b a6 ce 1e bc
       -0.088767394 0.029967686 0.0071970737 -0.0096928235
000160 06 d6 a0 3b ec 0b 87 3c df 45 07 bd b1 9d 45 bb
       0.004908326 0.016485177 -0.03302562 -0.0030153806
000170 c3 b1 72 3c a7 ad bd 3b 9c dc 29 3d 57 ef 2a 3d
       0.0148128895 0.0057885232 0.041470155 0.04173216
000180 46 2a 17 bd da ec 15 3d df 2c df bb 6e a4 21 3d
       -0.03690555 0.036602832 -0.006810769 0.039463453
000190 44 02 14 bd c0 7f 4a 3d 62 f5 37 bb a3 37 29 bc
       -0.036134973 0.04943824 -0.0028069844 -0.010328206
0001a0 cf 59 ae 3c b8 14 56 3c 87 1a d6 bc bc 6e 4a 3b
       0.021283058 0.013066463 -0.026135696 0.0030888757
0001b0 26 c2 73 3c 8b a2 81 bd 20 47 2f bc 6b 63 59 bd
       0.014877832 -0.06329831 -0.01069811 -0.053073328
0001c0 26 c9 50 3d b2 d3 03 3c 05 30 89 bd a4 49 e3 3c
       0.05097308 0.008046078 -0.06698612 0.027745076
0001d0 fd 66 c6 3c 93 22 ab bd 26 38 54 3c 54 71 3e 3d
       0.02421903 -0.08356204 0.01295284 0.046494797
0001e0 2d 84 7b bd 3f a4 31 bc 05 dd da 3b 6b 21 79 bc
       -0.06140535 -0.010842382 0.0066791796 -0.015205721
0001f0 b3 47 5c bb 6d 28 42 bc 99 3c 6e bd 07 c0 4a 3c
       -0.0033612072 -0.011850459 -0.05816326 0.012374884
000200 23 c2 19 bd 97 08 2e 3d 87 ab ab 3b 3b 37 5f 3d
       -0.03753866 0.04248866 0.0052389535 0.05449603
000210 34 45 97 3c 51 d8 bb bc 27 77 ce bc 33 99 57 3d
       0.018465616 -0.022930296 -0.0252033 0.052636337
000220 5e e3 9c 3c 32 d3 1b 3d 76 3d 6b bc 7b c3 ab bd
       0.019151386 0.03804321 -0.014357915 -0.08386894
000230 f4 c2 95 3d f6 85 e3 3c a6 19 a8 3c a0 2f b7 3b
       0.07312575 0.027773838 0.020520043 0.005590394
000240 a9 f0 16 3d 7e b6 00 bd b5 22 06 3d 6f af 49 bb
       0.036850605 -0.031424038 0.032747943 -0.0030774733
000250 3c 1f cb 3b 66 86 a5 3b ba 3b be 3c 60 4c 1c 3d
       0.006198792 0.005051422 0.02322184 0.038158774
000260 37 32 1b bd 78 04 1e bc c1 b1 30 3c f3 a8 a6 3c
       -0.037889685 -0.00964462 0.010784567 0.020344233
000270 54 33 2f bd d3 07 61 bd 64 93 25 bd 5b 37 c0 3b
       -0.04277356 -0.054939102 -0.040423766 0.005865974
000280 4b d6 ec bc 5e 8b 58 3d 33 ad 4e bd 1f d4 a7 bc
       -0.028910777 0.052867286 -0.050458144 -0.02048689
000290 43 eb a8 3d fc 69 45 3d fb 86 db bb 9a 2a d9 ba
       0.082479976 0.048196778 -0.0066994405 -0.0016568482
0002a0 02 4f 3c bd 82 03 41 3c a2 de ae bc 10 90 62 bd
       -0.045973785 0.0117806215 -0.021346394 -0.05531317
0002b0 52 f5 e9 3c b0 3c 16 bd 68 86 44 3d 6b 71 9a bc
       0.02855936 -0.03667897 0.047979742 -0.01885291
0002c0 13 29 85 3c 68 b9 3e bd 1c dc 6d 3d db 24 ef 3c
       0.016254937 -0.046563536 0.05807124 0.029192379
0002d0 f8 a8 ea ba 7b 99 56 3d ac cc 5a bc bb 3b 95 3d
       -0.001790314 0.052392464 -0.013354462 0.07286783
0002e0 d4 23 ca 3c c5 47 4e 3d 86 a3 48 bc ee a3 8e 3d
       0.024675287 0.050361414 -0.012246018 0.06964861
0002f0 30 e7 37 3d 2a 56 b9 3c 52 3a 50 bd ff f1 f2 bc
       0.044898212 0.022624094 -0.05083687 -0.029656408
000300 f4 40 2b bd 91 cd e7 3c 24 13 59 3c d4 14 f4 bb
       -0.04180999 0.028296264 0.013249192 -0.007448772
000310 97 79 76 3d 1d 5b 73 3c b8 95 74 bd 7c 97 14 bd
       0.06017455 0.014853266 -0.059713095 -0.03627728
000320 d3 bd 68 bd ba 52 90 3c d7 e4 74 3d 83 0c 05 bd
       -0.056821655 0.017617572 0.05978855 -0.032482635
000330 16 11 25 3c 0a 38 67 bc 0c 48 d9 bc 04 66 cf 3c
       0.010074874 -0.014112482 -0.026523612 0.0253172
000340 75 4d 49 3d 47 92 8e 3c 7c 97 15 3d 04 d2 b2 bb
       0.049146134 0.017403735 0.03652142 -0.0054571647
000350 28 b7 20 3d f5 5e b3 3c a9 3b 28 bc 7c c7 0e 3d
       0.03923717 0.021895865 -0.01026813 0.034858212
000360 52 ba f3 bc 35 60 30 3d 6d 39 69 3d bb 8e b5 bc
       -0.02975193 0.0430605 0.05693953 -0.022162786
000370 21 00 7f bd 03 92 33 bd 8a 94 90 3c d2 ad 25 3d
       -0.062255982 -0.04384042 0.017648954 0.04044897
000380 30 a6 33 3d b6 ba be 3c 27 9e 40 3a f3 23 68 bd
       0.04385966 0.02328239 0.0007347785 -0.05667491
000390 1b c7 68 bd 17 7f 97 bb 3f 0b 2e 3d dc 23 1e bd
       -0.056830507 -0.0046233046 0.042491194 -0.038608417
0003a0 5e 2c 18 3d ad 3c b6 bb 52 33 18 bd 63 f6 a5 ba
       0.037151687 -0.0055614323 -0.037158318 -0.001266193
0003b0 e8 98 0f 3d 59 f3 a0 3b ce 02 78 3d db 00 09 3c
       0.035057932 0.004911822 0.06054955 0.00836202
0003c0 52 2b 83 bc 12 01 02 3d 6e ac bd 3c 1b be 1d bd
       -0.016011868 0.031739302 0.02315351 -0.038511377
0003d0 76 0e 43 3d fc 4d 76 bb 63 8a a0 bc dd a9 14 bc
       0.047621213 -0.0037583103 -0.019597238 -0.009073702
0003e0 0f 6b 98 3c da d9 fe 3b bf 25 fa 3c 99 d4 11 3d
       0.018605737 0.007777435 0.030535577 0.03560314
0003f0 33 2e 2f 3d 29 77 74 bc c5 1d 86 3a 02 51 ab 3c
       0.04276867 -0.014920988 0.0010232261 0.020912651

net.4.bias f4 [19]
000000 5c 78 31 3a 77 14 58 3c 74 ae 5e 3c 2c e3 92 bc
       0.0006769949 0.013188473 0.013591398 -0.01793059
000010 46 01 8a bb f5 0b 58 3d 81 9e 05 3d 7b 6b 65 3b
       -0.0042115776 0.052745778 0.032621864 0.003500669
000020 74 d8 52 3d ef 6f 2c bd bd 63 b4 3b 3f 9e d7 bb
       0.051475957 -0.042098936 0.005505054 -0.0065801437
000030 65 55 91 3d 13 2f 96 bc 3d 82 14 bb bf 38 75 bc
       0.07096366 -0.018332994 -0.0022660636 -0.014967143
000040 67 4d 49 bd e5 59 5b 3d e3 2d 1d bd
       -0.049146082 0.053552527 -0.03837384
