AM_RL/Planner/model/pretraining_planner.pth (torch, 309056 bytes, 6 tensors)

mu.0.weight f4 [256, 22]
0.0049560233 -0.035648633 -0.005977019 -0.10410573 0.21241581 0.16571015 -0.020901583 0.1853515
0.08756822 -0.02934047 0.18948549 0.20021077 0.029966045 0.15941761 -0.13899574 0.13000937
-0.15261744 0.049961537 -0.009996503 -0.09476436 -0.10622276 0.17051211 -0.21518831 -0.18588498
0.22624302 0.10550934 0.026998587 -0.041370884 0.07625294 -0.2086984 -0.25179234 -0.22363153
-0.18902592 0.009111728 0.087851316 -0.11401572 -0.10011573 0.21082348 0.13830875 0.036880545
-0.1459635 0.027349409 0.03566336 0.0011615991 0.1968372 -0.15370607 -0.12415031 -0.012184805
-0.1852103 0.2829485 0.030249067 0.4484807 -0.10366084 0.033000357 -0.27542266 -0.24971841
-0.14366002 0.03779137 -0.12447434 0.22298412 0.122217745 0.05323891 0.11628408 -0.16847394
0.0067321276 0.080546066 -0.09373704 0.10698969 -0.15016004 -0.16040607 -0.14774665 -0.0812369
0.16511558 0.013766727 0.17215113 0.056210324 -0.15636781 -0.0981045 0.044432826 0.12397358
-0.15009502 -0.20902286 -0.115601115 -0.21080902 0.07902109 0.09231423 -0.046272933 0.14002167
-0.12901582 -0.13860065 0.0669221 -0.076281875 -0.26225856 0.16489968 -0.080664754 -0.054150384
0.06580861 0.22674905 -0.0186948 0.081446916 -0.11901608 -0.04431092 0.07665593 -0.091107465
0.13210751 0.118021786 0.08956812 0.11531515 -0.077190496 -0.18298587 0.04832503 0.14411743
-0.1524322 0.20392215 -0.11479843 0.05608388 0.10939001 -0.19114889 -0.16498283 -0.20306982
0.1584914 0.12475107 -0.0048824265 0.0010934391 0.17124519 0.19375263 0.19571938 -0.02000084
-0.0009838712 -0.16620173 0.14043811 -0.12239115 0.17604303 -0.0646725 -0.054247864 0.09957234
-0.24024116 0.16968055 -0.013347921 -0.061269127 -0.023249408 0.22613601 0.14687724 0.21567756
-0.22163063 -0.12896718 0.12299422 -0.04707136 -0.15090123 -0.14867786 -0.033974107 -0.13160838
-0.1813546 0.08558849 -0.10483866 0.14685138 -0.051080525 -0.010862064 0.12068804 -0.0035387732
-0.09971527 0.046240374 -0.069187984 -0.053985514 -0.1666839 0.11890359 0.13790692 -0.0430265
0.08341271 0.08557717 0.007109373 -0.0736157 -0.037026238 -0.17079167 -0.0912243 -0.048948545
-0.104141824 -0.20339327 -0.028991606 -0.035224095 0.2638196 -0.25131682 -0.044277918 0.047622383
-0.0058424408 -0.07900748 0.15291347 0.10986664 0.019638356 -0.0016200561 -0.04463317 0.17278045
-0.062133033 0.17486598 -0.067104466 0.060956087 -0.050944556 -0.06332281 0.12698697 -0.068424284
0.046149917 -0.06454988 0.021952776 0.125078 0.078605875 -0.06173913 -0.053343162 -0.17395629
-0.060600627 0.06716751 -0.09940545 0.052056856 0.0873403 0.13969396 -0.21855332 0.06723587
-0.20423873 -0.005727594 -0.079719774 0.118720345 0.03812843 0.21121663 0.117713235 -0.11642194
0.028335655 0.1403264 -0.038130548 0.29266024 -0.23404326 -0.18866184 -0.22564311 0.18981917
-0.11183503 0.023303898 -0.087220065 0.094862804 -0.11843377 0.058559015 -0.18367563 0.080145136
-0.10765183 0.002791475 0.19444743 0.20042227 -0.16665997 -0.11848035 0.1717959 -0.03955217
0.15491499 0.29029155 -0.065048076 0.053966712 -0.06208147 0.06438881 -0.1920639 0.0069350926
00000000: 2366 a23b 4d04 12bd dfda c3bb 6335 d5bd
00000010: 8883 593e ecaf 293e cc39 abbc c9cc 3d3e
00000020: f856 b33d 6d5b f0bc 7c08 423e 0d04 4d3e
00000030: 5a7b f53c 5f3e 233e e654 0ebe 2d21 053e
00000040: bf47 1cbe 78a4 4c3d 5fc8 23bc d113 c2bd
00000050: 528b d9bd ba9a 2e3e 535a 5cbe a258 3ebe
00000060: 40ac 673e 4815 d83d 242c dd3c 8474 29bd
00000070: 802a 9c3d 09b5 55be edea 80be aaff 64be
00000080: 0390 41be 5b49 153c 64eb b33d 1381 e9bd
00000090: 7a09 cdbd 1ce2 573e cfa0 0d3e 0e10 173d
000000a0: 7577 15be de0b e03c be13 123d cc40 983a
000000b0: b18f 493e 2065 1dbe 8542 febd c7a2 47bc
000000c0: c5a7 3dbe a0de 903e e4cc f73c 439f e53e
000000d0: 224c d4bd 622b 073d 3304 8dbe 2fb6 7fbe
000000e0: 9d1b 13be 20cb 1a3d 67ec febd f355 643e
000000f0: 4c4d fa3d 0b11 5a3d 5926 ee3d 6f84 2cbe
00000100: 2e99 dc3b 56f5 a43d 35f9 bfbd 691d db3d
00000110: 8ec3 19be 7d41 24be e64a 17be 885f a6bd
00000120: 0f14 293e d78d 613c 6348 303e cc3c 663d
00000130: e21e 20be 03eb c8bd 32ff 353d dce5 fd3d
00000140: 82b2 19be 170a 56be 47c0 ecbd 52de 57be
00000150: cfd5 a13d 3e0f bd3d b088 3dbd d761 0f3e
00000160: b91c 04be 54ed 0dbe 740e 893d ac39 9cbd
00000170: c146 86be 76db 283e 9033 a5bd cbcc 5dbd
00000180: aac6 863d e730 683e d625 99bc a4cd a63d
00000190: b4be f3bd 5e7f 35bd c9fd 9c3d 8d96 babd
000001a0: 3147 073e 68b5 f13d 7e6f b73d 592a ec3d
000001b0: 0d16 9ebd a660 3bbe 77f0 453d 8593 133e
000001c0: 3017 1cbe f8d0 503e 701b ebbd 36b8 653d
000001d0: df07 e03d 89bc 43be 42f1 28be 89f1 4fbe
000001e0: 924b 223e 7d7d ff3d c3fc 9fbb ba51 8f3a
000001f0: e65a 2f3e 1767 463e a96a 483e cdd8 a3bc
00000200: 3df5 80ba c930 2abe 02cf 0f3e 36a8 fabd
00000210: a044 343e 0473 84bd 0233 5ebd 95ec cb3d
00000220: c701 76be bdc0 2d3e 3db1 5abc 56f5 7abd
00000230: 8b75 bebc 3390 673e fd66 163e 94da 5c3e
00000240: 24f3 62be f90f 04be 65e4 fb3d e6cd 40bd
00000250: da85 1abe 023f 18be 6f28 0bbd 59c4 06be
00000260: 05b5 39be 0549 af3d a7b5 d6bd 3560 163e
00000270: d039 51bd ccf6 31bc 4b2b f73d c3ea 67bb
00000280: 8537 ccbd 8c66 3d3d 6eb2 8dbd ea1f 5dbd
00000290: 2faf 2abe ba83 f33d 7937 0d3e 8e3c 30bd
000002a0: 48d4 aa3d 1543 af3d bef5 e83b d4c3 96bd
000002b0: d3a8 17bd 03e4 2ebe ced3 babd 457e 48bd
000002c0: 4f48 d5bd 5346 50be ce7f edbc 2447 10bd
000002d0: 5d13 873e 99ac 80be c35c 35bd b00f 433d
000002e0: f271 bfbb acce a1bd 5995 1c3e c301 e13d
000002f0: 9ee0 a03c 1058 d4ba 45d1 36bd 5ced 303e
00000300: 357f 7ebd 1110 333e 116e 89bd 17ad 793d
00000310: 3dab 50bd 64af 81bd df08 023e 0822 8cbd
00000320: b207 3d3d ba32 84bd 4fd6 b33c 7214 003e
00000330: 1efc a03d 2ce2 7cbd 5c7e 5abd 9921 32be
00000340: 5d38 78bd 1f8f 893d 1695 cbbd 9239 553d
00000350: 79df b23d ef0b 0f3e 71cc 5fbe f6b2 893d
00000360: f523 51be 8aae bbbb 1f44 a3bd a723 f33d
00000370: 8e2c 1c3d 2c49 583e a313 f13d a06e eebd
00000380: 2d20 e83c b9b1 0f3e c72e 1cbd 90d7 953e
00000390: 09a9 6fbe 9230 41be fd0e 67be f55f 423e
000003a0: c409 e5bd d1e7 be3c 6fa0 b2bd 6e47 c23d
000003b0: 688d f2bd 94db 6f3d 7715 3cbe 2223 a43d
000003c0: 9078 dcbd 2ef1 363b 3a1d 473e 7f3b 4d3e
000003d0: e9a8 2abe d3a5 f2bd 44eb 2f3e 7501 22bd
000003e0: 09a2 1e3e 18a1 943e ed37 85bd 330c 5d3d
000003f0: 2449 7ebd 48de 833d 66ac 44be c63f e33b

mu.0.bias f4 [256]
0.048066005 -0.08092171 0.17239721 0.053328212 -0.0047150147 -0.1750466 0.010250268 -0.066786535
-0.07779095 -0.0063419016 -0.0009194232 0.12678355 -0.14649169 0.012503291 -0.020480942 0.060135197
-0.062204592 -0.050856136 -0.1103297 0.06565993 -0.07872347 0.14742559 0.15651977 -0.06974572
0.03850955 -0.078877725 0.036277123 0.017114095 0.028145347 -0.15768795 -0.017727183 0.17409001
-0.088471144 0.008192355 -0.06352007 0.12219069 0.049744736 -0.16551544 -0.14346601 -0.08078986
-0.009554724 0.10214182 0.06731609 0.16306013 0.044425443 0.13190107 0.16464493 0.11662933
-0.11944523 -0.032931834 0.04291049 0.18378623 -0.09966425 0.1545528 0.018202381 -0.1608062
0.12713847 -0.029693471 -0.111937895 -0.19239165 0.030677617 0.050903004 0.010811725 -0.023503166
0.06721807 0.16375186 -0.085128464 0.018007241 -0.043641042 0.14101781 0.06889344 -0.16835253
0.028719818 0.1930549 0.15554647 -0.19439368 0.04012136 0.08719405 0.16731288 -0.15079117
-0.084964946 -0.0064775967 -0.050555144 0.17663051 0.10260312 0.060500283 0.06709481 0.107381
0.039569445 -0.060952693 0.19077422 -0.16637482 0.04987 0.014121034 0.16649546 0.01339686
-0.124250785 0.11398258 0.040302083 -0.174296 0.04392542 -0.16758287 -0.084240116 0.059125904
-0.117520615 0.13284543 0.097363845 -0.052836463 0.09720653 -0.09495606 0.16300562 0.094013184
0.1449339 -0.120347135 0.037051685 0.17910802 0.110364765 -0.085023955 0.14524537 -0.101489685
-0.12258268 -0.18243884 -0.061476372 -0.18249172 -0.14018941 0.09238987 -0.07302821 0.14447254
0.1069241 0.18657075 0.093939334 -0.05622839 -0.1881658 0.1996988 0.03558296 0.021543533
-0.13014756 0.036728706 0.011938123 -0.07563694 0.05347357 0.1695937 0.13233738 -0.02492184
0.026957367 0.08308345 -0.092659615 -0.027753225 -0.13003372 0.106762566 0.079276636 0.16648398
-0.1413005 -0.03141413 -0.11635918 0.18250048 -0.1655939 0.12482485 0.077137746 0.06493403
-0.011588501 -0.013551002 -0.17703424 0.16698201 0.08961528 0.08779419 0.18579026 -0.08507871
-0.10168465 0.13563792 0.06491351 -0.022818597 0.17961283 -0.0650814 -0.0063429805 0.114847995
0.16881119 0.107289486 -0.117515326 -0.069797285 0.09476295 -0.13370447 -0.14364974 -0.14916073
0.15765712 -0.10647462 -0.031459544 0.0012747736 -0.077620775 -0.123696364 0.0047445456 0.08044346
0.043064404 0.11246434 -0.094745226 0.008176117 0.05908474 0.1116803 0.07211442 -0.17970031
-0.154058 -0.103933975 -0.17088611 -0.17904815 0.102991045 -0.064746544 0.19710405 0.11319955
0.11205008 0.077625744 -0.0067268824 -0.19034606 -0.056687173 0.14716257 -0.007348934 -0.061118815
0.17430253 -0.19703506 0.18361579 -0.10470439 -0.021200364 -0.16139098 -0.054312304 -0.06751465
0.13043913 -0.069764644 0.017162597 -0.19642834 0.16979025 -0.1866279 0.013669131 -0.11258923
0.09453931 0.1579257 -0.0302574 -0.10721483 -0.18570799 -0.13849401 -0.13713019 -0.09807479
0.115369886 0.059463743 0.0626588 0.060037255 0.00222439 -0.027801802 0.093365215 -0.034639563
0.106744505 -0.14171886 0.12676841 0.08237937 0.15210643 -0.0028389518 -0.010330235 0.17732261
00000000: dce0 443d 48ba a5bd e588 303e af6e 5a3d
00000010: 6980 9abb 6a3f 33be bdf0 273c 61c7 88bd
00000020: dd50 9fbd bacf cfbb 7205 71ba 8cd3 013e
00000030: eb01 16be 9ada 4c3c a6c7 a7bc 5350 763d
00000040: 3eca 7ebd 864e 50bd 8af4 e1bd b778 863d
00000050: c539 a1bd bcf6 163e b846 203e d8d6 8ebd
00000060: 31bc 1d3d a58a a1bd 5297 143d dc32 8c3c
00000070: 1291 e63c f378 21be 9938 91bc a744 323e
00000080: 5c30 b5bd 3a39 063c cf16 82bd 1d3f fa3d
00000090: 23c1 4b3d e17c 29be c1e8 12be 2775 a5bd
000000a0: 6b8b 1cbc bb2f d13d 05dd 893d 3cf9 263e
000000b0: 74f7 353d 1311 073e ae98 283e 5cdb ee3d
000000c0: b39f f4bd 88e3 06bd e9c2 2f3d 7532 3c3e
000000d0: c51c ccbd 1743 1e3e 291d 953c 61aa 24be
000000e0: 9630 023e b93f f3bc b23f e5bd 5102 45be
000000f0: a04f fb3c ab7f 503d a923 313c b689 c0bc
00000100: a1a9 893d 91ae 273e d557 aebd ec83 933c
00000110: f3c0 32bd f966 103e 0118 8d3d 9b64 2cbe
00000120: d345 eb3c 2fb0 453e 9347 1f3e 230f 47be
00000130: 4c56 243d cb92 b23d 1154 2b3e 0069 1abe
00000140: 1a02 aebd 0542 d4bb e912 4fbd a1de 343e
00000150: 9621 d23d 25cf 773d 0169 893d 92ea db3d
00000160: 9213 223d 88a9 79bd 515a 433e 295e 2abe
00000170: 7c44 4c3d e95b 673c c97d 2a3e 817e 5b3c
00000180: 3277 febd b36f e93d cc13 253d a77a 32be
00000190: 24eb 333d d89a 2bbe 1586 acbd 012e 723d
000001a0: a6ae f0bd a208 083e b266 c73d 0c6b 58bd
000001b0: 3814 c73d 5378 c2bd f2ea 263e fc89 c03d
000001c0: 8d69 143e 8f78 f6bd 82c3 173d 1868 373e
000001d0: ec06 e23d 0a21 aebd 34bb 143e d3d9 cfbd
000001e0: a10c fbbd 3fd1 3abe a6ce 7bbd 1cdf 3abe
000001f0: d08d 0fbe e636 bd3d d08f 95bd 9cf0 133e
00000200: 06fb da3d 670c 3f3e 4463 c03d be4f 66bd
00000210: 89ae 40be d87d 4c3e 70bf 113d 107c b03c
00000220: 6745 05be d770 163d 1e98 433c 8ae7 9abd
00000230: 1a07 5b3d f9a9 2d3e 7383 073e e328 ccbc
00000240: b2d5 dc3c a827 aa3d 53c4 bdbd bb5a e3bc
00000250: 8f27 05be 55a6 da3d ca5b a23d c77a 2a3e
00000260: 14b1 10be 1aac 00bd b94d eebd 68e1 3a3e
00000270: 7391 29be 2ca4 ff3d 65fa 9d3d 22fc 843d
00000280: b2dd 3dbc 0605 5ebc 7748 35be 55fd 2a3e
00000290: 3788 b73d 71cd b33d cd3f 3e3e bf3d aebd
000002a0: 0b40 d0bd abe4 0a3e 60f1 843d 11ee babc
000002b0: 6dec 373e 6649 85bd c7d8 cfbb 6d35 eb3d
000002c0: d7dc 2c3e 97ba db3d e0ab f0bd e1f1 8ebd
000002d0: 1413 c23d d3e9 08be eb18 13be 97bd 18be
000002e0: de70 213e 5e0f dabd b9db 00bd 4e16 a73a
000002f0: a4f7 9ebd 8554 fdbd 2278 9b3b 8abf a43d
00000300: 4d64 303d b453 e63d c909 c2bd 1ff5 053c
00000310: d702 723d a4b8 e43d bab0 933d 5c03 38be
00000320: 61c1 1dbe 56db d4bd c5fc 2ebe 6658 37be
00000330: f8ec d23d d699 84bd a5d5 493e 2ad5 e73d
00000340: 837a e53d 3ffa 9e3d 2e6d dcbb 14ea 42be
00000350: cf30 68bd c9b1 163e 54cf f0bb b957 7abd
00000360: 5d7c 323e 8fc3 49be c705 3c3e 416f d6bd
00000370: 63ac adbc ad43 25be 9476 5ebd 1f45 8abd
00000380: d691 053e c4e0 8ebd 9398 8c3c 8324 49be
00000390: 7fdd 2d3e 621b 3fbe 7ef4 5f3c 2f95 e6bd
000003a0: d39d c13d 46b7 213e 5ede f7bc 7393 dbbd
000003b0: 3c2a 3ebe 60d1 0dbe db6b 0cbe 6fdb c8bd
000003c0: 0c47 ec3d 4190 733d 4253 803d a0e9 753d
000003d0: 12c7 113b 9bc0 e3bc 4336 bf3d 37e2 0dbd
000003e0: dd9c da3d c01e 11be 94cf 013e 84b6 a83d
000003f0: cac1 1b3e b50d 3abb 2540 29bc 0f94 353e

mu.2.weight f4 [256, 256]
0.03339358 -0.05217127 0.0051477463 0.018952757 -0.07115088 0.04803229 -0.052686993 0.021781841
-0.0026001735 0.01382798 -0.021783747 -0.0031379808 0.012418556 -0.016180266 -0.039633665 0.05510802
0.03656659 -0.021867486 0.057469197 -0.024458008 -0.06673486 -0.052486315 0.031777754 -0.03916023
0.0044608996 -0.039591756 0.085090555 0.024927186 0.054951034 0.027264398 0.05555021 0.027277868
0.06759004 0.019353189 0.021809835 -0.0040994654 0.0066201356 -0.027829072 -0.018966071 0.038110405
-0.032943796 -0.02560384 -0.008950768 -0.05571191 0.05929699 0.005091125 0.013256564 0.039579913
0.042132717 -0.026819745 0.023214318 0.03853415 0.05121243 0.0044772956 -0.01772508 0.0499838
0.019619852 0.018287133 0.015535539 0.034068517 -0.0072512226 -0.027772725 -0.035020187 0.04418319
0.057651903 0.05372272 0.009160834 0.017040696 -0.06946168 0.046022527 -0.011662457 -0.022880701
0.03186774 0.015123645 0.020712612 -0.033294845 0.014184952 -0.022664364 0.029840183 -0.017164359
-0.013669366 0.04114606 0.0026689933 -0.02509407 -0.012365522 0.07751173 -0.041801196 -0.008545463
-0.03881827 -0.016151773 -0.055699162 0.0047470443 0.050056033 -0.048151214 -0.0297415 -0.05216992
-0.0648773 0.026078088 -0.0037899078 0.046029303 -0.069438085 -0.037987687 0.02133634 0.025150955
0.05990858 0.028231623 0.030086463 -0.045823283 -0.012482708 -0.0577182 0.05173428 -0.038667664
0.019809414 0.00023546223 -0.056829635 0.0031946283 0.025368439 0.05305211 -0.013038109 0.032652665
-0.016212907 -0.04724955 -0.030946532 0.031295992 0.0320544 0.05524795 -0.0026164537 -0.058120754
0.027896894 -0.0070965625 -0.046957247 0.016791338 0.022114152 -0.005524724 0.027374735 -0.030248933
-0.030807005 -0.03269463 -0.07749809 0.034938317 0.039023295 0.047376927 -0.05310668 0.06590664
-0.024410544 -0.029375028 -0.064645454 0.03361406 -0.009407247 -0.014093621 -0.01333891 -0.05785985
-0.041497417 -0.027244614 -0.019644262 0.002223575 0.033888247 -0.059058294 -0.0027691969 0.033365507
-0.007993768 -0.031081505 -0.0580005 -0.05538945 0.04807471 -0.0045527844 -0.010023489 -0.04935511
-0.055317707 -0.024330197 -0.043782108 -0.024689045 -0.030016799 -0.00014206395 -0.056276716 0.057184458
0.05690011 -0.028150694 0.02079004 0.024489738 0.023820339 -0.00021545783 0.010397444 0.052512247
0.048156366 -0.02771291 0.014056931 -0.05138783 -0.06909213 0.014393753 0.01912546 -0.061277676
-0.0035398332 -0.0031917708 -0.0015446137 0.015547712 -0.0018429884 0.00849846 0.037521183 0.039969325
0.019734912 0.0025617718 0.029177671 -0.003981157 -0.04772882 -0.028081743 0.024963235 -0.06413572
0.02534244 0.064764805 -0.00043109583 -0.046927042 -0.054497663 -0.046514485 -0.013096984 0.061724313
-0.004702499 0.0005626431 -0.049896482 0.013941232 -0.0042080814 -0.03147264 -0.051335946 0.060846716
0.05582649 0.026039833 0.055158757 -0.05090698 -0.01114789 0.009100738 0.031749886 0.05637161
-0.014986303 -0.05440115 0.058585573 -0.019866113 0.0036406063 -0.043087468 0.021989204 0.04912743
-0.06276989 0.032538258 -0.037361827 -0.024763985 -0.004560397 0.03670785 -0.0047738464 0.04089395
-0.034154814 0.034242153 0.035505064 -0.049692206 -0.046153862 -0.043558095 -0.000970678 0.027842233
00000000: b5c7 083d 8bb1 55bd 6dae a83b d042 9b3c
00000010: 8db7 91bd 82bd 443d 51ce 57bd d56f b23c
00000020: ac67 2abb c08e 623c d473 b2bc 95a6 4dbb
00000030: 3377 4b3c 7a8c 84bc e956 22bd f2b8 613d
00000040: d9c6 153d 7123 b3bc d264 6b3d 295c c8bc
00000050: 49ac 88bd e4fb 56bd 6429 023d 7a66 20bd
00000060: bd2c 923b f72a 22bd f543 ae3d 1934 cc3c
00000070: 5614 613d 9659 df3c 9e88 633d d675 df3c
00000080: a66c 8a3d 948a 9e3c 8aaa b23c cf54 86bb
00000090: b9ed d83b cbf9 e3bc bc5e 9bbc a819 1c3d
000000a0: 13f0 06bd 25bf d1bc 3ea6 12bc 2c32 64bd
000000b0: 67e1 723d 74d3 a63b 0f32 593c 8c1e 223d
000000c0: 5b93 2c3d 15b5 dbbc f42b be3c fcd5 1d3d
000000d0: 20c4 513d 47b6 923b 3034 91bc d0bb 4c3d
000000e0: d0b9 a03c e6ce 953c c688 7e3c 6e8b 0b3d
000000f0: aa9b edbb a083 e3bc 5471 0fbd 6ff9 343d
00000100: 6724 6c3d 5b0c 5c3d 5317 163c ee98 8b3c
00000110: ed41 8ebd 1e82 3c3d e413 3fbc 4f70 bbbc
00000120: bf87 023d 2ac9 773c 7fad a93c 2d60 08bd
00000130: 0068 683c 9eaa b9bc 6673 f43c 459c 8cbc
00000140: 7af5 5fbc c588 283d 47ea 2e3b 1492 cdbc
00000150: c298 4abc 78be 9e3d bb37 2bbd 4502 0cbc
00000160: e8ff 1ebd b950 84bc ce24 64bd 188d 9b3b
00000170: 8e07 4d3d 353a 45bd 72a4 f3bc 20b0 55bd
00000180: 64de 84bd b7a1 d53c 1a60 78bb 3989 3c3d
00000190: 8e35 8ebd fa98 1bbd 8cc9 ae3c 6009 ce3c
000001a0: b362 753d 0146 e73c e377 f63c 32b1 3bbd
000001b0: 4684 4cbc eb69 6cbd 53e7 533d fc61 1ebd
000001c0: 5a47 a23c 69e6 7639 31c6 68bd f85c 513b
000001d0: 79d1 cf3c 2b4d 593d cb9d 55bc cdbe 053d
000001e0: eed0 84bc bf88 41bd 9583 fdbc 3a30 003d
000001f0: 794b 033d ad4b 623d cf78 2bbb 0710 6ebd
00000200: 0788 e43c 488a e8bb 3e56 40bd fd8d 893c
00000210: bd28 b53c be08 b5bb fb40 e03c 9ccc f7bc
00000220: f95e fcbc ceea 05bd 52b7 9ebd 7b1b 0f3d
00000230: e4d6 1f3d 4f0e 423d 6486 59bd 0ffa 863d
00000240: 9ff8 c7bc e6a3 f0bc d664 84bd e6ae 093d
00000250: db20 1abc eee8 66bc 728b 5abc 73fe 6cbd
00000260: 32f9 29bd 1930 dfbc 01ed a0bc 66b9 113b
00000270: 67ce 0a3d 1ce7 71bd 6a7b 35bb 45aa 083d
00000280: 4bf8 02bc a49e febc ef91 6dbd 0ce0 62bd
00000290: fde9 443d 862f 95bb 8f39 24bc 9528 4abd
000002a0: d294 62bd 1f50 c7bc de54 33bd ae40 cabc
000002b0: cae5 f5bc 00f7 14b9 6a82 66bd 403a 6a3d
000002c0: 1710 693d 499c e6bc e04f aa3c b49e c83c
000002d0: df22 c33c 85ec 61b9 0a5a 2a3c 1517 573d
000002e0: 9c3f 453d 2f06 e3bc 0b4f 663c 0c7c 52bd
000002f0: 2d80 8dbd c7d3 6b3c ffac 9c3c 4dfe 7abd
00000300: 8cfc 67bb 072d 51bb a374 caba d5bb 7e3c
00000310: 6e90 f1ba 203d 0b3c d0af 193d e0b6 233d
00000320: 1cab a13c 66e3 273b 0306 ef3c 5e74 82bb
00000330: 4c7f 43bd af0b e6bc b37f cc3c 9759 83bd
00000340: f39a cf3c 69a3 843d b404 e2b9 9236 40bd
00000350: f138 5fbd f985 3ebd bb94 56bc a2d2 7c3d
00000360: 6c17 9abb 577e 133a 4160 4cbd c469 643c
00000370: f2e3 89bb 74e9 00bd a445 52bd 683a 793d
00000380: 51aa 643d 7d51 d53c 26ee 613d d683 50bd
00000390: a4a5 36bc 431b 153c 2b0c 023d ebe5 663d
000003a0: 1c89 75bc bed3 5ebd 6df7 6f3d 42be a2bc
000003b0: 3d97 6e3b 7c7c 30bd b422 b43c d839 493d
000003c0: 808d 80bd d646 053d b708 19bd d7dd cabc
000003d0: 626f 95bb f85a 163d ed6d 9cbb 6a80 273d
000003e0: ebe5 0bbd 8041 0c3d c26d 113d 0e8a 4bbd
000003f0: d50b 3dbd f969 32bd 1975 7eba 6515 e43c

mu.2.bias f4 [256]
0.056931686 -0.00738959 -0.05220874 -0.029648317 -0.008077334 -0.048052475 -0.007982529 0.045135666
0.043396324 -0.008334743 0.03572597 0.020825546 -0.0061285403 -0.03707689 -0.038730834 -0.036571227
-0.009773724 -0.00867267 0.018159976 0.05525743 0.02195715 -0.011682671 0.05148323 -0.00829151
-0.032948874 -0.025460022 -0.05290613 -0.05931459 0.053886503 -0.026830884 -0.034160547 0.0023386148
-0.034439344 -0.03174567 0.045103304 0.054512337 0.048146777 -0.044539176 -0.017585589 -0.0595568
-0.024698535 0.013429231 -0.0055012256 0.05750018 -0.036287222 0.019179076 -0.01646533 -0.0074474537
-0.00430285 -0.014893082 0.054012425 0.040941145 0.020542951 -0.004354249 0.038363487 0.006718406
0.03357498 -0.03770119 -0.042279646 0.02826349 -0.06441945 -0.026625399 0.045122296 -0.005259067
0.02986687 -0.043142714 0.047243923 -0.017359924 0.03032047 -0.012303029 0.049248967 0.024180276
-0.036821645 -0.022718508 0.0061714193 0.04744589 -0.0066348524 0.03836605 -0.017447814 0.0396255
-0.041494478 -0.054518815 -0.021341978 -0.040429927 -0.027924482 -0.053605694 -0.011550883 0.051944878
-0.0024245614 -0.040912066 0.044986445 0.03209999 0.045687035 -0.05506277 -0.005962007 0.061740134
0.010526515 -0.009445406 0.0037155915 0.02188835 -0.0027939377 0.011784008 0.031175584 -0.049697254
-0.047387823 0.045709908 0.041632716 0.014333703 0.024003007 -0.04878941 0.02612554 -0.061210077
0.016405022 0.024271088 0.04956988 0.02488612 -0.059492685 -0.05169578 0.05328859 0.032686464
0.011160289 -0.057572633 0.037455525 -0.037632767 -0.0025659436 -0.029951748 -0.008161957 0.027195593
-0.0011952524 -0.020832479 -0.034237448 0.015504382 -0.005642606 0.0446908 0.041287526 0.012871774
0.056550723 -0.057186875 0.027007202 0.05121952 0.04639767 -0.05816508 0.052125398 0.0016152995
0.04015904 0.050151628 0.035574798 0.018042114 -0.053017057 0.037771557 -0.013656196 -0.0013763459
0.022638272 -0.0072951284 -0.039040737 -0.014107888 -0.019461311 -0.020184964 -0.05840705 -0.04058866
-0.003313624 -0.00068662415 -0.037556097 0.030811073 -0.021592388 0.029929426 -0.031925432 -0.0072950814
-0.033557743 -0.0051538716 0.013994969 0.010300461 0.033656865 0.044287734 0.02417742 -0.046855956
0.013012863 -0.011456691 -0.0067585297 -0.026296545 -0.025995413 -0.053856347 0.018244024 -0.009221678
0.022872591 0.040415898 0.0025423355 -0.030638056 0.020152364 0.016847482 -0.023715321 -0.001979337
-0.05917457 0.01452858 -0.030695455 -0.008590864 -0.010390674 -0.060920715 -0.026332153 -0.031112636
-0.03479672 0.04758674 -0.0022556954 -0.03488114 0.0529868 0.04156718 -0.013074781 -0.008217237
-0.049637824 -0.015154198 0.010268244 0.046370648 0.021611849 -0.010584359 0.011121782 -0.010324531
-0.047003586 0.0025854907 0.038367413 0.0002890352 -0.014178969 0.029891578 9.4388946e-05 -0.056218557
0.014985138 0.024993654 -0.044143695 0.055036843 -0.012997551 0.05506318 -0.0060964604 0.049248308
-0.005883561 -0.055299666 0.018746741 0.0057147993 -0.02064122 0.013804 -0.06015094 -0.001901486
0.016172467 -3.5486803e-06 0.05274523 0.039767306 -0.025047282 -0.050527956 -0.011775452 0.013141888
-0.021882063 0.05257324 0.054140072 -0.017574372 -0.012324524 0.0021116126 -0.05787861 -0.043806434
00000000: 3331 693d 6024 f2bb d5d8 55bd 07e1 f2bc
00000010: cb56 04bc acd2 44bd 27c9 02bc 2de0 383d
00000020: 58c0 313d 728e 08bc 6555 123d 569a aa3c
00000030: ecd1 c8bb f0dd 17bd 39a4 1ebd b6cb 15bd
00000040: f821 20bc d117 0ebc 3bc4 943c 9d55 623d
00000050: 7bdf b33c ac68 3fbc 14e0 523d 1dd9 07bc
00000060: 66f5 06bd 8991 d0bc 19b4 58bd dbf3 72bd
00000070: 18b8 5c3d 71cc dbbc eeeb 0bbd 7243 193b
00000080: 4510 0dbd bf07 02bd 3ebe 383d 5448 5f3d
00000090: 8e35 453d b66e 36bd a70f 90bc d5f1 73bd
000000a0: 9554 cabc 4706 5c3c a043 b4bb 4f85 6b3d
000000b0: e9a1 14bd 701d 9d3c 4de2 86bc c509 f4bb
000000c0: ecfe 8cbb 1d02 74bc 223c 5d3d e7b1 273d
000000d0: b149 a83c 17ae 8ebb 0823 1d3d 1326 dc3b
000000e0: eb85 093d 906c 1abd 6c2d 2dbd d688 e73c
000000f0: 58ee 83bd 821d dabc 28d2 383d 4054 acbb
00000100: 5eab f43c 6ab6 30bd d882 413d 6636 8ebc
00000110: a262 f83c a592 49bc 49b9 493d b715 c63c
00000120: 4bd2 16bd 2a1c babc 9e39 ca3b 9f56 423d
00000130: 2d69 d9bb b825 1d3d b8ee 8ebc 594e 223d
00000140: 1df6 29bd 1f4f 5fbd 5fd5 aebc da99 25bd
00000150: e2c1 e4bc a591 5bbd ea3f 3dbc 27c4 543d
00000160: 64e5 1ebb 6993 27bd b543 383d 477b 033d
00000170: 5422 3b3d 8089 61bd f15c c3bb 39e3 7c3d
00000180: 6777 2c3c e7c0 1abc 4881 733b 324f b33c
00000190: 7f1a 37bb b611 413c f063 ff3c 598f 4bbd
000001a0: bc19 42bd 503a 3b3d 1187 2a3d e8d7 6a3c
000001b0: f4a1 c43c 68d7 47bd 3a05 d63c 6bb7 7abd
000001c0: d363 863c 29d4 c63c c909 4b3d fadd cb3c
000001d0: 9aae 73bd f4be 53bd 2345 5a3d 3ee2 053d
000001e0: a5d9 363c 48d1 6bbd f76a 193d d124 1abd
000001f0: 6429 28bb 5e5d f5bc bbb9 05bc 4bc9 de3c
00000200: 04aa 9cba e0a8 aabc 913c 0cbd 1706 7e3c
00000210: 9ce5 b8bb b30d 373d 1c1d 293d 22e4 523c
00000220: bba1 673d c93c 6abd 353e dd3c 8fcb 513d
00000230: 7c0b 3e3d 823e 6ebd 7181 553d 75b8 d33a
00000240: ce7d 243d cb6b 4d3d e1b6 113d 0ecd 933c
00000250: 6a28 59bd 59b6 1a3d 3dbe 5fbc 8166 b4ba
00000260: e673 b93c f90b efbb 2ee9 1fbd c524 67bc
00000270: 546d 9fbc f05a a5bc 3b3c 6fbd 4b40 26bd
00000280: 6329 59bb 91fe 33ba 6cd4 19bd 8167 fc3c
00000290: 85e2 b0bc 8e2e f53c 3ec4 02bd 940b efbb
000002a0: d873 09bd cfe1 a8bb 284b 653c 44c3 283c
000002b0: c8db 093d 0e67 353d ba0f c63c 08ec 3fbd
000002c0: e733 553c d8b4 3bbc a876 ddbb da6b d7bc
000002d0: 55f4 d4bc 7998 5cbd 7e74 953c 8516 17bc
000002e0: 4d5f bb3c 248b 253d 509d 263b a9fc fabc
000002f0: 9216 a53c bb03 8a3c a246 c2bc c4b7 01bb
00000300: 0961 72bd 4809 6e3c 0975 fbbc b2c0 0cbc
00000310: a53d 2abc 0088 79bd 87b6 d7bc eddf febc
00000320: 0187 0ebd 50ea 423d 4ad4 13bb 87df 0ebd
00000330: b008 593d 5942 2a3d 9b37 56bc 97a1 06bc
00000340: 0851 4bbd 5049 78bc 233c 283c 26ef 3d3d
00000350: 550b b13c 056a 2dbc 2238 363c 3928 29bc
00000360: d586 40bd 5671 293b 2627 1d3d a689 9739
00000370: e84e 68bc 2fdf f43c aef2 c538 6e45 66bd
00000380: 3984 753c 7ebf cc3c 05d0 34bd 506e 613d
00000390: aef3 54bc ee89 613d d1c4 c7bb 98b8 493d
000003a0: e3ca c0bb e781 62bd c492 993c 3643 bb3b
000003b0: c717 a9bc 2c2a 623c d560 76bd 483b f9ba
000003c0: 1f7c 843c dd25 6eb6 620b 583d 0be3 223d
000003d0: f52f cdbc 67f6 4ebd d3ed 40bc 1351 573c
000003e0: 0342 b3bc 0a57 573d fbc1 5d3d 21f8 8fbc
000003f0: cdec 49bc fb62 0a3b 1f12 6dbd 606e 33bd

mu.4.weight f4 [19, 256]
-0.009298275 -0.0009626248 0.03338173 0.07747385 -0.055987865 -0.06615097 0.00034958203 0.009237038
0.017565215 -0.021770032 -5.6701952e-05 -0.0024764386 -0.05656956 -0.04220953 -0.028867332 0.038631495
-7.9054094e-05 -0.040559106 -0.05130307 0.016471662 -0.012102008 0.03333976 -0.085513905 -0.049452912
0.05488598 -0.02234057 -0.037832752 -0.019449444 0.016049003 0.042285748 0.0031924443 -0.072057605
0.060966015 -0.03311694 0.012929727 0.017027836 0.006417457 -0.008285753 0.042107407 -0.05749771
0.0058126217 -0.0020669957 0.033870284 -0.02984309 0.044495147 0.07261468 -0.022344906 0.07554313
0.053922392 -0.0065584364 -0.06321778 0.06884665 0.00091163843 -0.028638396 0.04442369 0.06536157
0.009550641 -0.08501579 0.044394746 -0.049876694 0.045464937 -0.04984131 0.010887592 0.061798383
0.018110951 0.0024525537 0.03610903 -0.011147202 0.05234827 0.02374675 -0.025785532 -0.010603864
-0.016037272 -0.04678742 0.060145643 -0.0541121 -0.049952902 -0.05961915 0.016311774 -0.03471728
-0.018058082 0.014654304 -0.040913045 -0.024820661 -0.07284079 0.008787493 -0.03725295 0.04799053
-0.01932026 0.008329682 0.052975286 -0.07269931 -0.076943144 0.04380618 -0.022484398 0.007308645
0.05552801 -0.03635553 -0.04150911 -0.06565001 -0.021273986 0.036918484 0.015987588 0.014398981
0.041283395 0.07302655 0.07654747 -0.032126814 -0.015284688 -0.076459356 0.08252357 -0.060016297
-0.057794478 -0.00022190761 0.0039033953 0.025730038 0.061599903 0.018958015 -0.040438693 0.03687023
-0.0016941811 -0.058146987 -0.036793318 0.060663413 0.025932703 -0.017161692 0.06710309 0.06914813
0.031980336 -0.08371373 0.06962703 -0.0692402 0.003447048 -0.0074437642 -0.04137761 0.067069866
-0.033269867 0.02051727 0.038254593 0.0057348865 -0.026480377 -0.0107438695 0.004868559 -0.05780076
0.036110874 -0.021965815 0.01472254 0.058679763 -0.014316349 -0.079080716 -0.063448444 0.01907734
-0.0039892746 0.040893286 -0.020551054 0.07902674 -0.015191865 -0.017254123 -0.014569553 0.06327487
-0.030324092 0.063150756 0.052429624 -0.018324401 -0.048035473 0.016773246 -0.0021900765 -0.07884956
0.06340381 -0.046600454 0.0071368907 0.020291798 0.05446028 0.032456055 0.06728751 0.044902463
-0.04364523 0.02542817 0.068981335 0.035674296 0.029795984 0.062992 -0.014209471 0.06384911
0.07671216 0.030625986 -0.006804066 0.027342105 0.033551678 -0.06160005 0.0036857335 -0.0019188947
-0.05689368 -0.0011054409 -0.03525742 0.08441431 -0.005346482 0.032584894 -0.0083961 -0.043438878
0.008298002 -0.058354758 0.07090423 -0.049898524 -0.0026379896 0.005244411 0.0015289857 0.0118953325
-0.06743954 -0.03859216 0.024561834 -0.02038708 -0.070312716 0.07780096 -0.052411694 0.0078096674
-0.06947302 -0.079145685 -0.05116645 0.029782226 0.0032842448 0.06999122 -0.047136467 0.06450614
0.020375365 0.08133007 -0.047088716 0.07663037 -0.07679076 0.05060854 -0.012048464 0.055748325
0.0030209064 -0.05296649 -0.024135238 0.043591544 0.024841448 -0.002980648 -0.030277265 -0.038040392
0.05325109 0.042850737 0.029409645 -0.074450776 0.017044183 -0.010998789 0.005265566 -0.085751645
0.026208108 0.0013407781 -0.020914866 -0.022090372 -0.063233584 0.00951645 0.047932945 -0.05284072
00000000: cb57 18bc a858 7cba 48bb 083d 9caa 9e3d
00000010: 8853 65bd 297a 87bd 1b48 b739 f256 173c
00000020: ede4 8f3c 1157 b2bc 42d3 6db8 bf4b 22bb
00000030: 7cb5 67bd e6e3 2cbd 2f7b ecbc 0f3c 1e3d
00000040: d8c9 a5b8 4e21 26bd 2b23 52bd 94ef 863c
00000050: 8047 46bc 468f 083d ea21 afbd 238f 4abd
00000060: 1fd0 603d 9203 b7bc 84f6 1abd 7154 9fbc
00000070: 3379 833c d233 2d3d 5438 513b f092 93bd
00000080: 80b7 793d a1a5 07bd 35d7 533c f67d 8b3c
00000090: 8849 d23b f8c0 07bc d178 2c3d b882 6bbd
000000a0: ce77 be3b 6f76 07bb 91bb 0a3d 7f79 f4bc
000000b0: 8b40 363d 01b7 943d aa0c b7bc 5bb6 9a3d
000000c0: badd 5c3d 27e8 d6bb 5378 81bd 79ff 8c3d
000000d0: 05fb 6e3a 129b eabc 9df5 353d 49dc 853d
000000e0: 4b7a 1c3c c21c aebd 44d7 353d 814b 4cbd
000000f0: 7139 3a3d 6726 4cbd df61 323c 4d20 7d3d
00000100: 6b5d 943c 06bb 203b 10e7 133d c1a2 36bc
00000110: 246b 563d 8b88 c23c 2e3c d3bc d4bb 2dbc
00000120: 9960 83bc 2aa4 3fbd 475b 763d a6a4 5dbd
00000130: 6a9b 4cbd 3633 74bd 45a0 853c b533 0ebd
00000140: 8bee 93bc 9b18 703c 7094 27bd b354 cbbc
00000150: 8d2d 95bd 6bf9 0f3c 8d96 18bd b891 443d
00000160: 8645 9ebc 3879 083c 9dfc 583d 60e3 94bd
00000170: 5e94 9dbd 1c6e 333d 3331 b8bc 5c7d ef3b
00000180: 5771 633d 89e9 14bd 7505 2abd 8373 86bd
00000190: c846 aebc d637 173d 67f8 823c b4e9 6b3c
000001a0: c718 293d f28e 953d ecc4 9c3d 6897 03bd
000001b0: a16c 7abc b996 9cbd 1e02 a93d a6d3 75bd
000001c0: e7b9 6cbd dfaf 68b9 1bd0 7f3b cdc7 d23c
000001d0: 2e50 7c3d d74d 9b3c 0ba3 25bd 3d05 173d
000001e0: 490f deba 892b 6ebd 97b4 16bd 337a 783d
000001f0: d270 d43c ad96 8cbc 586d 893d 899d 8d3d
00000200: d0fd 023d 1b72 abbd 9e98 8e3d cecd 8dbd
00000210: dee7 613b d2ea f3bb 927b 29bd ed5b 893d
00000220: fc45 08bd d513 a83c d9b0 1c3d b7eb bb3b
00000230: 60ed d8bc 0e07 30bc 6f88 9f3b 7dc0 6cbd
00000240: ffe8 133d a7f1 b3bc cf36 713c 315a 703d
00000250: 1f8f 6abc 12f5 a1bd 42f1 81bd 1548 9c3c
00000260: 76b8 82bb b87f 273d af5a a8bc c5d8 a13d
00000270: 4de7 78bc 8558 8dbc 22b5 6ebc 4196 813d
00000280: 3b6a f8bc 2f55 813d 72c0 563d 0e1d 96bc
00000290: d8c0 44bd 0c68 893c 6387 0fbb e17b a1bd
000002a0: dbd9 813d 1ee0 3ebd 94dc e93b fc3a a63c
000002b0: be11 5f3d a4f0 043d 09ce 893d a5eb 373d
000002c0: 57c5 32bd bd4e d03c 1646 8d3d 361f 123d
000002d0: b516 f43c f301 813d d7ce 68bc 52c3 823d
000002e0: 441b 9d3d 59e3 fa3c a4f4 debb 8dfc df3c
000002f0: 7c6d 093d 5650 7cbd 598c 713b 6c83 fbba
00000300: 5909 69bd 71e4 90ba 166a 10bd 69e1 ac3d
00000310: 8b31 afbb bd77 053d cc8f 09bc f7ec 31bd
00000320: 58f4 073c 6605 6fbd 3d36 913d 6562 4cbd
00000330: 1fe2 2cbb 4fd9 ab3b 3f68 c83a a4e4 423c
00000340: be1d 8abd d012 1ebd e635 c93c ce02 a7bc
00000350: 1d00 90bd 1c56 9f3d a5ad 56bd 3de8 ff3b
00000360: df47 8ebd 2217 a2bd e993 51bd dbf9 f33c
00000370: 7c3c 573b 8f57 8f3d 2b12 41bd cc1b 843d
00000380: 3dea a63c 6190 a63d 19e0 40bd 62f0 9c3d
00000390: 7944 9dbd e74a 4f3d ec66 45bc 5b58 643d
000003a0: 66fa 453b 64f3 58bd 43b7 c5bc 0c8d 323d
000003b0: 4b80 cb3c fa56 43bb 0708 f8bc 3ed0 1bbd
000003c0: d11d 5a3d 4184 2f3d 7fec f03c a679 98bd
000003d0: 3ea0 8b3c 4434 34bc c58a ac3b 8f9e afbd
000003e0: 63b2 d63c 0cbd af3a a755 abbc def6 b4bc
000003f0: 9c80 81bd e2ea 1b3c 5655 443d 836f 58bd

mu.4.bias f4 [19]
-0.0122124795 0.031995483 -0.010269383 0.059093207 0.016131403 -0.05302791 0.0011716106 -0.055534046
-0.013058906 -0.03903306 -0.04303708 -0.037353642 -0.04426438 0.001976441 0.034467243 0.06016878
0.046172135 0.018350141 -0.008434613
00000000: da16 48bc b20d 033d ea40 28bc b80b 723d
00000010: 0126 843c cb33 59bd ba90 993a ab77 63bd
00000020: 06f5 55bc 21e1 1fbd a647 30bd 2200 19bd
00000030: 914e 35bd 2d87 013b 862d 0d3d 8a73 763d
00000040: fe1e 3d3d 0953 963c 5531 0abc
