AM_RL/Planner/model/pretraining_planner.pth (torch, 309056 bytes, 6 tensors)

mu.0.weight f4 [256, 22]
0	0xbe2bb553	-0.16768388
1	0xbdb57e8c	-0.088620275
2	0x3d222d68	0.039594084
3	0x3d71dc3d	0.059047926
4	0x3d80947f	0.062783234
5	0x3d64bc3c	0.055843577
6	0x3e3c75b1	0.1840427
7	0xbe7b7d61	-0.24559547
8	0x3e908471	0.28226045
9	0xbe29b99f	-0.16574715
10	0xbe301c84	-0.17198378
11	0x3d7959a1	0.060876492
12	0x3e569167	0.20953904
13	0xbe1a8182	-0.15088466
14	0x3ca81d9b	0.02052193
15	0xbc868ad1	-0.016423615
16	0xbe8577a4	-0.2606784
17	0x3db0eb1f	0.08638596
18	0xbc88b381	-0.016687157
19	0x3da05553	0.07828774
20	0x3c01d1cc	0.007923555
21	0xbdb94777	-0.09046834
22	0x3e58ef68	0.21185076
23	0xbe339dba	-0.17540637
24	0xbd03efce	-0.032211117
25	0xbdec38bd	-0.115342595
26	0x3e442d58	0.19157922
27	0x3e559c7d	0.20860477
28	0xbce99475	-0.028513173
29	0xbde8f8e3	-0.113755964
30	0xbe7286a8	-0.2368418
31	0xbe142684	-0.14467818
32	0xbdc80237	-0.097660474
33	0xbccd2b00	-0.025044918
34	0x3d8cd236	0.06876032
35	0x3e3dd14a	0.18536869
36	0x3e54c801	0.2077942
37	0x3e045c8b	0.12925927
38	0x3d6289ff	0.055307385
39	0x3e0ebe77	0.13939844
40	0xbc16c308	-0.0092017725
41	0x3daf44bc	0.08558032
42	0x3e1fc220	0.15601397
43	0x3cf01c65	0.029310415
44	0x3e631a90	0.22178102
45	0xbe2e5861	-0.17025901
46	0x3cc739b9	0.024319516
47	0x3dce7eb1	0.10082758
48	0x3e095f76	0.13415322
49	0xbc35dc09	-0.011099824
50	0x3e392ef6	0.1808432
51	0x3e1506d0	0.1455338
52	0xbe91f258	-0.28505206
53	0x3e2a5512	0.16634014
54	0xbbfbf25b	-0.007688803
55	0xbd29e2d4	-0.041476086
56	0x3e120fe3	0.14263873
57	0x3bdf2f19	0.0068110344
58	0xbe0e5027	-0.13897763
59	0x39af4e11	0.00033436765
60	0xbe72f8af	-0.23727678
61	0xbd8dd213	-0.06924834
62	0xbebd82e3	-0.3701392
63	0x3b658a00	0.0035024881
64	0x3e2b2d8a	0.1671659
65	0x3e4318eb	0.19052474
66	0xbe2abb7a	-0.16673079
67	0x3bd8be59	0.006614488
68	0x3d6e334b	0.058154386
69	0x3d5e2db3	0.0542428
70	0x3db727af	0.08943116
71	0x3c706239	0.014671856
72	0x3de9d360	0.1141727
73	0xbe9ddcf7	-0.30832645
74	0xbdfb6fb8	-0.12277168
75	0xbe405bed	-0.18785067
76	0xbe5f9bf3	-0.21836834
77	0xbc3b1d3b	-0.011420543
78	0x3daaeb24	0.08345631
79	0xbd846f2b	-0.06466516
80	0x3e337084	0.1752339
81	0xbdda5eed	-0.10662637
82	0x3dfa1894	0.12211719
83	0xbde07977	-0.109606676
84	0xbd365162	-0.044511206
85	0x3d41cf5f	0.047316905
86	0x3d8f2cdc	0.06990978
87	0xbe3ad09d	-0.18243642
88	0xbe3b8f71	-0.18316437
89	0x3dfdb905	0.12388805
90	0xbdca7d41	-0.098871715
91	0x3e282910	0.16421914
92	0x3e0bbcb1	0.13646199
93	0xbc6de20d	-0.014519227
94	0x3d7f4b07	0.06232741
95	0xbd82639e	-0.06366657
96	0xbe2af22f	-0.16693948
97	0xbdd17784	-0.10227874
98	0x3e1f4642	0.15554145
99	0xbc1dfdd4	-0.009643037
100	0x3db8a51a	0.090158656
101	0xbe24b519	-0.16084708
102	0xbd72dcf6	-0.059292756
103	0x3c9c2173	0.019058919
104	0x3e1a6097	0.15075909
105	0x3d3a732e	0.04552
106	0x3e25601c	0.16149944
107	0x3e3f0ade	0.18656489
108	0xbd34a730	-0.044104755
109	0x3e5a0c73	0.21293812
110	0xbe6369aa	-0.22208276
111	0x3d834130	0.06408918
112	0x3bddfdaf	0.006774626
113	0x3c9f04cb	0.019411465
114	0xbe9261c9	-0.2859023
115	0xbe543cdb	-0.2072634
116	0xbe016b4f	-0.12638591
117	0xbe8073a6	-0.25088233
118	0x3dacc640	0.08436251
119	0xbd4656cf	-0.04842263
120	0x3e38b7a6	0.18038806
121	0xbe1250a4	-0.14288574
122	0xbe5b9dce	-0.21446916
123	0x3db9ef30	0.090788245
124	0x3d25bdc9	0.040464196
125	0x3dd54dcf	0.104152314
126	0x3df5561d	0.119793154
127	0x3e003184	0.12518889
128	0x3e1d1da7	0.15343343
129	0x3dac7bb4	0.08422032
130	0x3d020da3	0.031751286
131	0xbcbd8f46	-0.023139607
132	0xbe04116f	-0.12897275
133	0xbe34e398	-0.17664945
134	0xbdc00db7	-0.09377616
135	0xbda44e59	-0.08022756
136	0x3d4fb18a	0.050706424
137	0xbe8f50ee	-0.27991432
138	0x3dd45732	0.10368194
139	0x3caafcc0	0.020872474
140	0xbd975816	-0.07389848
141	0xbd5d770b	-0.054068606
142	0xbcdfae58	-0.027304813
143	0xbe3e8174	-0.1860407
144	0x3dbd2d48	0.09237152
145	0xbdd250f1	-0.102693446
146	0xbc8ef0bb	-0.017448774
147	0xbd4986cb	-0.049200814
148	0x3de00ff5	0.109405436
149	0xbdecbd09	-0.11559493
150	0x3dc935a3	0.098246835
151	0xbd072a7a	-0.032999493
152	0xbd63abd4	-0.05558379
153	0xbe40156c	-0.18758172
154	0x3d8be4ef	0.06830775
155	0x3e06775f	0.13131474
156	0xbe4cf179	-0.2001399
157	0xbe292cc8	-0.16520989
158	0x3e5e3a6f	0.21701978
159	0x3e4b9a16	0.19882998
160	0x3e494978	0.19656932
161	0xbe0295c9	-0.12752451
162	0xbe666a7e	-0.22501561
163	0x3dac67dc	0.08418247
164	0xbdf2d12c	-0.118563026
165	0xbd93eb44	-0.07222608
166	0x3e10dc60	0.14146566
167	0x3cb6fe0d	0.022337938
168	0xbc3b0485	-0.011414652
169	0xbd35a0d5	-0.044342835
170	0xbe1ae12b	-0.15124957
171	0xbdee67e8	-0.11640912
172	0xbdbdb29a	-0.09262581
173	0x3cea822f	0.02862653
174	0xbe49cef5	-0.19707854
175	0xbd7f0d29	-0.06226841
176	0x3e39fdd2	0.18163231
177	0x3e401326	0.18757305
178	0x3d8e21db	0.06940051
179	0x3e2c8bae	0.16850159
180	0x3e106420	0.14100695
181	0xbdc84993	-0.09779658
182	0xbe3b594b	-0.18295781
183	0xbe49ca4d	-0.19706078
184	0x3d94ef81	0.07272244
185	0xbe0f618c	-0.14002055
186	0x3d901afe	0.07036398
187	0xbb5e0632	-0.0033878204
188	0x3e643ff6	0.22290024
189	0x3e0f6be1	0.14005996
190	0x3e0d274a	0.13784519
191	0x3d12cbd2	0.03583891
192	0xbde0f3d3	-0.10984006
193	0x3e6481fb	0.22315209
194	0xbe391fe5	-0.18078573
195	0x3dbc7eff	0.0920391
196	0xbddba379	-0.10724539
197	0x3cd53810	0.02602771
198	0xbe3e0e89	-0.18560232
199	0xbdee2b14	-0.1162931
200	0x3db79a42	0.08964969
201	0xbe1b7458	-0.151811
202	0x3e114a9b	0.14188616
203	0xbe206415	-0.15663178
204	0x3e15eade	0.14640376
205	0xbe6eff2a	-0.23339525
206	0xbe6b164f	-0.22957729
207	0x3d97a049	0.07403619
208	0xbc17cf80	-0.00926578
209	0x3e53e130	0.20691371
210	0xbe647854	-0.22311527
211	0xbdadf025	-0.084930696
212	0x3e1f97b1	0.1558521
213	0x3e1bd04d	0.15216179
214	0x3dd41e7c	0.10357377
215	0x3e07a314	0.13245803
216	0xbe02b886	-0.12765703
217	0x3de0b093	0.10971179
218	0xbd25404c	-0.04034452
219	0xbdfdcc30	-0.12392461
220	0x3e526be4	0.2054897
221	0x3d51fbd0	0.051265538
222	0xbd9707a1	-0.07374502
223	0xbdda7953	-0.10667672
224	0x3d21b6ff	0.03948116
225	0xbcb49e10	-0.022048026
226	0x3a0f4024	0.0005464575
227	0xbe60d226	-0.21955165
228	0xbd8a0a1a	-0.06740208
229	0x3e555d86	0.20836458
230	0x3deeb890	0.11656296
231	0xbdd3124b	-0.103062235
232	0x3dcbb024	0.099457055
233	0xbe20500a	-0.15655532
234	0x3e1ae0de	0.15124843
235	0x3e13ed11	0.14445902
236	0x3e7a257f	0.24428366
237	0x3dacd5e5	0.08439235
238	0xbdd1aa36	-0.10237543
239	0x3e05ad8c	0.13054484
240	0x3df99498	0.12186545
241	0x3dfb9212	0.1228372
242	0x3d064162	0.032777198
243	0xbb79e046	-0.0038128062
244	0xbc631d22	-0.013861926
245	0xbe7aa6bc	-0.24477667
246	0x3cc7ed07	0.024405016
247	0xbe013641	-0.12618352
248	0xbd767d73	-0.06017823
249	0xbe34698e	-0.17618391
250	0x3e019091	0.12652804
251	0xbd8e184d	-0.06938229
252	0xbd608ed2	-0.054823704
253	0x3d94095b	0.07228347
254	0x3e502b8e	0.20329115
255	0x3db482bd	0.08813999

mu.0.bias f4 [256]
0	0x3defd0f1	0.11709774
1	0xbe451295	-0.1924537
2	0x3e11a544	0.142232
3	0x3e045c40	0.12925816
4	0x3e1928fc	0.1495704
5	0x3e49f99c	0.19724125
6	0x3e0304ca	0.12794796
7	0x3e17c9f5	0.14823134
8	0xbe2b4fd5	-0.16729672
9	0x3c95d468	0.01828976
10	0xbe3b65c5	-0.18300541
11	0x3e19d9b1	0.15024449
12	0xbe4ee5ef	-0.202049
13	0x3e477302	0.19477466
14	0x3b778b9b	0.003777242
15	0xbe2b0801	-0.16702272
16	0x3dc6840a	0.09693153
17	0x3cd3a601	0.025835993
18	0xbe51fe54	-0.20507175
19	0x3e1082e4	0.14112431
20	0x3e5ecad7	0.21757065
21	0xbde5e77e	-0.11225794
22	0xbd63e8e3	-0.05564202
23	0xbda38dd1	-0.07986034
24	0x3e54f25b	0.20795576
25	0x3e4e92f7	0.2017325
26	0x3972e365	0.0002316363
27	0x3a390c0e	0.0007058986
28	0x3dd78ef6	0.105253145
29	0xbe238d84	-0.15971953
30	0xba9e897d	-0.0012095418
31	0xbe0de8c2	-0.13858321
32	0xbe44007b	-0.19140808
33	0xbd895628	-0.06705886
34	0x3e236050	0.15954709
35	0x3cbd8a0a	0.023137111
36	0x3df235a1	0.11826635
37	0x3e460f54	0.19341785
38	0xbd871a21	-0.065967806
39	0x3db362d9	0.08759088
40	0x3ddb922e	0.10721241
41	0xbd03faf6	-0.032221757
42	0xbe377b7e	-0.17918202
43	0x3d96c3a9	0.07361538
44	0xbd03c0c3	-0.032166254
45	0xbe432357	-0.1905645
46	0x3dfe7eec	0.12426552
47	0x3d8ab786	0.067732856
48	0x3be3410d	0.006935245
49	0xbe1aae58	-0.1510557
50	0xbd1d18dc	-0.038353786
51	0xbde1eefe	-0.11031912
52	0x3cbb53d2	0.022867117
53	0x3c453089	0.012035497
54	0x3c8e528d	0.017373348
55	0x3dd68b90	0.10475838
56	0xbb621b46	-0.003450112
57	0xbd3e68e3	-0.046486747
58	0xbd42f666	-0.047598265
59	0x3ccec708	0.02524139
60	0x3e1ec0f9	0.155033
61	0x3d84c8cd	0.06483612
62	0x3e0140a3	0.12622313
63	0xbe0b3b15	-0.13596757
64	0x3e02f8fe	0.12790295
65	0x3e39c370	0.1814096
66	0xbd962fde	-0.07333349
67	0x3df63557	0.120218925
68	0x3d39f1b6	0.04539653
69	0xbe45f4d2	-0.19331673
70	0x3e4fa911	0.20279337
71	0xbd81f3cb	-0.06345328
72	0xbdb1a3c0	-0.08673811
73	0xbdc8e0bd	-0.098084904
74	0xbe4d61e8	-0.2005688
75	0xbdcbf69a	-0.09959145
76	0xbe267155	-0.1625417
77	0x3db0c445	0.086311854
78	0xbdbbf5d2	-0.09177746
79	0xbe25b49e	-0.16182181
80	0xbcde119d	-0.027108008
81	0xbdc97374	-0.09836474
82	0xbe38dfdf	-0.1805415
83	0x3db466d4	0.088086754
84	0x3e3c1518	0.18367422
85	0x3d57b253	0.052660298
86	0x3d9bc6d7	0.07606285
87	0xbe32b08a	-0.17450157
88	0x3dc1d984	0.09465316
89	0x3bbaf343	0.0057052686
90	0xbdb0a9c6	-0.08626132
91	0xbd8eb7d7	-0.069686584
92	0x3e0bc82c	0.13650578
93	0x3da9e6ae	0.08295952
94	0x3dbd619f	0.09247135
95	0xbe21f435	-0.15815814
96	0xbd98093f	-0.074236386
97	0x3db25ec3	0.087094806
98	0xbdbddc98	-0.092705905
99	0xbd94500d	-0.07241831
100	0x3cf396bf	0.029734967
101	0xbd3520cc	-0.04422073
102	0x3d746552	0.05966694
103	0x3e4a9643	0.19783883
104	0x3d948d63	0.0725353
105	0x3e33ccee	0.17558643
106	0x3e009d8b	0.12560098
107	0xbced4965	-0.028965661
108	0x3e40d713	0.18832044
109	0xbd43ef71	-0.04783577
110	0x3e423bf0	0.18968177
111	0xbe3a1e6e	-0.1817567
112	0xbd8cccdd	-0.06875012
113	0xbe428eb1	-0.18999745
114	0x3d192c39	0.03739569
115	0xbc563488	-0.013074048
116	0x3dd2d4d5	0.10294501
117	0x3e5c6474	0.21522695
118	0xbcf2223c	-0.02955734
119	0x3d21a087	0.03945973
120	0xbd3619ac	-0.044458076
121	0x3ccf7897	0.025326056
122	0xbddbf658	-0.10740346
123	0xbe24cbe6	-0.16093406
124	0x3de53c80	0.1119318
125	0x3e0ef477	0.13960443
126	0xbb673024	-0.0035276497
127	0x3e2e5cb3	0.1702755
128	0x3e0db6c5	0.13839252
129	0x3d7aea9f	0.06125891
130	0xbe106698	-0.14101636
131	0xbe23944e	-0.15974542
132	0xbd9603fa	-0.07324977
133	0x3e16c36d	0.14722987
134	0xbe0e9256	-0.1392301
135	0xbe2cca36	-0.16874012
136	0x3dbe604d	0.09295712
137	0xbe2df660	-0.16988516
138	0xbdf0dfd1	-0.117614396
139	0xbe557377	-0.20844828
140	0xbd0d70a3	-0.034531247
141	0x3d86524a	0.06558664
142	0x3d8c3da0	0.068476915
143	0x3e3a3cc8	0.18187249
144	0xbd5346a1	-0.05158103
145	0x3e2f8c1e	0.17143294
146	0xbe3037e1	-0.17208816
147	0xbdf97f66	-0.121825024
148	0xbe13bb00	-0.14426804
149	0xbe18d41c	-0.14924663
150	0x3e5fbfcf	0.21850513
151	0xbd38df91	-0.045135085
152	0x3dd25873	0.102707766
153	0xbc8307ab	-0.015994867
154	0x3e4bc951	0.19901015
155	0x3e0bb56b	0.13643424
156	0xbe2d4485	-0.1692067
157	0xbe4fa55c	-0.20277923
158	0xbe56d8c2	-0.20981124
159	0xbe5288e6	-0.20560035
160	0x3d2ad2b3	0.041704845
161	0xbdcb8b39	-0.09938664
162	0x3d8594e2	0.06522538
163	0xbcbf52c9	-0.023354905
164	0xbe2ccde9	-0.16875423
165	0x3e245220	0.16046953
166	0xbdb6c714	-0.0892469
167	0x3d98d5cf	0.07462656
168	0x3da9cf89	0.08291537
169	0xbe063b39	-0.13108529
170	0xbcbdfab5	-0.023190835
171	0x3e495f48	0.19665253
172	0xbb54b6d0	-0.0032457598
173	0x3b13dc9d	0.0022561916
174	0x3e3a5c02	0.1819916
175	0xbca5d1c9	-0.020241635
176	0xbe4275ee	-0.18990299
177	0xbe2f87e9	-0.1714169
178	0x3d7c5584	0.06160499
179	0x3e1f5ba9	0.1556231
180	0xbda9eac5	-0.08296732
181	0x3df3cd81	0.11904431
182	0x3e35a0a1	0.17737056
183	0xbd875b08	-0.0660916
184	0xbe3de0c7	-0.18542777
185	0x3d638681	0.055548195
186	0x3dd3a9e3	0.10335138
187	0x3e0248c4	0.1272307
188	0x3e2d2039	0.16906823
189	0x3e35f1ae	0.17767975
190	0x3e5a8548	0.21339905
191	0x3deec65c	0.11658928
192	0xbe2f5dd5	-0.17125638
193	0xbd8c7d01	-0.0685978
194	0xbdd02bc4	-0.10164598
195	0xbe2a86c8	-0.16652977
196	0xbe19b804	-0.15011603
197	0x3dc5b1e5	0.09653071
198	0xbd4c053d	-0.049809683
199	0xbe145f77	-0.14489542
200	0x3dc5eff5	0.09664909
201	0x3e523ddf	0.20531414
202	0xbd3f07a7	-0.046638157
203	0xbcc6783b	-0.024227252
204	0x3dfe2744	0.12409833
205	0x3d97ed08	0.07418257
206	0xbd5d4c4f	-0.05402785
207	0xbe09ba96	-0.13450083
208	0x3dec73c3	0.11545517
209	0x3db9ef59	0.09078855
210	0x3df10aee	0.11769663
211	0x3c8a7138	0.01689969
212	0xbd3ffcf6	-0.0468721
213	0xbdcc2a01	-0.09968949
214	0xbda37ec7	-0.07983165
215	0x3e3df58a	0.18550697
216	0x3dc3ce47	0.09560829
217	0x3e02f189	0.12787451
218	0xbbe94f40	-0.007120043
219	0x3dd678e2	0.10472275
220	0xbe0fc441	-0.14039709
221	0xbda74e2f	-0.08169209
222	0x3dcd407e	0.100220665
223	0xbd6b1112	-0.057389326
224	0xbe0f1137	-0.1397141
225	0x3e145917	0.1448711
226	0xbd0006e1	-0.03125656
227	0xbe20718d	-0.15668316
228	0x3cc40e7e	0.023932692
229	0x3e21e496	0.15809855
230	0x3dd9d5f1	0.10636509
231	0x3e47dbdd	0.19517465
232	0xbe29e1d6	-0.16590056
233	0xbe2b2d91	-0.16716601
234	0x3e4fd19c	0.20294803
235	0x3ce79c12	0.028272662
236	0xbd849219	-0.064731784
237	0xbdccb822	-0.09996058
238	0xbe2eace9	-0.17058147
239	0xbe18aa9b	-0.14908831
240	0xbe166ab1	-0.14689137
241	0xbd2ffc6f	-0.04296535
242	0xbdf05cf8	-0.117364824
243	0xbe43559b	-0.19075625
244	0xbc9e1c4c	-0.019300602
245	0xbb9e4d6e	-0.0048310077
246	0xbdc35f14	-0.09539619
247	0x3daa1be9	0.08306105
248	0xbe1660ea	-0.14685407
249	0xbc36e0ed	-0.011162025
250	0xbdc86e86	-0.09786706
251	0xbe049efe	-0.12951276
252	0x3bf724e9	0.007542242
253	0xbe3b6c2f	-0.18302988
254	0xbcad5b37	-0.021161659
255	0xbda1040f	-0.07862102

mu.2.weight f4 [256, 256]
0	0xbc8bf4ad	-0.017084444
1	0xbd65a3ef	-0.056064542
2	0xbd6ec72a	-0.058295406
3	0x3cf06d5d	0.029349023
4	0x3c83e605	0.016100893
5	0xbb3cd369	-0.0028812534
6	0xbccd93c7	-0.02509488
7	0xbcff3718	-0.0311542
8	0xbcc036b5	-0.023463586
9	0x3acd6937	0.0015671615
10	0x3bccbe02	0.0062482366
11	0xbc3f7d5f	-0.011687606
12	0x3d1d22c5	0.038363237
13	0xbd2adb50	-0.04171306
14	0x3c6ebda6	0.014571583
15	0xbcfd1cd3	-0.030897534
16	0xbce9aa34	-0.028523542
17	0xbd7b7488	-0.06139043
18	0xbb0dc928	-0.002163479
19	0x3a869fe4	0.001027104
20	0x3d27bfba	0.04095433
21	0xbd330db7	-0.04371425
22	0xbd3dc5c4	-0.046331182
23	0xbca0354f	-0.01955667
24	0xbc2f441a	-0.010697389
25	0x3d25709f	0.040390607
26	0x3d608886	0.0548177
27	0x3cb30358	0.02185218
28	0x3c1c2afb	0.009531732
29	0x3d40f5b0	0.047109306
30	0xbc872cf2	-0.016500924
31	0xbaa8c3cc	-0.0012875735
32	0x3d425704	0.047446266
33	0x3bf39593	0.007433602
34	0x3d44e7f4	0.04807277
35	0x3d34f105	0.044175167
36	0x3cb27efb	0.021789065
37	0x3c964cf7	0.018347247
38	0x3d4902b9	0.049074862
39	0x3d90c437	0.07068675
40	0x3d3fe53f	0.046849485
41	0xbce13d97	-0.027495189
42	0x3c13f489	0.00903047
43	0x3cb123fe	0.021623608
44	0xbb31e9ba	-0.0027147369
45	0x3cbe2b7e	0.023214098
46	0xbcf8cbc7	-0.030370606
47	0x3b56f589	0.003280016
48	0x3d079aa5	0.033106465
49	0xbd0e6f79	-0.034774277
50	0x3d0331fd	0.032030094
51	0xbcb5b6ba	-0.022181857
52	0x3c903c43	0.01760686
53	0xbd02d2c3	-0.03193928
54	0xbc5be59e	-0.013421444
55	0x3d4c7d85	0.049924392
56	0xbc1e0b7c	-0.009646293
57	0xbd9c8062	-0.076416746
58	0x3d5b4a38	0.053537577
59	0x3c8561c4	0.01628197
60	0xbc5713da	-0.013127292
61	0xbc748f11	-0.014926688
62	0x3d06a496	0.032871805
63	0x3dbeaf6a	0.09310801
64	0x3cfe2768	0.03102465
65	0xbd2057c0	-0.039146185
66	0x3d5fe911	0.05466563
67	0x3d42efb2	0.047591873
68	0x3da5f431	0.081032164
69	0x3d47b28d	0.048754264
70	0xbaf46057	-0.0018644434
71	0xbc813252	-0.015771065
72	0xbcfa3b97	-0.030545993
73	0xbd8c8689	-0.06861598
74	0xbca558f5	-0.02018402
75	0xbd01c0f9	-0.031678174
76	0x3d8f7a1c	0.070057124
77	0xbcf5a515	-0.029985944
78	0x3c75d042	0.015003266
79	0x3d220a97	0.03956088
80	0xbdb72be8	-0.08943921
81	0xbc77aad2	-0.01511641
82	0x3c0765ef	0.008264049
83	0x3c74f9ba	0.014952118
84	0xbd121eaa	-0.035673775
85	0x3ce9250c	0.028460048
86	0xbd71ed6d	-0.059064317
87	0x3c0e21de	0.008675067
88	0xbd3cb921	-0.04607499
89	0x3d6d63f2	0.057956643
90	0x3d1d5735	0.038413245
91	0xbcce6399	-0.025193976
92	0xbd890c44	-0.066917926
93	0xbdc32551	-0.09528602
94	0xbcb8005c	-0.022461109
95	0x3b903104	0.0044003744
96	0x3c34f07e	0.011043666
97	0xbd914b86	-0.07094483
98	0xbd8628ab	-0.065507255
99	0x3d38b8a3	0.04509796
100	0xbd464081	-0.04840136
101	0xbc3ad67f	-0.011403679
102	0xbb05a69d	-0.0020393499
103	0x3d528fba	0.0514066
104	0xbbd28ba2	-0.006425337
105	0xb9a3bc5b	-0.00031230118
106	0x3cca820b	0.024720212
107	0xbd14c518	-0.036320776
108	0xbcac3d88	-0.021025434
109	0xbd13d0ca	-0.03608779
110	0x3b908975	0.0044109174
111	0xbcc0cb54	-0.023534454
112	0xbbcbafdb	-0.006216032
113	0xbb9eed8e	-0.004850096
114	0x3cee538f	0.029092578
115	0x3c317516	0.010831138
116	0x3cb9868e	0.022647168
117	0x3d35a382	0.044345386
118	0xbd1bf02d	-0.038070846
119	0xbd8f6b98	-0.07002944
120	0x3d8b0d43	0.06789639
121	0xbc2f711f	-0.0107081225
122	0x3d2b3b5e	0.041804664
123	0x3d511382	0.051043995
124	0x3ca0a546	0.019610059
125	0x3ce63a56	0.028103989
126	0xbd8f8c6a	-0.07009204
127	0x3d4270d3	0.04747088
128	0xbc6a43fc	-0.014298435
129	0x3d86e2f9	0.0658626
130	0x3d742112	0.05960185
131	0xbcc6eaa5	-0.02428181
132	0x3d6e7f14	0.05822666
133	0x3d2b2fe8	0.041793734
134	0xbd0d3601	-0.03447533
135	0xbd825ccb	-0.06365355
136	0x3d021620	0.03175938
137	0x3d0cbcba	0.03435967
138	0xbd42994e	-0.047509484
139	0xbc8d22ea	-0.017228562
140	0x3d1cd213	0.03828628
141	0xbcd37eca	-0.025817294
142	0xbc9e34f6	-0.019312363
143	0x3d6f26b2	0.058386512
144	0x3c8cb64a	0.017176766
145	0x3d22ce9a	0.03974781
146	0x3cb4e183	0.022080189
147	0xbcd1864f	-0.025576739
148	0x3cfe383b	0.031032672
149	0xbd4fb511	-0.050709788
150	0x3d714e15	0.058912355
151	0x3c4b9b47	0.012427158
152	0x3d993025	0.07479886
153	0x3da139db	0.07872363
154	0x3ca72d9b	0.020407489
155	0xba2341f0	-0.0006227782
156	0xbd8b2d8d	-0.067957975
157	0x3d240db6	0.04005214
158	0x3c9089f4	0.017643906
159	0xbd49bcd4	-0.049252346
160	0xbd201fd9	-0.039092872
161	0x3d8296c7	0.06376415
162	0xbb9bba30	-0.00475242
163	0x3d19eaa3	0.037577283
164	0xbcdeb43f	-0.027185557
165	0xbc866906	-0.016407501
166	0x3dbe8cc6	0.09304194
167	0x3d0927b2	0.033485122
168	0x3b16e5e2	0.0023025204
169	0xbba0a9cf	-0.0049030553
170	0x3d66f11c	0.056382284
171	0x3d4fb088	0.050705463
172	0x3b8fee91	0.004392453
173	0xbccf9ed5	-0.025344292
174	0x3c36c7dd	0.01115605
175	0x3c065442	0.0081988
176	0xbb964aa1	-0.004586533
177	0x3d600306	0.054690383
178	0xbc7835d0	-0.015149549
179	0xbc937acf	-0.018002896
180	0x3ca5c639	0.020236121
181	0x3ca0c333	0.019624328
182	0xbd2daab2	-0.042399116
183	0x3b8ec49e	0.0043569347
184	0xbbdee74d	-0.0068024755
185	0xbd071dcd	-0.032987405
186	0x3c7edf53	0.015556174
187	0xbc86ef6a	-0.016471583
188	0xbaaf4d51	-0.0013374483
189	0x3cf36712	0.029712234
190	0x3d23138f	0.039813574
191	0x3c004063	0.007827851
192	0xbd16bd47	-0.036801603
193	0x3baa7dc0	0.005202979
194	0xbd3ce013	-0.04611213
195	0xbc0ceea1	-0.008601815
196	0xbd061a15	-0.032739718
197	0xbd4dc455	-0.050236065
198	0xbd587c0b	-0.05285267
199	0x3d278ae4	0.04090394
200	0xbd50e3e0	-0.05099857
201	0x3cf7f3b1	0.030267568
202	0xbc4d7b53	-0.01254161
203	0x3d5680a4	0.052368775
204	0x3d4ec2c7	0.050478723
205	0x3d89d3f0	0.06729877
206	0xbd523998	-0.051324457
207	0x3d6a802e	0.057251148
208	0xbd728ac7	-0.05921438
209	0xbdc0ebc9	-0.094199724
210	0xbc1c680a	-0.009546289
211	0x3d723191	0.0591293
212	0x3ba391c1	0.0049917405
213	0xbb5bed11	-0.003355805
214	0xbd2785e3	-0.04089917
215	0x3c085f4a	0.0083235
216	0x3cadb4a5	0.021204302
217	0xbd5b5955	-0.05355199
218	0xbd5f3747	-0.054496076
219	0xbcae9818	-0.021312758
220	0x3c94b583	0.018152958
221	0xbd4cac17	-0.049968805
222	0x3cf30a53	0.029668009
223	0xbd98ca51	-0.07460464
224	0x3d4a20f4	0.049347833
225	0xbb7bf531	-0.0038445706
226	0x3c7cf8eb	0.015440206
227	0xbd4c9b47	-0.04995277
228	0x3d890bb0	0.06691682
229	0x3d8d4894	0.06898609
230	0x3b8c8427	0.0042882147
231	0x3cdf00b1	0.02722201
232	0x3c5aff00	0.013366461
233	0xbdc43e58	-0.095822036
234	0xbd506f1b	-0.05088721
235	0x3d87f1f1	0.066379435
236	0x3bf2294c	0.007390177
237	0xbd2733be	-0.04082083
238	0x3a4a2d31	0.00077124225
239	0xbd89b726	-0.06724386
240	0x3cd980ed	0.026550734
241	0x3d37a174	0.044831708
242	0x3d4324b1	0.047642414
243	0xbd5bd19d	-0.0536667
244	0xbcfe2f55	-0.031028429
245	0xbd8efc35	-0.069816984
246	0xbd9d3654	-0.07676378
247	0xbbf1287d	-0.007359563
248	0xbc856ac8	-0.016286269
249	0x3d8d56e3	0.06901338
250	0xbcbbc1d6	-0.022919577
251	0xbb323e93	-0.0027197942
252	0xbd11ffe6	-0.035644434
253	0xbd1c6517	-0.038182344
254	0xbdab0372	-0.083502665
255	0xbc08cb5e	-0.008349268

mu.2.bias f4 [256]
0	0xbb70a792	-0.0036720973
1	0xbccc7e79	-0.02496265
2	0x3d654b65	0.055980105
3	0x3d14115b	0.036149364
4	0xbc5c5ab1	-0.013449357
5	0xbc2e3f20	-0.010635167
6	0xbb304ad9	-0.0026900081
7	0x3d58b7de	0.052909724
8	0xbd647ed5	-0.05578502
9	0xbcc39607	-0.02387525
10	0xbd2ac9fd	-0.041696537
11	0xbd19ca96	-0.037546717
12	0x3bcb6ca8	0.006208021
13	0xbc45272f	-0.012033268
14	0xbb5e890c	-0.0033956198
15	0x3d2dcb68	0.04243031
16	0xbb6d4865	-0.003620648
17	0xbc8d91a8	-0.017281368
18	0xbd0b4e6a	-0.03401033
19	0xbd46e8bd	-0.0485618
20	0xbcffc4a3	-0.031221693
21	0xbba89142	-0.005144269
22	0x3bdf2b80	0.0068106055
23	0x3c1bc286	0.009506827
24	0x3d1662a4	0.036715165
25	0xbc2d7fea	-0.010589579
26	0x3d5d33b1	0.054004375
27	0x3d49cd49	0.04926804
28	0x3c75690e	0.01497866
29	0x3d3fd1fc	0.046831116
30	0xba9ec16c	-0.0012112088
31	0xbd5f7725	-0.054556984
32	0x3d87a46d	0.066231586
33	0x3d85d299	0.06534309
34	0xbc041c29	-0.0080633545
35	0x3d5c1050	0.053726494
36	0xbd3c245b	-0.04593311
37	0x3d016bce	0.03159695
38	0xbcec488a	-0.028843183
39	0xbd2bff55	-0.04199155
40	0xbd8345fc	-0.06409833
41	0x3bd04d8b	0.0063569
42	0xbd34fb76	-0.044185124
43	0xbc641075	-0.013919939
44	0xbd112c49	-0.035442624
45	0x3d3ab115	0.045579035
46	0xbcd23c39	-0.025663482
47	0xbb3cc449	-0.0028803519
48	0x3aaea3fc	0.0013324018
49	0xbcd2868c	-0.025698923
50	0xbcb3cfbf	-0.021949647
51	0xbceea2f6	-0.02913044
52	0x3d180c9d	0.037121404
53	0xbc88ef8a	-0.016715784
54	0xbd56f457	-0.052479114
55	0xbcfa97ae	-0.030589905
56	0x3ccff5c6	0.025385749
57	0xbd5dd334	-0.054156497
58	0x3c4ee5ea	0.012628058
59	0xbd003aa8	-0.03130594
60	0x3ccc9297	0.024972243
61	0x3c031111	0.007999674
62	0x3b9fd659	0.004877847
63	0xbd623d70	-0.055234373
64	0x3d855910	0.06511128
65	0x3cfe26c6	0.031024348
66	0x3c01ce28	0.007922687
67	0x3c4a0d9f	0.012332349
68	0x3d052e93	0.03251512
69	0xbd69c454	-0.057072
70	0xbcb5f581	-0.022211792
71	0xbc77d0ff	-0.015125512
72	0x3d0a3ba5	0.033748288
73	0x3cf22c92	0.029562268
74	0xbceee64a	-0.029162545
75	0xba4a6233	-0.00077203213
76	0xbcedc171	-0.029022904
77	0x3bef159e	0.007296278
78	0x3d200b0c	0.039073035
79	0xbc33b826	-0.010969197
80	0xbd6a8b0c	-0.05726151
81	0xbd2343b2	-0.03985948
82	0x3d2621a6	0.040559433
83	0xbd21ef27	-0.039534714
84	0xbc3dddd3	-0.011588532
85	0x3a82b5a3	0.0009972345
86	0x3d66188c	0.056175753
87	0x3be00c9e	0.0068374416
88	0x3d162b48	0.03666237
89	0x3c484ffb	0.0122261
90	0x3d104160	0.035218596
91	0xbd4bed5b	-0.049786907
92	0x3ca8117e	0.020516153
93	0xbc8ee7b6	-0.017444473
94	0x3d7de137	0.06198236
95	0x3d1d4e4b	0.038404744
96	0x3c570a73	0.01312505
97	0x3d5ed3f9	0.05440137
98	0x3d2671e9	0.040635977
99	0x3bc42662	0.005986021
100	0x3cc0781d	0.023494774
101	0x3d76f2ee	0.06029027
102	0x3d106293	0.035250258
103	0xbd53dd23	-0.051724564
104	0x3ce4acb2	0.027914379
105	0xbd2b6705	-0.041846294
106	0xbd4857af	-0.048911747
107	0xbd29f191	-0.04149014
108	0x3c8ddb4b	0.017316481
109	0x3d16e4e6	0.03683939
110	0xbd831bf0	-0.06401813
111	0xbcf15189	-0.029457824
112	0x3c8c2d36	0.017111402
113	0x3c8c9411	0.017160447
114	0xbc0672b1	-0.0082060555
115	0x3ce07d13	0.02740339
116	0x3cec76c2	0.028865222
117	0xbd5e3ace	-0.0542553
118	0x3ba6759a	0.005079937
119	0xb99c612d	-0.0002982704
120	0x3d27b2c9	0.040941987
121	0xbd026743	-0.03183676
122	0xbd779850	-0.06044799
123	0xbd5b6288	-0.053560764
124	0xbd3b344b	-0.045704167
125	0xbd5038ae	-0.050835304
126	0xbd757413	-0.05992515
127	0xbbb66fd4	-0.00556753
128	0x3d3af419	0.045642946
129	0x3d5a8b77	0.05335566
130	0xbd2649c3	-0.04059769
131	0xbd3d7c54	-0.046261147
132	0xbcdd2cde	-0.026998933
133	0xbd844bc5	-0.064597644
134	0xbd432f06	-0.047652267
135	0x3d19389f	0.037407514
136	0xbd446a0b	-0.047952693
137	0xbcb79e36	-0.022414308
138	0xbd323859	-0.04351077
139	0xbcaa9d42	-0.02082694
140	0xbd8971a1	-0.06711126
141	0x3d25b9ff	0.040460583
142	0x3ca16c0d	0.019704843
143	0x3d80cbfa	0.062889054
144	0xbd625a23	-0.055261742
145	0xbd3b5c35	-0.045742232
146	0xbd18a8a1	-0.037270192
147	0x3d5b1d09	0.053494487
148	0xbd6c0ea6	-0.057631157
149	0xbc18a165	-0.009315823
150	0x3a2204cd	0.0006180525
151	0xbd0029c7	-0.031289842
152	0x3cb5b116	0.022179168
153	0xbd285c36	-0.041103564
154	0xbbf2edbd	-0.0074135945
155	0xbcf19e18	-0.02949433
156	0x3d2a2723	0.04154123
157	0x3d657819	0.056022737
158	0x3cfcdcaf	0.030866949
159	0x3d4c4d79	0.04987857
160	0x3d044a8a	0.03229765
161	0x3d309e98	0.043119997
162	0x3d3a8d6a	0.04554502
163	0x3d065b7d	0.032802094
164	0xbd3d4328	-0.046206623
165	0x3d5b2bc3	0.05350853
166	0xbc06bbde	-0.008223502
167	0xbd3672c9	-0.04454306
168	0xbcf13e63	-0.029448694
169	0x3c4debd7	0.012568436
170	0x3c537e90	0.012908593
171	0x3d7c7add	0.06164061
172	0xbd2f7105	-0.042832393
173	0xbaabee10	-0.0013117213
174	0xbd2e5e22	-0.04257024
175	0x3bfebd11	0.0077740033
176	0xbbf7d244	-0.0075629074
177	0xbcb6db2f	-0.022321312
178	0x3c94ee31	0.018179985
179	0x3aa3631f	0.0012465453
180	0x3cf794ca	0.030222315
181	0x3cf22d17	0.029562516
182	0x3d00ee6e	0.031477384
183	0x3d0304cb	0.031986993
184	0xbd3e05d1	-0.046392266
185	0xbcc5ca35	-0.024144271
186	0xbaa95bdb	-0.0012921052
187	0xbcec800e	-0.028869655
188	0xbd2c3cab	-0.042050045
189	0x3b145d91	0.0022638778
190	0x3d496a5e	0.049173705
191	0xbc911a0d	-0.017712617
192	0xbd04325d	-0.032274593
193	0xbcbd39d4	-0.023098864
194	0x3d6e05eb	0.058111113
195	0xbcf1bd8d	-0.02950933
196	0xbcf9bd80	-0.030485868
197	0x3c189cf5	0.009314765
198	0x3c47de1e	0.012198953
199	0xbd453a1f	-0.04815113
200	0xbd2dab0e	-0.04239946
201	0xbcb0bc52	-0.021574173
202	0x3d20f407	0.039295223
203	0x3c34f913	0.011045712
204	0xbcf84bf3	-0.030309653
205	0x3d5e972b	0.054343384
206	0xbd1e6992	-0.0386749
207	0x3cef99c4	0.029248126
208	0xba9c730c	-0.0011936142
209	0xbc5e9589	-0.013585457
210	0xbcac18f1	-0.021007987
211	0x3b45812d	0.003013681
212	0x3c9988e4	0.018742032
213	0x3d1f247e	0.03885316
214	0x3c50d782	0.012746694
215	0x3c1d5412	0.009602563
216	0xbd87d00f	-0.06631481
217	0xbce8ac3f	-0.028402446
218	0x3d39e51b	0.045384508
219	0xbc98e3f1	-0.018663378
220	0x3c254792	0.0100878645
221	0xbd6ba2f9	-0.05752847
222	0xbbeac15f	-0.007164165
223	0x3d7775b8	0.060415
224	0xbbeb89e1	-0.0071880673
225	0xbbe56946	-0.007001075
226	0xbb304abd	-0.0026900016
227	0xbd454ef5	-0.048171002
228	0xbd05ccea	-0.032666124
229	0x3c4b42d8	0.0124060735
230	0x3b21adb8	0.0024670195
231	0xbd311961	-0.043237094
232	0xbcbd853a	-0.023134816
233	0x3d155117	0.036454286
234	0xbc7d0827	-0.015443838
235	0x3d380850	0.044929802
236	0xbc2fa6a3	-0.010720882
237	0x3d34a40d	0.044101764
238	0x3d3d72a8	0.046251923
239	0xbd100059	-0.03515658
240	0x3cf86ad9	0.030324386
241	0x3c9bfcf1	0.01904151
242	0xbd25064a	-0.0402892
243	0x3d11b9d3	0.035577606
244	0x3d3106ba	0.043219306
245	0xbca9a94a	-0.020710606
246	0xbd0ddbf4	-0.03463359
247	0xbad7f9a0	-0.0016477592
248	0x3d1b5f67	0.03793278
249	0xbd238dd1	-0.03993017
250	0xbd04ee3a	-0.032453753
251	0x3c39ab1b	0.011332299
252	0x3c813145	0.015770564
253	0xbd031b4e	-0.03200846
254	0xbd0854a7	-0.033283856
255	0x3cacee87	0.021109832

mu.4.weight f4 [19, 256]
0	0x3d8fda82	0.07024099
1	0xbd6e0287	-0.05810788
2	0xbd7dcbb7	-0.061961856
3	0x3d8a6d8c	0.06759176
4	0xbc80510f	-0.015663652
5	0xbd2248a0	-0.03962004
6	0x3d1b665d	0.037939418
7	0x3bb9b58d	0.0056673945
8	0xbd8abf40	-0.06774759
9	0x3d0f3df2	0.034971185
10	0x3c1fa476	0.0097438
11	0x3d25bd6d	0.040463854
12	0x3cecfc1d	0.02892881
13	0x3d4fac17	0.050701227
14	0x3d3dc818	0.046333402
15	0xbc31d437	-0.010853819
16	0xbdbec0e9	-0.093141384
17	0x3cf61fdb	0.030044487
18	0x3cc183c4	0.023622401
19	0x3d355565	0.04427089
20	0xbc854338	-0.016267404
21	0x3d1bf0ad	0.038071323
22	0xbd127331	-0.035754386
23	0xbcb8110e	-0.02246907
24	0xbb48ce26	-0.0030640452
25	0x3d5bc282	0.053652294
26	0xbd3b7654	-0.045767143
27	0x3d1764bc	0.036961302
28	0x3cb9dcad	0.022688234
29	0x3d4e0108	0.050293952
30	0x3a422592	0.0007406111
31	0x3cd83961	0.026394548
32	0xbdbc3f40	-0.091917515
33	0x3c20c869	0.0098134065
34	0xbd5da2d8	-0.054110378
35	0x3d4f6531	0.050633613
36	0x3d0fed1f	0.035138246
37	0x3bfff046	0.0078106252
38	0xbd7212f4	-0.059100106
39	0xbb143336	-0.0022613532
40	0xbd6b46b3	-0.05744047
41	0x3d82fabc	0.0639548
42	0x3cce3609	0.02517225
43	0x3d5b5a2b	0.053552788
44	0xbd5eb91f	-0.054375764
45	0x3dbcb69e	0.09214519
46	0x3ce7abf8	0.028280243
47	0x3d9b00ae	0.07568489
48	0x3b891715	0.00418366
49	0xbda28274	-0.07935038
50	0x3c055561	0.008138032
51	0xba44b7b3	-0.000750418
52	0xbd981522	-0.07425906
53	0xbc2d8e93	-0.010593074
54	0x3d152854	0.036415413
55	0xbd131b4a	-0.035914697
56	0x3d5c1548	0.053731233
57	0xbd3bb22d	-0.04582422
58	0x3da735fe	0.08164595
59	0xbd876c25	-0.06612424
60	0x3d165660	0.036703467
61	0x3c3893c2	0.011265697
62	0xbda9c6e1	-0.08289886
63	0xba1f0bda	-0.00060671347
64	0xbd2896ac	-0.041159317
65	0xbd881d74	-0.06646243
66	0xbd486203	-0.048921596
67	0x3dab1a0d	0.08354578
68	0x3ce8b389	0.028405922
69	0x3d8a5c21	0.067558534
70	0xbd5469c0	-0.051858664
71	0x3dae5b53	0.085135125
72	0xbd5250c2	-0.051346548
73	0x3d1ea5ac	0.038732216
74	0xbd9096e2	-0.070600286
75	0xbd8506bc	-0.06495425
76	0x3d1efbe3	0.038814437
77	0xbcf91a33	-0.030408
78	0xbd5c2cb2	-0.053753562
79	0x3cdd9f10	0.027053386
80	0xbad10e42	-0.0015949684
81	0x3b17d745	0.0023169082
82	0xbd79a39c	-0.060947046
83	0x3c7fdf21	0.015617163
84	0xbd8b85ac	-0.06812605
85	0xbc75da61	-0.015005679
86	0xbd5eeac1	-0.054423098
87	0x3d8513bf	0.06497907
88	0xba367e87	-0.0006961603
89	0x3d221e9c	0.039579973
90	0xbcaa39a8	-0.020779446
91	0xbd9ba6b3	-0.07600155
92	0xbbcc9b4e	-0.0062440997
93	0xbd8a39e0	-0.0674932
94	0x3da704ae	0.081551895
95	0xbd81d13b	-0.06338736
96	0x3cbaed7e	0.022818323
97	0x3d5a74fc	0.05333422
98	0x3d645aa3	0.0557505
99	0xbda2b5af	-0.0794481
100	0xbd675cee	-0.05648511
101	0x3d0d05c1	0.034429315
102	0x3d6ed80a	0.0583115
103	0x3cc049da	0.023472715
104	0xbd30ccc9	-0.04316405
105	0x3c567eea	0.013091782
106	0xbd81c3a2	-0.06336142
107	0x3d40ab63	0.047038447
108	0xbdb369c0	-0.087604046
109	0x3d17b864	0.037041083
110	0x3c1ffac2	0.009764375
111	0x3d66a242	0.056307085
112	0x3d2fcdbb	0.04292081
113	0x3d2ffbdc	0.0429648
114	0x3d3db6e2	0.04631699
115	0x3cd74d70	0.026282042
116	0xbd843442	-0.0645528
117	0x3d2a2455	0.041538555
118	0x3c67d6b3	0.014150309
119	0x3cca517e	0.024697062
120	0xbd53f478	-0.051746815
121	0x3d9365ee	0.07197176
122	0x3c81434d	0.015779162
123	0xbd65ed1a	-0.05613432
124	0x3b8d6106	0.0043145446
125	0x3d44b5d0	0.048024952
126	0xbd058816	-0.032600485
127	0x3d51dca7	0.05123582
128	0x39bca0ea	0.00035978045
129	0x3b583ea7	0.0032996328
130	0x3be9bce2	0.0071331123
131	0x3cfd2536	0.030901533
132	0xbd05e8b5	-0.03269263
133	0xbd64312a	-0.05571095
134	0x3d2d0a05	0.042245883
135	0xbbc81078	-0.006105479
136	0x3c665235	0.014057686
137	0x3d944075	0.07238857
138	0x3d94abe1	0.07259346
139	0x3d482adf	0.04886901
140	0x3d896e36	0.06710474
141	0xbd6d0df6	-0.057874642
142	0xbdd603ef	-0.10449969
143	0xbd532aff	-0.051554676
144	0xbd17b1e5	-0.037034888
145	0x3c4b0cce	0.01239319
146	0x3c72f6aa	0.014829317
147	0x3c67b788	0.014142878
148	0xbd8ed494	-0.0697414
149	0x3d9e1139	0.07718129
150	0x3cd64863	0.026157564
151	0x3c8c78f2	0.017147515
152	0xbd67f3b1	-0.056628887
153	0xbd2588b9	-0.040413592
154	0xbc982495	-0.018572131
155	0x3d20c7d2	0.039253063
156	0x3d72b9b6	0.05925914
157	0xbcfd757e	-0.030939814
158	0x3c195525	0.009358679
159	0xbd1ecae9	-0.03876773
160	0x3c82aca4	0.015951462
161	0xbc5e79c9	-0.0135788405
162	0xbc35419f	-0.011063009
163	0xbd09459d	-0.033513654
164	0xbd1a5562	-0.037679084
165	0xbcb9b67f	-0.022670029
166	0x3cad0512	0.021120582
167	0x3d1ff2be	0.039049856
168	0xbd648651	-0.055792157
169	0xbd879e82	-0.0662203
170	0xbd8ff982	-0.07030012
171	0x3d44571a	0.04793463
172	0x3d56d388	0.052447826
173	0x3d4234a3	0.04741348
174	0xbc273ee0	-0.010207862
175	0x3a82c243	0.0009976107
176	0xbcf57f75	-0.029968003
177	0xbcb8f148	-0.02257599
178	0xbc7aebdd	-0.015315023
179	0xbd645b8d	-0.055751372
180	0x3c1b760c	0.009488594
181	0xbc5ff285	-0.013668661
182	0x3d17f669	0.03710023
183	0xbb33989a	-0.002740419
184	0x3d06b45b	0.032886844
185	0xbb56330b	-0.0032684233
186	0x3d763f2f	0.06011885
187	0x3d441ea0	0.04788077
188	0x3d903ea4	0.07043198
189	0x3d0159f5	0.03157993
190	0x3d2ff87e	0.04296159
191	0x3d8606ce	0.06544267
192	0xbc58188a	-0.013189444
193	0xbb849358	-0.004045885
194	0x3d75a41d	0.059970964
195	0xbd1c1894	-0.038109377
196	0x3cf006d2	0.029300127
197	0x3aaa5e2b	0.0012998035
198	0x3d354175	0.044251878
199	0xbd57aa84	-0.05265285
200	0x3d2d5c95	0.04232462
201	0x3d12c3e7	0.03583136
202	0x3be09f2f	0.0068549137
203	0x3bae789f	0.0053244377
204	0x3cdefcb0	0.0272201
205	0x3ceaaf66	0.02864809
206	0xbd3c77fc	-0.046012864
207	0x394a6f5c	0.00019305706
208	0x3cbff5d8	0.023432657
209	0xbdab2921	-0.08357454
210	0xbcc24090	-0.023712426
211	0xbd8a8bcf	-0.067649476
212	0x3d66ae4f	0.056318577
213	0xbd832123	-0.06402805
214	0x3bc7addb	0.0060937232
215	0xbd053c02	-0.03252793
216	0x3d6ae8d6	0.057350956
217	0xbdc17122	-0.094454065
218	0xbbe0314b	-0.0068418137
219	0xbd13deee	-0.036101274
220	0x3b1c9562	0.002389275
221	0x3a53ee02	0.0008084477
222	0x3a9b80db	0.0011863963
223	0x3d99a8aa	0.07502873
224	0x3a7fbf3b	0.00097559736
225	0xbb9a70b6	-0.004713143
226	0xbd8d695c	-0.06904861
227	0x3c95aedb	0.018271854
228	0xbd5d0534	-0.05396004
229	0x3d41527d	0.047197808
230	0x3ca6b995	0.020352164
231	0x3c8d8591	0.017275603
232	0x3d75af92	0.05998189
233	0xbd4c85f3	-0.04993243
234	0xbd6d1e02	-0.057889946
235	0x3c1574ed	0.009122116
236	0x3d0484cc	0.032353207
237	0x3d88e3e3	0.06684091
238	0xbd5e06da	-0.054205753
239	0xbd4ce1f5	-0.050020177
240	0xbda24535	-0.079233564
241	0x3cb9ef69	0.022697167
242	0xbd004316	-0.031313978
243	0xbd8676e2	-0.06565644
244	0x3d0c507b	0.03425644
245	0xbdb8d94d	-0.09025822
246	0xbd97f615	-0.07419983
247	0x3ca44461	0.020052137
248	0xbd871a19	-0.065967746
249	0xbc8f06c1	-0.017459275
250	0x3d8830f1	0.0664996
251	0x3d1f674d	0.038916875
252	0x3d2f702b	0.04283158
253	0xbd738647	-0.05945423
254	0xbda587b8	-0.08082527
255	0xbd42bc34	-0.047542766

mu.4.bias f4 [19]
0	0x3d0c4a74	0.03425069
1	0xbcf31c8d	-0.0296767
2	0x3d0d9999	0.03457031
3	0xbc955a25	-0.01823146
4	0xbd774e0d	-0.06037717
5	0x3d240510	0.04004389
6	0xbd8416f7	-0.06449693
7	0xbc6579fd	-0.014006135
8	0x3c9132b6	0.017724376
9	0xbca0e91a	-0.019642401
10	0xbcee0b14	-0.029058017
11	0xbcda9277	-0.026681168
12	0x3c3fef97	0.0117148375
13	0x3caf2fa1	0.021385016
14	0xbd03e628	-0.032201916
15	0x3c53279a	0.01288786
16	0x3c3d1d9c	0.011542704
17	0xbd6967eb	-0.05698387
18	0xbd72cc42	-0.059276827
