AM_RL/planner/model/pretraining_planner.pth (torch, 309056 bytes, 6 tensors)

net.0.weight f4 [256, 22]
0	0x3d4a84a6	0.04944291
1	0xbd7f456b	-0.06232206
2	0xbcdae906	-0.026722442
3	0xbe1a6464	-0.15077358
4	0x3d449404	0.04799272
5	0x3e538a78	0.2065829
6	0xbe016722	-0.12636998
7	0x3e1d75f7	0.15377031
8	0x3c5a2cc9	0.013316342
9	0xbe698b85	-0.22807129
10	0xbe1f51d2	-0.15558556
11	0x3dff91f2	0.12479009
12	0x3dd006fc	0.10157582
13	0xbcdd9133	-0.027046775
14	0x3ad9baca	0.0016611454
15	0xbd205c5c	-0.03915058
16	0xbe5ccaf8	-0.21561801
17	0x3e5ced86	0.21574983
18	0xbe23f1de	-0.16010234
19	0xbd08481d	-0.033271898
20	0xbcd8bc1b	-0.026456883
21	0x3e5fa158	0.21838892
22	0x3c331193	0.010929483
23	0xbc41650e	-0.0118038785
24	0x3c7f9c83	0.01560128
25	0xbe571f7c	-0.21008104
26	0xbcc601ad	-0.024170721
27	0x3e35f00f	0.17767356
28	0x3e0bf609	0.13668074
29	0x3d6f6c6d	0.058453012
30	0x3e7dc61a	0.24782601
31	0x3d47261c	0.04862033
32	0x3ddc6c34	0.107628256
33	0x3dd72995	0.10505978
34	0x3d8b1046	0.06790213
35	0x3e1f6c93	0.15568762
36	0x3e3ec88c	0.1863119
37	0xbe781013	-0.24224882
38	0xbbfdaf07	-0.007741812
39	0x3c64a1d4	0.013954598
40	0x3d9f1a7c	0.07768723
41	0xbdaa0ede	-0.08303617
42	0x3e2cfe3a	0.16893855
43	0x3e44b335	0.19208987
44	0xbe009171	-0.12555481
45	0x3d863e41	0.06554843
46	0x3a3141c0	0.00067618117
47	0x3cfa00d0	0.030517966
48	0x3d9ed65d	0.0775573
49	0x3c6d0fdd	0.014469114
50	0x3df35c50	0.118828416
51	0x3d95153e	0.07279442
52	0xbe002004	-0.12512213
53	0x3e3e834c	0.18604773
54	0xbde798c3	-0.11308434
55	0x3e69755a	0.22798672
56	0xbc94a63d	-0.018145675
57	0xbdf66128	-0.1203025
58	0xbc16d467	-0.009205914
59	0xbca6970a	-0.020335693
60	0xbc5de26d	-0.013542754
61	0xbd4fb1a6	-0.050706528
62	0x3e773ea4	0.24144989
63	0x3df28f09	0.11843688
64	0x3d70a099	0.058746908
65	0xbe6a8eb3	-0.22905998
66	0x3e2843f3	0.1643217
67	0xbe2ca14a	-0.16858402
68	0x3e37d8c7	0.17953788
69	0x3e46a6e7	0.19399606
70	0xbe595af1	-0.21226098
71	0xbe15a6e3	-0.14614443
72	0xbd6964cb	-0.05698089
73	0xbe8462be	-0.25856584
74	0xbe07bec8	-0.13256371
75	0x3e291657	0.16512428
76	0x3e6869e3	0.22696643
77	0x3d322beb	0.043498915
78	0xbe9195fb	-0.2843474
79	0x3e13c3f3	0.14430217
80	0x3d9d3b25	0.076772965
81	0xbe1c8756	-0.15286002
82	0xbc8ac711	-0.016940625
83	0x3e634558	0.22194421
84	0xbd4a6768	-0.049415022
85	0xbe1cf2f6	-0.15327057
86	0x3d693ee5	0.056944747
87	0xbe0216e2	-0.12704042
88	0x3d2a84cc	0.04163055
89	0x3db26be8	0.08711988
90	0xbc051a47	-0.008123941
91	0x3e29d8cb	0.16586606
92	0xbdaa1454	-0.083046585
93	0x3dc08c37	0.09401744
94	0x3e15226d	0.14563914
95	0x3d735fb8	0.059417456
96	0x3ddf992b	0.10917886
97	0xbe6813eb	-0.22663848
98	0xbd8e9075	-0.06961147
99	0x3e3ada84	0.1824742
100	0x3f01e26a	0.50736105
101	0xbdfb1c9a	-0.12261315
102	0x3ca84f19	0.02054553
103	0xbda81089	-0.08206279
104	0x3e059758	0.13046014
105	0x3e2d3eb1	0.16918446
106	0x3d4c76d9	0.04991803
107	0xbe13e95f	-0.14444493
108	0xbd91bea0	-0.07116437
109	0xbe470dec	-0.19438905
110	0x3dce49c7	0.10072666
111	0xbe573614	-0.21016723
112	0x3da9b101	0.08285714
113	0x3e747edb	0.23876517
114	0x3e264bc9	0.16239847
115	0xbe41bb5c	-0.18919128
116	0xbe0e0257	-0.1386808
117	0x3cc7a774	0.02437184
118	0x3c33f14f	0.010982825
119	0xbe926aa2	-0.2859698
120	0x3e2c0ba7	0.1680132
121	0xbd8619dd	-0.06547902
122	0xbe870039	-0.26367357
123	0xbe1fc4db	-0.15602438
124	0xbc65f7de	-0.014036147
125	0x3e1fba21	0.15598346
126	0x3d540b9d	0.051768888
127	0xbd6b836e	-0.057498388
128	0x3d3e5fe1	0.046478156
129	0xbdcf9685	-0.10136131
130	0x3d707036	0.058700763
131	0x3e4d24fc	0.2003364
132	0x3e3adaa3	0.18247466
133	0x3e5c7d73	0.2153223
134	0xbe265271	-0.16242386
135	0xba198022	-0.000585558
136	0xbe464523	-0.19362311
137	0xbe0d1cc6	-0.13780507
138	0xbd7293ed	-0.059223104
139	0xbe5c0413	-0.21485929
140	0xbdb3e408	-0.08783728
141	0x3d816b48	0.063192904
142	0x3e01fe26	0.12694606
143	0x3e10290d	0.1407816
144	0x3eb2f7ef	0.34954783
145	0x3d410ca4	0.047131196
146	0x3e330571	0.17482544
147	0xbdc9bd73	-0.09850588
148	0xbd1726a8	-0.0369021
149	0xbc3ad1a3	-0.01140252
150	0x3e0c5a35	0.13706286
151	0xbe338c71	-0.17534043
152	0x3e48ced8	0.19610155
153	0xbdb5d223	-0.08877971
154	0xbd56843e	-0.05237221
155	0x3dfcbe7b	0.12341019
156	0xbe489410	-0.19587731
157	0xbea8ed84	-0.3299371
158	0x3db2af12	0.08724798
159	0x3e203228	0.15644133
160	0xbd1ce0a8	-0.038300186
161	0xbd911db7	-0.07085746
162	0xbe91c6fd	-0.2847213
163	0xbeab6712	-0.33477074
164	0x3e0d1612	0.1377795
165	0x3e6000ae	0.2187526
166	0x3d830c73	0.06398859
167	0x3d6edbef	0.058315214
168	0x3de36765	0.11103705
169	0xbe37c48a	-0.17946067
170	0xbddf21ee	-0.108951434
171	0xbd1d8d17	-0.038464632
172	0x3daf81e3	0.08569696
173	0xbdb3e1d9	-0.087833114
174	0x3df77c0b	0.12084206
175	0x3d89a0a8	0.06720096
176	0xbe1be554	-0.152242
177	0xbe700128	-0.23437941
178	0x3de259b9	0.110522695
179	0x3dbd49d4	0.09242597
180	0xbea81ed6	-0.32836026
181	0x3c125b8f	0.008932962
182	0x3e30141d	0.17195173
183	0xbe2e4d60	-0.17021704
184	0xbe3bdb07	-0.18345271
185	0x3d28efb4	0.041244224
186	0xbe76fb6a	-0.24119344
187	0xbe4b1538	-0.19832313
188	0x3c15d7d2	0.009145694
189	0x3e25a6ae	0.16176865
190	0x3dfb6667	0.12275391
191	0xbe1e22ad	-0.15442915
192	0x3dd852a0	0.105626345
193	0x3c798f69	0.015231946
194	0xbd6fe05d	-0.05856358
195	0x3e1f4f58	0.15557611
196	0x3d69cfe0	0.05708301
197	0x3e3e4a0b	0.18582933
198	0x3c2d146d	0.010563952
199	0xbc6ad0b2	-0.014331983
200	0x3e04f26c	0.12983102
201	0x3e860a24	0.26179612
202	0xbd86dbed	-0.06584916
203	0x3b69c26b	0.003566886
204	0x3df1fea0	0.11816144
205	0xbcbce1b9	-0.023056852
206	0x3dfc4e23	0.12319591
207	0x3e27b950	0.16379285
208	0xbe43be54	-0.19115573
209	0xbe82231a	-0.25417405
210	0xbe02e159	-0.12781276
211	0x3dd7e10a	0.1054097
212	0xbe129694	-0.14315253
213	0xbe042d2f	-0.12907861
214	0xbcf61cca	-0.030043025
215	0xbde75185	-0.112948455
216	0x3d8a4866	0.0675209
217	0x3df9b31f	0.12192368
218	0x3cc3dd29	0.023909168
219	0x3e419cdc	0.18907493
220	0xbe3b871b	-0.18313257
221	0xbe4dc614	-0.20095092
222	0xbe32be4d	-0.17455406
223	0x3c71d3cc	0.014759969
224	0x3dd5b9ef	0.10435855
225	0xbe643f10	-0.22289681
226	0x3e636877	0.22207819
227	0xbd0b1b7f	-0.03396177
228	0x3e9fe8bc	0.3123225
229	0xbe04dcd7	-0.12974869
230	0x3d575cc7	0.052578714
231	0xbe474da7	-0.19463216
232	0x3d3d5e43	0.046232473
233	0x3d902ddb	0.07039996
234	0x3e13b22e	0.14423439
235	0x3a482c4c	0.0007635995
236	0x3db96503	0.090524696
237	0xbd063d6c	-0.03277342
238	0x3e3eb041	0.18621923
239	0xbe19d938	-0.15024269
240	0x3d6cda6a	0.057825483
241	0xbe351b72	-0.17686251
242	0xbe160e1a	-0.14653817
243	0x3e7ba71f	0.2457547
244	0xbe3e350a	-0.1857492
245	0xbe87d483	-0.2652932
246	0xbdc739fe	-0.09727858
247	0xbdaccb54	-0.08437219
248	0xbd8ed997	-0.06975096
249	0xbe2981e6	-0.16553459
250	0x3e47e7be	0.19521996
251	0xbde75cb3	-0.11296978
252	0xbc44b647	-0.012006349
253	0xbd92d8da	-0.071702674
254	0xbd85857d	-0.065196015
255	0xbe094b16	-0.1340755

net.0.bias f4 [256]
0	0xbdf30711	-0.11866582
1	0xbd5945e3	-0.053045165
2	0x3db0e8e8	0.08638173
3	0xbda9f572	-0.08298768
4	0x3e0004f6	0.12501892
5	0xbdbf0c59	-0.09328527
6	0xbda97947	-0.08275085
7	0x3cd296ba	0.025706638
8	0x3d4b32cd	0.049608994
9	0xbda1c9a1	-0.07899786
10	0xbe30a9d1	-0.1725228
11	0xbe242d39	-0.16032876
12	0xbd9a33d3	-0.07529416
13	0xbe19b8b5	-0.15011866
14	0x3de54951	0.111956246
15	0x3e10ee6d	0.14153452
16	0xbdacc6e1	-0.08436371
17	0x3da9e173	0.08294954
18	0x3dcf8d84	0.10134414
19	0x3d72d26f	0.059282716
20	0xbe2696b4	-0.16268426
21	0x3e1fd686	0.15609178
22	0xbe1be592	-0.15224293
23	0xbe03375a	-0.12814084
24	0x3e03ae38	0.12859428
25	0x3e32c057	0.17456184
26	0xbc9043ab	-0.017610392
27	0xbd857da5	-0.065181054
28	0x3d2bf523	0.041981827
29	0xbe0d7a40	-0.13816166
30	0x3da3f9f6	0.08006661
31	0x3d8ad02c	0.06777987
32	0xbd0bb4e7	-0.03410807
33	0xbd2e745c	-0.042591438
34	0x3d03317d	0.032029618
35	0xbc00b1fa	-0.007854933
36	0xbe198868	-0.14993441
37	0xbe320dd2	-0.17388085
38	0x3d83d576	0.06437199
39	0xbc5164be	-0.012780366
40	0x3db23261	0.08701015
41	0x3df79b26	0.12090139
42	0xbe2f62c9	-0.17127527
43	0xbc483684	-0.012220029
44	0x3d4362d0	0.047701657
45	0x3d920855	0.071304955
46	0x3d6ce1f5	0.057832677
47	0xbe403851	-0.18771483
48	0xbb9b0572	-0.0047308737
49	0x3daaa3ed	0.083320476
50	0x3d1a85db	0.03772531
51	0x3dd51946	0.10405211
52	0x3d516679	0.051123116
53	0xbd86fb5a	-0.0659091
54	0xbe1a43ba	-0.15064898
55	0x3def305d	0.116791464
56	0x3da2ff0d	0.07958803
57	0x3d994c9c	0.07485315
58	0x3d733f12	0.05938632
59	0x3cff9385	0.031198272
60	0x3c2ca6f3	0.010537851
61	0x3e07488c	0.13211268
62	0xbcd7915e	-0.026314434
63	0xbd2a1a9c	-0.041529283
64	0xbcde49de	-0.027134832
65	0x3d3e3334	0.04643555
66	0x3d07651c	0.03305541
67	0xbd52e992	-0.05149228
68	0x3da94e19	0.08266849
69	0xbd96c453	-0.073616646
70	0x3cf6c569	0.03012343
71	0x3d304883	0.043037903
72	0xbc54dadd	-0.012991634
73	0xbc381a6e	-0.01123677
74	0x3d982f8b	0.07430943
75	0xbd7b39dd	-0.06133448
76	0x3dc6000e	0.09667979
77	0xbd83a664	-0.06428221
78	0x3d5061fa	0.050874688
79	0x3d2dc926	0.04242816
80	0x3e24cbc3	0.16093354
81	0x3dded80e	0.10881053
82	0xbd8b39e8	-0.06798154
83	0xbe2b4e47	-0.16729079
84	0xbcc473e7	-0.023981048
85	0x3cfe6982	0.03105617
86	0xbd2c86bc	-0.04212068
87	0xbd36dfea	-0.044647135
88	0x3de10949	0.10988099
89	0x3d464938	0.04840967
90	0xbd139b95	-0.036037046
91	0xbdd84493	-0.105599545
92	0xbe485115	-0.1956218
93	0xbc90ee8e	-0.017691877
94	0x3d212dc5	0.03935029
95	0xbe331eed	-0.17492266
96	0x3c32c826	0.010911977
97	0x3cf20047	0.029541148
98	0x3d6e9655	0.058248837
99	0xbdbd7553	-0.092508934
100	0xbc1c6d94	-0.00954761
101	0x3d22a7fc	0.039710984
102	0xbd24739e	-0.040149324
103	0xbd70f4d7	-0.058827247
104	0x3ccfac95	0.025350848
105	0xbd9498af	-0.072556846
106	0xbd00c9c7	-0.03144243
107	0xbde29423	-0.11063411
108	0xbe1a627c	-0.15076631
109	0xbcc7934d	-0.02436223
110	0xbc659352	-0.014012175
111	0xbc9b52c7	-0.01896037
112	0xbdd96652	-0.10615219
113	0xbdc33561	-0.095316656
114	0xb78c14f5	-1.669906e-05
115	0x3dd5b5fb	0.10435101
116	0xbe05162d	-0.1299674
117	0x3d5f4660	0.054510474
118	0x3e1ff0a7	0.15619145
119	0x3cf01410	0.029306442
120	0xbd81592d	-0.06315837
121	0x3dcdb132	0.10043563
122	0x3dc33ec2	0.095334545
123	0x3dc8ba09	0.098011084
124	0x3c6240f6	0.013809433
125	0x3da7e5e2	0.081981435
126	0xbc63414e	-0.01387055
127	0xbcc8a1a5	-0.02449114
128	0xbe0a8cd7	-0.13530289
129	0xbdf23eb6	-0.118283674
130	0xbdbb7a1e	-0.091541514
131	0xbde7e48b	-0.11322888
132	0x3e1c5516	0.15266833
133	0x3e0fe87d	0.14053531
134	0xbe45d0cb	-0.1931793
135	0x3dd104da	0.102060035
136	0xbe0ef85a	-0.13961926
137	0x3cbb9b4a	0.022901196
138	0x3daeceee	0.085355625
139	0xbe3ebae2	-0.18625978
140	0xbbf3dea6	-0.0074423132
141	0x3dc3b37a	0.09555717
142	0x3d6dd406	0.05806353
143	0x3e03e27d	0.12879367
144	0xbd0e3f41	-0.034728292
145	0x3de96073	0.11395349
146	0x3d8d87b6	0.069106504
147	0x3d664365	0.056216616
148	0x3df7af76	0.120940134
149	0xbdadf94c	-0.08494815
150	0x3dfb40d9	0.12268228
151	0xbdf5fb00	-0.12010765
152	0xbd509d01	-0.05093098
153	0xbe2be089	-0.16784872
154	0x3e114d36	0.1418961
155	0x3e2f0306	0.17090997
156	0xbd1cd6cc	-0.038290784
157	0xbe1bd3db	-0.15217535
158	0x3ddb1f63	0.10699346
159	0xbc886f87	-0.016654743
160	0xbd977fe6	-0.073974416
161	0xbd75a472	-0.05997128
162	0xbe11ef7d	-0.14251514
163	0xbdca682b	-0.0988315
164	0xbd73322a	-0.059374012
165	0xbd98508d	-0.07437239
166	0xbc4138e5	-0.01179335
167	0xbdd7a800	-0.1053009
168	0xbe05e854	-0.13076907
169	0xbd5dd6f6	-0.05416008
170	0x3ce12419	0.027483033
171	0xbbe78447	-0.0070653292
172	0x3e066dfa	0.1312789
173	0x3e1dbbc7	0.15403663
174	0xbdef1be6	-0.11675243
175	0xbc88dd4b	-0.016707083
176	0x3c8120a7	0.01576264
177	0xbd51b5d8	-0.05119881
178	0xbe1cf1c9	-0.15326609
179	0xbc3824ab	-0.011239211
180	0x3d377ae6	0.04479494
181	0x3d388984	0.04505302
182	0x3d3184a4	0.043339387
183	0x3c827f05	0.015929708
184	0xbdb63212	-0.08896269
185	0x3e339100	0.17535782
186	0xbd241ed3	-0.04006846
187	0x3d9d3a59	0.076771446
188	0xbda6c6a7	-0.08143359
189	0x3d88b53c	0.06675193
190	0x3dbbc243	0.09167912
191	0xbe2a218d	-0.16614361
192	0x3cd42dfb	0.025900831
193	0x3dbea021	0.09307886
194	0x3b352550	0.0027640648
195	0xbc56edd4	-0.013118226
196	0xbdb0286a	-0.08601458
197	0xbe008096	-0.12549052
198	0x3de692e2	0.112584844
199	0xbda94bf3	-0.08266439
200	0xbbd1c656	-0.0064018173
201	0x3e025160	0.12726355
202	0x3c915dcd	0.017744923
203	0x3d1e797a	0.038690068
204	0xbc842260	-0.016129673
205	0x3e086812	0.1332095
206	0x3d3dccf5	0.04633804
207	0x3dfd06fe	0.12354849
208	0xbdae00ba	-0.08496232
209	0xbd3562eb	-0.04428379
210	0x3df2009b	0.11816522
211	0xbcd61b88	-0.026136175
212	0xbde35bca	-0.11101492
213	0xbd9dfe84	-0.07714561
214	0x3dbf2d03	0.09334757
215	0x3d3d8119	0.046265695
216	0xbd79e9db	-0.061014038
217	0x3d80981f	0.06279015
218	0xbbbb1538	-0.0057093166
219	0x3dfc1e69	0.12310488
220	0x3cc33378	0.023828253
221	0x3d477561	0.048695926
222	0x3d719fe3	0.05899037
223	0xbe090028	-0.13378966
224	0x3d8cfdee	0.06884371
225	0xbd2f96bc	-0.04286836
226	0x3ddb37a3	0.10703971
227	0x3de15a43	0.11003544
228	0xbdb9d42e	-0.09073673
229	0xbddfd661	-0.109295614
230	0xbe0d8a9f	-0.13822411
231	0xbbe94af3	-0.0071195303
232	0xbd85323a	-0.065037206
233	0xbe0fa90b	-0.14029329
234	0x3db61feb	0.088928066
235	0x3ddf1b9b	0.10893937
236	0x3d0ca714	0.034339026
237	0x3d8a930e	0.0676633
238	0xbc8b7729	-0.017024593
239	0xbd7ad1f8	-0.061235398
240	0xbb2dc35a	-0.0026514144
241	0x3ddb9639	0.10722012
242	0xbe3efaad	-0.18650313
243	0xbd89829f	-0.06714367
244	0xbdff691b	-0.12471219
245	0xbc8d89fa	-0.017277706
246	0xbd456a68	-0.04819718
247	0xbca0abf6	-0.019613247
248	0x3e364115	0.17798264
249	0xbdbc4941	-0.091936596
250	0xbdc0f7cb	-0.09422263
251	0x3d96b996	0.073596165
252	0x3e14e796	0.14541468
253	0x3dad0bd5	0.084495224
254	0x3cee00a5	0.029053042
255	0xbdc0a07a	-0.094056085

net.2.weight f4 [256, 256]
0	0x3be8a314	0.0070995186
1	0x3cce5c5f	0.02519053
2	0x3bfdffe1	0.0077514504
3	0x3c8855b9	0.016642438
4	0x3c507abc	0.012724575
5	0xbcadd578	-0.021219954
6	0x3d3d78fe	0.046257965
7	0xbc99ac64	-0.01875896
8	0xbc8688cc	-0.016422652
9	0xbcef425b	-0.029206445
10	0xbd8ae8fc	-0.067827195
11	0xbc9b21c4	-0.018937
12	0x3c9f254e	0.019426968
13	0x3d2df98c	0.042474315
14	0xbca1afcd	-0.019737149
15	0x3cdc9ab2	0.026929233
16	0x3d41850b	0.04724602
17	0x3cdab51e	0.026697692
18	0xbc686e38	-0.014186434
19	0xbcbb7f54	-0.022887863
20	0x3c942f06	0.018088829
21	0xbd18ffb1	-0.03735322
22	0x3d2925ad	0.041295696
23	0x3c904709	0.017611997
24	0x3d739022	0.059463628
25	0x3cc80229	0.024415093
26	0x3c348a76	0.01101934
27	0x3d281bf2	0.041042276
28	0x3d803e44	0.06261876
29	0x3d6a0ef5	0.05714317
30	0x3ca9bcf0	0.020719975
31	0xbbad1cab	-0.0052829585
32	0x3c9f4a60	0.019444644
33	0xbc788d54	-0.015170414
34	0xbc642114	-0.013923902
35	0xbc8078c4	-0.015682586
36	0xba1ada87	-0.0005907197
37	0xbd54d067	-0.05195656
38	0xbce872c1	-0.028375031
39	0x3c7815be	0.0151419025
40	0x3b251376	0.0025188602
41	0x3d4fa11b	0.05069075
42	0xbc97a08f	-0.018509177
43	0x3b8dc4bf	0.0043264325
44	0x3d3b727a	0.04576347
45	0x3d92a491	0.07160295
46	0x3c2c36c5	0.010511105
47	0xbcc7af01	-0.02437544
48	0xbcf5af33	-0.029990768
49	0x3b879603	0.004137756
50	0xbd17fba3	-0.037105214
51	0xbd79d7f9	-0.060996983
52	0xbcc7a7a7	-0.024371935
53	0x3c586714	0.0132081695
54	0x3cbb5a1b	0.022870114
55	0xbd8b137b	-0.06790825
56	0x3d0e6371	0.034762803
57	0xbbadae2e	-0.005300305
58	0x3d2f3967	0.042779353
59	0x3d2b737b	0.041858178
60	0xbcb92e26	-0.022605013
61	0xbd63ffaa	-0.055663742
62	0x3d08186d	0.03322642
63	0xbd610cf9	-0.054944012
64	0xbd3a919a	-0.045549013
65	0xbca47ea0	-0.02007991
66	0xbd4e07cb	-0.0503004
67	0xbc38d60a	-0.0112815
68	0x3d175678	0.036947697
69	0xbce0fd05	-0.0274644
70	0xbcd98805	-0.026554117
71	0xbc31a82d	-0.010843319
72	0xbce784f0	-0.028261632
73	0x3d9f9202	0.07791521
74	0xbc89d709	-0.01682617
75	0xbd61ee0b	-0.055158656
76	0x3b0c47d8	0.0021405127
77	0xbc97f8d2	-0.018551264
78	0x3d019337	0.031634536
79	0xbb83a9fa	-0.0040180655
80	0x3cf9ab1d	0.030477101
81	0x3d32452c	0.043523
82	0x3cbb5a6f	0.02287027
83	0x3d272313	0.040804934
84	0xbaaf2d8b	-0.0013365013
85	0x3bd8af45	0.0066126906
86	0x3cf02091	0.029312404
87	0xbc12aced	-0.0089523615
88	0xbc80b418	-0.015710875
89	0x3d187993	0.037225317
90	0xbd220f23	-0.039565217
91	0x3c934221	0.017975869
92	0x3d642cd4	0.055706814
93	0xbc56c6e9	-0.013108947
94	0x3d80fedf	0.06298613
95	0x3cb4da14	0.022076644
96	0xbd14645b	-0.03622852
97	0x3dc0f150	0.09421027
98	0x3d99d74c	0.07511768
99	0xbd1bf7ca	-0.038078107
100	0xbcba8513	-0.022768533
101	0xbd342845	-0.043983717
102	0x3ce35f20	0.02775532
103	0xbd6b69b7	-0.057473864
104	0xbd5afcc0	-0.053463697
105	0x3cc66230	0.024216741
106	0x3d08fc40	0.03344369
107	0xbd074b43	-0.03303076
108	0xbd21dc29	-0.0395166
109	0x3d397d44	0.04528548
110	0x3a6ac607	0.00089559
111	0xbc788516	-0.015168449
112	0x3d000f76	0.031264745
113	0xbd62f4b4	-0.05540915
114	0x3d2d1a46	0.042261384
115	0x3c9b560e	0.018961933
116	0x3d0ab1b4	0.033860877
117	0xbd2309af	-0.039804157
118	0xbc979dfd	-0.018507952
119	0xbd049d09	-0.032376323
120	0x3cf76f85	0.030204544
121	0x3d61c89e	0.055122964
122	0xbcf5bfb1	-0.029998632
123	0x3c0cf780	0.0086039305
124	0xbc4bc432	-0.012436913
125	0x3c8ea211	0.017411264
126	0x3d3fa75b	0.046790462
127	0x3d0b287a	0.03397415
128	0xbcbf5ae5	-0.023358772
129	0xba088c22	-0.00052088697
130	0x3d489b1e	0.048976056
131	0x3cdf2d35	0.027243236
132	0x3c706807	0.01467324
133	0xbd661a5a	-0.056177475
134	0x3c922a61	0.017842473
135	0xbc725b4d	-0.014792276
136	0xbd9ac0e4	-0.07556322
137	0xbd05e375	-0.032687623
138	0xbc9ff7e4	-0.019527383
139	0xbc2cf8ff	-0.010557412
140	0xbd0d72b5	-0.03453322
141	0x3d29b220	0.04142964
142	0xbd586c23	-0.052837502
143	0x3cc79b3d	0.024366016
144	0xbd5d3c92	-0.054012842
145	0xbd98e2a8	-0.07465106
146	0x38b0cefb	8.430887e-05
147	0xbca3864f	-0.019961504
148	0xbcd99c9e	-0.026563939
149	0xbd467732	-0.048453517
150	0x3d9af593	0.07566371
151	0xbd554c54	-0.052074745
152	0x3d1e2275	0.03860708
153	0xbd1438d1	-0.036186997
154	0x3c827e86	0.015929472
155	0x3c5a39c6	0.013319438
156	0xbd03ea82	-0.032206066
157	0x3b987557	0.00465266
158	0xbd2438e3	-0.040093314
159	0xbd0de0fd	-0.034638394
160	0xbca195bb	-0.019724717
161	0x3cec0d12	0.028814826
162	0x3d0159f6	0.031579934
163	0x3d4f4fb3	0.050613116
164	0xbbaf185d	-0.0053434805
165	0x3d1312ea	0.03590671
166	0xbb4257fa	-0.002965449
167	0x3cad17ff	0.021129606
168	0x3cbcaecf	0.023032574
169	0xbcde3577	-0.027125103
170	0x3cfcd396	0.03086261
171	0xbd162758	-0.036658615
172	0xbd403b66	-0.046931647
173	0x3d501974	0.050805524
174	0xbc8c6185	-0.017136345
175	0xbd4edc36	-0.05050298
176	0x3c7ed9d8	0.015554868
177	0xbd5fdb74	-0.054652646
178	0xbd54ef06	-0.051985763
179	0xbcc7cad6	-0.024388712
180	0xbd861534	-0.06547013
181	0xbd60e34a	-0.05490426
182	0xbcdfb7e2	-0.027309362
183	0xbc3e4409	-0.0116129005
184	0xbd307c7f	-0.04308748
185	0x3d1a5759	0.037680957
186	0x3b88fb23	0.0041803285
187	0xbc36d48a	-0.011159072
188	0x3cad7866	0.021175575
189	0xbd919e07	-0.071102194
190	0xbd69380d	-0.05693822
191	0x3d66690c	0.056252524
192	0x3bd8f1af	0.006620608
193	0xbcfeda25	-0.031109879
194	0xbd643e46	-0.05572345
195	0xbd68e795	-0.05686148
196	0xbcb6599e	-0.02225953
197	0x3cb54976	0.022129755
198	0xbba91d1f	-0.005160942
199	0xbc346bf3	-0.011012065
200	0x3cf65ed0	0.030074507
201	0x3c8511a3	0.016243761
202	0xbd4da122	-0.050202496
203	0x3c8fb65a	0.017543007
204	0xbd3548ab	-0.044258755
205	0xbc562218	-0.013069652
206	0xb881ca95	-6.188933e-05
207	0xbd7b538a	-0.061358966
208	0xbd0da4ed	-0.034581114
209	0x3c4d7657	0.012540421
210	0x3bfb4571	0.00766819
211	0x3d23b81f	0.039970513
212	0xbc1b2753	-0.009469825
213	0xbd27b7fd	-0.04094695
214	0xbbdfb378	-0.0068268143
215	0x3d797ad9	0.060908172
216	0xbcbb4e7f	-0.022864578
217	0x3ca8e9fa	0.020619381
218	0xbc1d2187	-0.009590513
219	0xba87eb43	-0.0010369796
220	0xbd78bfca	-0.06072978
221	0xbbbfa18b	-0.005848115
222	0xbd635a32	-0.05550594
223	0x3cf926b2	0.03041396
224	0x3cc18622	0.02362353
225	0x3c116114	0.008873243
226	0xbcbd1d45	-0.023085246
227	0xbc7540d1	-0.014969067
228	0xbcc892e2	-0.024484102
229	0x3b20213d	0.0024433874
230	0xbd9d0578	-0.07667059
231	0xbc85f5a2	-0.016352478
232	0x3c65e6e8	0.014032103
233	0xbd5ef26d	-0.054430414
234	0x3d4df70b	0.050284427
235	0x3d3a3eab	0.04546992
236	0xbbc331e5	-0.0059568756
237	0x3cc2210f	0.023697404
238	0x3b71ef82	0.003691644
239	0xbd7dc506	-0.061955474
240	0x3cc40237	0.023926837
241	0xbac2e878	-0.0014870306
242	0x3b550640	0.0032504946
243	0x3d18f26b	0.037340563
244	0x3c0102a7	0.0078741675
245	0x3d727f73	0.059203576
246	0x3bed802a	0.0072479444
247	0x3c2ccffc	0.010547634
248	0x3b93cf49	0.0045107943
249	0xbd20c3c2	-0.03924919
250	0xbc36cfe6	-0.011157965
251	0xbb6351c4	-0.0034686187
252	0x3c8d29c2	0.017231826
253	0xbd70ad36	-0.058758937
254	0x3c0044e5	0.007828926
255	0xbd567eb8	-0.052366942

net.2.bias f4 [256]
0	0xbbe65b5a	-0.007029933
1	0xbc85d4a1	-0.01633674
2	0xbb85d8eb	-0.0040846965
3	0x3cc1e0eb	0.02366682
4	0x3d2d4a50	0.042307198
5	0x3c05aa78	0.008158319
6	0x3cc89447	0.024484767
7	0x3c7dff41	0.015502752
8	0xbda7f78a	-0.08201511
9	0xbca58e22	-0.020209376
10	0x3d1bd600	0.038045883
11	0xbd096378	-0.033542126
12	0x3ca89ca1	0.020582499
13	0x3ba71a40	0.005099565
14	0x3d1f5da7	0.038907673
15	0xbd6677aa	-0.056266464
16	0xbd8da200	-0.06915665
17	0xbd5d7eb5	-0.054075915
18	0xbd1a83da	-0.0377234
19	0x3ba32fd0	0.004980065
20	0xbcadbdf3	-0.021208739
21	0xbd6ca58c	-0.057775065
22	0xbd8da6c0	-0.06916571
23	0xbd478317	-0.048709
24	0xba7e9882	-0.00097120565
25	0x3d5cdeae	0.0539233
26	0xbd4be64f	-0.049780186
27	0xbd5dccca	-0.05415038
28	0xbb9fc499	-0.004875731
29	0x3d4a8854	0.04944642
30	0x3b9bcaf7	0.00475442
31	0x3c6e3406	0.014538771
32	0x3d56def6	0.052458726
33	0xbd17f71d	-0.0371009
34	0xbcf91803	-0.030406957
35	0x3d3dd582	0.046346195
36	0x3cc8e607	0.024523748
37	0x3bcde6b1	0.006283604
38	0x3c85c397	0.016328616
39	0x3d6f65e9	0.0584468
40	0xbd1ec724	-0.038764134
41	0xbc38c882	-0.011278274
42	0xbd58e0ac	-0.05294864
43	0x3d5f16e3	0.054465186
44	0xbbd8e93c	-0.0066196006
45	0xbba1616e	-0.0049249446
46	0xbb1fd720	-0.00243897
47	0xbd1aeda4	-0.037824288
48	0x3cad2cfd	0.021139616
49	0xbbeab564	-0.0071627367
50	0x3c17a883	0.009256485
51	0x3d77b201	0.060472492
52	0x3c995fbe	0.018722411
53	0xba3dd8b7	-0.0007242071
54	0xbc26742a	-0.010159532
55	0xbd31320f	-0.04326063
56	0x3d1c503c	0.038162455
57	0xbd220f2a	-0.039565243
58	0x3d552382	0.052035816
59	0x3ca0caf5	0.019628027
60	0x3d8dd85f	0.06926035
61	0x3d31a132	0.04336662
62	0x3c46dfb5	0.012138297
63	0xbcf34eb2	-0.02970061
64	0xbaf0de9f	-0.0018376893
65	0xbd04f668	-0.032461554
66	0xbd9c8746	-0.07642989
67	0xbdbb0841	-0.09132434
68	0xbd4e0c15	-0.05030449
69	0x3d14c4d2	0.036320515
70	0xbd0795ba	-0.033101775
71	0xbca12b43	-0.01967395
72	0x3cb53c94	0.022123612
73	0x3cb267f2	0.02177808
74	0x3cbd0866	0.023075294
75	0x3bcbb8a2	0.0062170783
76	0x3c4ea942	0.012613596
77	0xbcbeac56	-0.023275536
78	0x3c802677	0.015643341
79	0xbcfcc2e0	-0.030854642
80	0x3a9b4d45	0.001184859
81	0x3aff67b4	0.0019485862
82	0x3bda0dff	0.0066545005
83	0x3c959808	0.01826097
84	0xbd00151e	-0.03127014
85	0x3c74cc57	0.014941297
86	0xbd60a61d	-0.054845918
87	0xbca8bdc6	-0.020598304
88	0xbd15e688	-0.036596805
89	0xbc2794c1	-0.010228337
90	0xbaab11df	-0.0013051591
91	0xbc87bf4b	-0.016570708
92	0xbcbd34fc	-0.023096554
93	0xbc9df9df	-0.019284187
94	0xbd554396	-0.052066408
95	0xbc16d689	-0.009206423
96	0xbc2e3fcd	-0.0106353285
97	0x3aa98095	0.0012931997
98	0xbc93ea0d	-0.01805594
99	0x3d5fe40b	0.054660838
100	0xbd6bc501	-0.057560924
101	0xbca3d75b	-0.02000015
102	0x3d825ff6	0.06365959
103	0xbd810f6a	-0.06301768
104	0xbc8c01a7	-0.017090632
105	0x3c575ece	0.013145162
106	0x3d29bbc6	0.04143884
107	0xbd8b853c	-0.06812522
108	0xbb79deee	-0.0038127261
109	0x3d342c97	0.043987837
110	0xbd53fd96	-0.05175551
111	0xbbaeeb12	-0.005338081
112	0xbbf20093	-0.0073853224
113	0x3d7ddb6d	0.06197684
114	0xbd373312	-0.04472644
115	0xbd1ec39b	-0.038760763
116	0x3d1d142b	0.03834931
117	0xbbadf053	-0.00530819
118	0xbd4c91ff	-0.04994392
119	0x3d11c6b4	0.03558989
120	0xbd376786	-0.044776462
121	0x3a141d3a	0.0005650107
122	0xbda3bf4b	-0.079954706
123	0x3d059195	0.03260954
124	0xbd450c29	-0.0481073
125	0x3cce744a	0.025201935
126	0x3d2dd3fa	0.042438485
127	0xbc4b274e	-0.012399508
128	0xbd09d006	-0.033645652
129	0x3c227f10	0.009917989
130	0xbcda00dd	-0.02661174
131	0xbce10a08	-0.027470604
132	0xbb199f7c	-0.0023441007
133	0x3d3c2f62	0.045943625
134	0xbcb70378	-0.022340521
135	0x3cd97e82	0.026549581
136	0x3d1bd73a	0.038047053
137	0xbcf24575	-0.029574135
138	0x3c80026a	0.015626151
139	0xbc9a8aac	-0.018864952
140	0xbcc19889	-0.023632305
141	0x3d6c318a	0.05766443
142	0x3d63ff29	0.05566326
143	0xbd8d9f07	-0.06915098
144	0xbccd227b	-0.025040856
145	0xbd60b510	-0.054860175
146	0x3c67f2c4	0.014157001
147	0x3d20371f	0.039115068
148	0xbcce32f9	-0.02517079
149	0xbd361309	-0.044451747
150	0xbd5c2fe8	-0.053756624
151	0xbb592c37	-0.0033137926
152	0xbc378ae5	-0.011202549
153	0x3b86705f	0.004102751
154	0xbbf384ca	-0.007431601
155	0xbb8f1e13	-0.004367599
156	0x3d32ab28	0.04362026
157	0x3cfcf62c	0.030879103
158	0x3c8cd6d5	0.017192284
159	0xbd3d05f2	-0.046148248
160	0x3cb5b0a6	0.02217896
161	0xbd4976f9	-0.049185727
162	0x3c924e05	0.017859468
163	0xbbf5b2b4	-0.0074981097
164	0x3c5c0133	0.01342802
165	0x3d0c3131	0.0342266
166	0x3d071771	0.03298134
167	0xbd43e9e0	-0.047830462
168	0x3d1ab1e9	0.037767325
169	0x3c952212	0.018204723
170	0xbcea1f35	-0.028579334
171	0x3d7b2b00	0.061320305
172	0x3c0386dd	0.008027759
173	0x3d50754e	0.05089312
174	0xbbd41150	-0.0064717904
175	0xbd614868	-0.055000693
176	0xbd9e070b	-0.07716187
177	0x3d68f569	0.056874666
178	0xbd545d7f	-0.051846977
179	0xbd2a2b85	-0.04154541
180	0x3cc7f08c	0.024406694
181	0xbc035012	-0.008014696
182	0x3d21921a	0.039445974
183	0x3d707546	0.05870559
184	0xbbed8364	-0.007248329
185	0x3d13e690	0.036108553
186	0xbc97896e	-0.018498149
187	0xbd87aa17	-0.06624239
188	0x3ce9242b	0.028459629
189	0x3b1db069	0.0024061447
190	0xbd4e8147	-0.050416257
191	0xbc99b18d	-0.01876142
192	0xbce8299d	-0.028340155
193	0x3d5f41b7	0.05450603
194	0x3c320e44	0.010867659
195	0xbd1f044f	-0.03882247
196	0x3d2cfd63	0.042233836
197	0x3987b2e3	0.00025882488
198	0x3d0da9cd	0.034585763
199	0x3b0962f6	0.0020963526
200	0x3d17043d	0.036869276
201	0x3cb3dad6	0.021954935
202	0xbcc6b70b	-0.024257204
203	0x3d561e47	0.05227497
204	0xbc9cfd88	-0.019163862
205	0xbc257b3f	-0.010100185
206	0xbcd7c7aa	-0.026340324
207	0x3c28f78a	0.010312924
208	0xbbdd8386	-0.0067600636
209	0x3c43ee55	0.011958678
210	0x3ca9b5a9	0.020716505
211	0xbc4285b2	-0.011872696
212	0x3d13ec30	0.036113918
213	0xbc0c9503	-0.008580449
214	0xbca717e5	-0.020397136
215	0x3d241920	0.040063024
216	0x3a659b43	0.00087587925
217	0x3d114985	0.035470504
218	0x3c94ad6c	0.0181491
219	0xbd378049	-0.044800077
220	0x3d393f6a	0.045226492
221	0x3bd2ea1b	0.006436599
222	0x3d03a6e7	0.032141592
223	0x3c780dae	0.01513998
224	0xbb6db845	-0.0036273163
225	0x3bb41213	0.0054953187
226	0xbcc533dd	-0.024072582
227	0xbd70afb0	-0.0587613
228	0xbd45d8de	-0.048302524
229	0x3d4b55da	0.04964242
230	0x3ce97282	0.028496984
231	0x3c8d473e	0.017245885
232	0xbc6a51f9	-0.01430177
233	0x3d6f2cb5	0.058392245
234	0xbcdb43f9	-0.02676581
235	0xbc7b2190	-0.015327826
236	0xbd06526c	-0.032793447
237	0xbcc63b40	-0.024198174
238	0xbc0f02fe	-0.008728741
239	0xbce5303b	-0.0279771
240	0xbc8d9ad9	-0.017285751
241	0x3d0e22a1	0.034700993
242	0xbd08ed57	-0.03342947
243	0x3d3c660e	0.045995764
244	0xbd0cd72d	-0.034384895
245	0xbcd69232	-0.026192758
246	0xbd41121f	-0.047136422
247	0xbbe52415	-0.0069928267
248	0xbd371168	-0.044694334
249	0xbd2afdbd	-0.04174589
250	0x3d5b02e3	0.05346955
251	0x3d6689b7	0.05628368
252	0xbd53e5d1	-0.051732842
253	0x3b884d37	0.0041595954
254	0xbd093475	-0.033497293
255	0xbc8a5551	-0.016886385

net.4.weight f4 [19, 256]
0	0x3cc575c1	0.024104001
1	0xbd89f47b	-0.06736084
2	0xbbaa1539	-0.005190518
3	0x3d93df22	0.072202936
4	0xbcd6edbf	-0.026236413
5	0xbd953a3b	-0.07286497
6	0x3d82fcf6	0.06395905
7	0x3d5f943a	0.05458472
8	0xbcfbe93d	-0.030750865
9	0x3d7565cd	0.059911538
10	0x3d1cf168	0.03831616
11	0xbd5457a7	-0.051841404
12	0x3bee7501	0.0072771315
13	0xbc12b25a	-0.008953655
14	0xbcd0bbec	-0.025480233
15	0xbd4f10d6	-0.050553165
16	0xbc269042	-0.01016623
17	0x3ccba6dd	0.02485984
18	0xbd383f2e	-0.044982128
19	0x3d54b978	0.05193469
20	0x3d8f45ca	0.06995733
21	0xbad36318	-0.0016127555
22	0x3bc54496	0.006020139
23	0xbd8d1480	-0.06888676
24	0xbb825df7	-0.0039784866
25	0xbcc9e5f9	-0.024645792
26	0xbd1971ee	-0.037462167
27	0xbac94312	-0.0015355072
28	0x3d344f96	0.04402121
29	0x3c82a78a	0.01594903
30	0xbcff648c	-0.031175874
31	0x3cbd6fcb	0.023124596
32	0x3d0cc506	0.034367584
33	0xbc7f8224	-0.015594993
34	0x3d5ac343	0.053408872
35	0x3cd48ffc	0.025947563
36	0xbc679543	-0.014134708
37	0x3c114202	0.008865835
38	0x3d607704	0.054801002
39	0x3d180d36	0.037121974
40	0xbbd718d2	-0.006564238
41	0x3d35fb31	0.044429008
42	0xbd1af47d	-0.03783082
43	0xba6a735a	-0.00089435803
44	0x3d8815fc	0.06644818
45	0x3d640583	0.05566932
46	0xbda2fe95	-0.07958714
47	0x3d27fd54	0.041013077
48	0x3d79fa00	0.061029434
49	0x3a7d2e01	0.0009658039
50	0xbd1a5408	-0.037677795
51	0xbccd9379	-0.025094735
52	0x3d842849	0.06452996
53	0x3c6cece5	0.014460777
54	0x3be4454d	0.006966269
55	0xbd394a88	-0.045237094
56	0x3d7eb5ef	0.062185224
57	0xbccfd214	-0.025368728
58	0xbca9e575	-0.020739296
59	0x3c9a722d	0.018853271
60	0xbd25891e	-0.04041397
61	0x3cfb6bda	0.030691076
62	0xbd3be457	-0.04587206
63	0x3d7a7012	0.061142035
64	0x3cca7842	0.024715547
65	0xbd9d77bf	-0.076888554
66	0xbca28543	-0.019838935
67	0xbca35178	-0.019936308
68	0xbda6e398	-0.08148879
69	0xbd4e830f	-0.050417956
70	0xbd11733b	-0.035510283
71	0xbce51d97	-0.027968211
72	0x3da7071a	0.081556514
73	0x3bfb51ed	0.0076696784
74	0x3d848635	0.064709105
75	0x3d1aba05	0.03777506
76	0xbc41402e	-0.011795087
77	0x3d3f32a9	0.046679173
78	0x3d1f1b1f	0.038844224
79	0xbd5972db	-0.05308805
80	0xbc07eb4b	-0.008295844
81	0x3c2668df	0.010156839
82	0xbb2e3f35	-0.0026587967
83	0xbcb63a41	-0.022244575
84	0x3c88bbfe	0.016691204
85	0xbbe590b0	-0.0070057735
86	0x3cb8ca6b	0.022557458
87	0x3dd42b53	0.10359826
88	0xbdac525c	-0.08414146
89	0xbdc98bd3	-0.098411225
90	0xbbeb2c62	-0.0071769217
91	0x3c821f2d	0.015884006
92	0xbd262802	-0.0405655
93	0xbe00190e	-0.12509558
94	0x3d0ec350	0.034854233
95	0xbd9240e8	-0.07141286
96	0x3d84d203	0.06485369
97	0xbd94990c	-0.07255754
98	0xbd3a17f3	-0.045432996
99	0xbc44bc30	-0.012007758
100	0xbdc76ce3	-0.09737565
101	0x3bcd5bee	0.0062670624
102	0x3d301989	0.042993102
103	0x3d8e75ed	0.06956086
104	0x3d8f481d	0.069961764
105	0xbc9e5e10	-0.019331962
106	0xbdb655ff	-0.08903121
107	0x3d6f7711	0.05846316
108	0xbd576fe6	-0.05259695
109	0x3db1f013	0.08688369
110	0xbd8ae8ae	-0.067826614
111	0x3d65b0f3	0.056076955
112	0x3a27dd6d	0.00064035394
113	0xbcc9a9d8	-0.02461712
114	0xbdb1da14	-0.08684173
115	0xbd0d2842	-0.03446222
116	0xbc7fa920	-0.015604287
117	0x3be0f2a4	0.0068648625
118	0xbdda940d	-0.1067277
119	0xbc3fd7e0	-0.011709183
120	0xbdd7a4a6	-0.10529451
121	0x3d95d077	0.07315152
122	0x3c62ea69	0.013849833
123	0xbd325710	-0.04354006
124	0xbd06cc8e	-0.032909922
125	0x3da487fc	0.080337495
126	0xbd3535a9	-0.044240627
127	0x3d3aece2	0.045636065
128	0xbbd55b0c	-0.006511098
129	0xbc703452	-0.014660912
130	0xbd3541f3	-0.044252347
131	0x3d08d4ea	0.033406176
132	0xbda464ba	-0.080270246
133	0xbd7388be	-0.05945658
134	0x3d86b956	0.06578319
135	0x3d8f29ba	0.069903806
136	0xbd6ca9f5	-0.05777927
137	0xbbeffb4a	-0.007323657
138	0x3dd28327	0.102789216
139	0xbc2427e6	-0.010019278
140	0xbdb59ff2	-0.08868398
141	0x3d97f5b0	0.07419908
142	0x3db8aca6	0.09017305
143	0x3af6646e	0.0018798241
144	0xbd880675	-0.066418566
145	0x3ccb3b53	0.024808561
146	0x3b586730	0.003302049
147	0x3e0fed87	0.14055453
148	0xbd971f88	-0.07379061
149	0xbc3aaca0	-0.011393696
150	0xbce947ea	-0.028476674
151	0xbcc078f9	-0.023495184
152	0xbc3faba1	-0.011698634
153	0xbb344c04	-0.002751113
154	0xbce393ae	-0.02778038
155	0x3d34da21	0.044153336
156	0x3c8c4fd4	0.017127909
157	0xbca49fd3	-0.020095741
158	0xbca8f960	-0.020626724
159	0x3d83ae08	0.06429678
160	0xbd253632	-0.040334888
161	0x3c684a1f	0.014177828
162	0x3c27e4fc	0.010247465
163	0x3d245ddf	0.040128585
164	0xbb258fd6	-0.0025262735
165	0x3cccc991	0.024998458
166	0xbd19b5a4	-0.03752674
167	0x3c8a3857	0.016872568
168	0xbad4c605	-0.0016233331
169	0xbcc1064e	-0.023562577
170	0x3c6bc802	0.014390947
171	0xbd8a339d	-0.06748126
172	0x3bbef573	0.0058275997
173	0x3d2bfed8	0.041991085
174	0xbc3a286b	-0.011362175
175	0x3d2594ed	0.04042523
176	0xbb0184f1	-0.0019763077
177	0xbd00cf87	-0.031447913
178	0xbb610156	-0.0034333072
179	0xbd71c526	-0.059025906
180	0x3c0610c5	0.008182709
181	0x3da7c116	0.08191125
182	0x3de2a685	0.11066917
183	0x3b5fad4a	0.0034130388
184	0xbc04457b	-0.008073206
185	0x3c6cdb6b	0.01445661
186	0xbc439c05	-0.011939053
187	0x3cdc10c4	0.026863463
188	0x3d93d803	0.07218935
189	0xbcab6b4d	-0.020925188
190	0xbd847dd3	-0.064693116
191	0x3d88f224	0.0668681
192	0x3d9facb4	0.077966124
193	0x3dc76f1a	0.09737988
194	0xbd990b8e	-0.07472907
195	0x3c337adf	0.010954588
196	0xbcce02a7	-0.02514775
197	0xbdaf7b11	-0.08568395
198	0x3a4573f0	0.00075322296
199	0xbcdd0628	-0.026980475
200	0xbca9869d	-0.020694071
201	0x3c1d4c1f	0.009600668
202	0xbd5fde14	-0.05465515
203	0xbbfeeca3	-0.007779674
204	0xbce6b784	-0.028163679
205	0xbc94f5d7	-0.018183632
206	0xbca50737	-0.020145042
207	0xbdb9e5b8	-0.090770185
208	0xbb920a9e	-0.004456832
209	0x3dad598b	0.084643446
210	0x3c6040ea	0.013687352
211	0x3cc8cd37	0.024511917
212	0x3db37d80	0.087641716
213	0x3ddd5827	0.10807829
214	0xbd214f10	-0.03938204
215	0xbccc9e16	-0.024977725
216	0xbd696dab	-0.056989353
217	0x3afb9b97	0.001919615
218	0xbd119e59	-0.035551403
219	0xbd4869ef	-0.04892915
220	0xbcd4565d	-0.025920087
221	0x3c6a54b5	0.014302422
222	0xbc8a613b	-0.016892066
223	0x3d197d65	0.0374731
224	0xbb6898f2	-0.0035491553
225	0xbd39e505	-0.045384426
226	0xbcfc74b1	-0.030817362
227	0xbd86ca5e	-0.06581567
228	0xbd628980	-0.05530691
229	0xbc969783	-0.018382793
230	0x3d932aa9	0.07185871
231	0xbd83285c	-0.06404182
232	0xbdaf6af1	-0.08565319
233	0xbbc5f7bc	-0.006041495
234	0xbd0163ff	-0.031589504
235	0xbc7ca847	-0.01542098
236	0x3bfd0d99	0.007722568
237	0xbd5f3115	-0.054490168
238	0xbc8fb799	-0.0175436
239	0x3d8983b2	0.06714572
240	0x3d93eb76	0.07222645
241	0x3d942ebf	0.072354786
242	0x3c873704	0.016505726
243	0x3c5306da	0.0128800515
244	0xbce9896f	-0.028507916
245	0xbd8f8314	-0.07007423
246	0xbd118e9d	-0.035536397
247	0xbabde4f9	-0.0014487795
248	0x3d3c3ac0	0.045954466
249	0xbcfdfa2d	-0.031003082
250	0x3cbac90b	0.022800943
251	0x3df7d0ce	0.12100373
252	0x3d62bdf5	0.05535694
253	0x3cc17f87	0.02362038
254	0xbd3eed05	-0.04661276
255	0xbd30c1b0	-0.043153465

net.4.bias f4 [19]
0	0xbd0aa67b	-0.033850174
1	0x3c7525c1	0.0149626145
2	0xbcc2fb95	-0.023801604
3	0xbd045c09	-0.032314334
4	0x3ca8825d	0.020569975
5	0x3b0f42b0	0.0021859817
6	0x3e06a455	0.13148625
7	0x3d16cdfa	0.03681753
8	0xbcdfa4f3	-0.027300334
9	0xbd31d6b7	-0.04341766
10	0x3d172ab2	0.03690595
11	0x3ce988fd	0.028507704
12	0xbb3669b3	-0.0027833998
13	0xbcc2c9ea	-0.02377792
14	0x3d727aa0	0.059198976
15	0x3d1c3930	0.038140476
16	0xbd525dc8	-0.051358968
17	0xbd2832a4	-0.04106392
18	0x3c87a1c6	0.016556632
