AM_RL/Controller/model/pretraining_controller.pth (torch, 607434 bytes, 10 tensors)

policy_net.0.weight f4 [256, 32]
0.11050443 -0.09772767 0.027886368 0.039767392 -0.01573993 0.22076151 -0.019268941 0.14047278
0.037068628 0.03102232 0.04948498 -0.07994021 -0.13542068 -0.0010928586 0.044057447 0.033640943
0.08680674 -0.11355496 -0.10952052 0.004715171 -0.004869459 0.12140609 0.12489856 0.057994854
-0.14864358 0.13016282 0.027071234 -0.024979766 -0.0358029 -0.06267181 0.1324725 0.08023461
-0.08407256 0.078794084 0.04712737 0.043540314 -0.14444499 0.072753236 0.1172637 -0.004530053
0.042913515 -0.16556832 -0.12466967 -0.0010032334 0.09862271 0.015633537 -0.12015209 0.1529982
0.14922296 -0.026019378 0.038173337 0.19269909 0.1599412 -0.11964382 -0.07120914 -0.19167456
-0.02849109 0.10228032 -0.17312975 -0.07942629 -0.055148724 0.08642867 0.0051814197 -0.018463895
-0.14597875 -0.0123509355 0.055039644 0.1166629 0.21805492 -0.08328765 -0.06035077 -0.10000895
-0.09012207 -0.14306079 0.08785948 0.017127926 -0.13675237 0.05372081 0.14688306 -0.0009734528
0.051882084 0.07204877 -0.085966185 5.596113e-05 0.062373906 0.10564304 -0.28008717 -0.12378045
-0.023405563 0.009926488 -0.025548382 0.075326726 0.07564328 -0.054185223 0.050438166 -0.035984855
-0.059634637 0.10620318 0.10363486 0.068372115 0.0026748464 -0.123362966 0.14061503 0.3212447
-0.070877254 0.026949752 0.022960203 0.15699685 -0.154888 -0.18262905 -0.023571607 0.022016251
-0.03228666 -0.10655439 0.093075804 0.12517282 -0.050587103 -0.15748529 -0.30167297 -0.1732274
0.005956078 -0.05314922 -0.007823194 -0.11202484 -0.1256044 0.03686954 -0.1667635 0.11616975
-0.030760607 0.17140388 0.024280192 -0.19423814 0.013475139 -0.08999434 0.060578037 -0.26242536
0.013724725 -0.06919247 0.14008823 0.025594357 -0.11145322 0.112865955 0.017192809 -0.06126467
0.022173373 0.07592649 0.15670809 0.10164768 0.06009816 0.03213473 -0.16105807 0.10988867
-0.049601644 -0.06818999 0.1091511 -0.05540659 -0.18051858 -0.0049902173 -0.12053026 -0.1517671
-0.017399907 0.13860044 0.075334705 -0.096036725 0.19452645 0.0072253686 -0.002541607 0.08524005
0.15408555 0.1621417 -0.115781985 0.07072284 -0.09072811 0.11293114 0.063697785 -0.033340245
0.097015336 -0.07836172 0.029068531 -0.028285494 -0.025167333 -0.065741606 0.0008542718 -0.06743815
0.042388435 -0.14127147 0.03190418 -0.057150267 -0.13805641 0.0001891985 0.16237783 0.016653605
-0.079607636 0.06007138 -0.09315042 -0.08074947 0.024269147 -0.1263986 0.023463367 -0.26272514
-0.22280134 -0.036411423 -0.08058527 -0.032429144 0.057787094 -0.0044163167 -0.047539715 -0.16740379
-0.10690784 0.1044856 0.028029362 0.124490455 -0.06742946 -0.08625802 -0.0134251015 -0.1174635
0.13660888 0.1521384 -0.02723283 0.075742304 0.09283217 -0.008045286 0.05307139 0.055944685
0.020285506 0.10453141 0.12349122 -0.15447973 -0.20741105 0.15631245 -0.079164065 -0.04076893
-0.08036362 -0.0024537297 0.037665274 -0.07841797 -0.051645588 0.08018594 0.10355091 -0.056981236
-0.02336126 0.06513053 0.11497112 -0.14130703 -0.0024307615 -0.036834054 -0.19728099 -0.10578827
-0.0018087227 -0.011487499 0.022564968 -0.0386014 -0.013421936 -0.11166175 -0.13383968 0.013393049
00000000: 2650 e23d 7225 c8bd f471 e43c 22e3 223d
00000010: 07f1 80bc 4e0f 623e e6d9 9dbc 19d8 0f3e
00000020: 46d5 173d 8522 fe3c c3b0 4a3d b1b7 a3bd
00000030: b8ab 0abe 403e 8fba 9575 343d 16cb 093d
00000040: bbc7 b13d 818f e8bd 4b4c e0bd b981 9a3b
00000050: fc8f 9fbb c2a3 f83d d1ca ff3d 038c 6d3d
00000060: 0636 18be 6749 053e 7ec4 dd3c 5ea2 ccbc
00000070: 10a6 12bd 145a 80bd dfa6 073e 0b52 a43d
00000080: 3c2e acbd cb5e a13d a108 413d 5457 323d
00000090: 63e9 13be a6ff 943d f327 f03d d770 94bb
000000a0: 15c6 2f3d be8a 29be d052 ffbd ed7e 83ba
000000b0: b4fa c93d e711 803c 4d12 f6bd 8fab 1c3e
000000c0: e7cd 183e 9726 d5bc a55b 1c3d e952 453e
000000d0: a0c7 233e d207 f5bd 19d6 91bd 5646 44be
000000e0: 2566 e9bc 5878 d13d ed48 31be 40aa a2bd
000000f0: a1e3 61bd 8401 b13d e6c8 a93b 9841 97bc
00000100: 747b 15be 945b 4abc 4071 613d f5ec ee3d
00000110: ca49 5f3e b792 aabd 5e32 77bd 7ed1 ccbd
00000120: eb91 b8bd 877e 12be acef b33d dd4f 8c3c
00000130: d008 0cbe 5a0a 5c3d 8368 163e 502f 7fba
00000140: 4f82 543d 4e8e 933d 0a0f b0bd ceb7 6a38
00000150: c87b 7f3d 615b d83d 9667 8fbe 9b80 fdbd
00000160: 06bd bfbc b5a2 223c d74a d1bc e644 9a3d
00000170: ddea 9a3d 53f1 5dbd 4098 4e3d db64 13bd
00000180: 7343 74bd 0e81 d93d 833e d43d ae06 8c3d
00000190: 7a4c 2f3b b9a5 fcbd 63fd 0f3e 2f7a a43e
000001a0: 1828 91bd bac5 dc3c 0917 bc3c c8c3 203e
000001b0: f69a 1ebe 1c03 3bbe 3e19 c1bc 6d5b b43c
000001c0: 043f 04bd 3039 dabd 879e be3d 4e2d 003e
000001d0: 6c34 4fbd d343 21be e174 9abe 8662 31be
000001e0: 342b c33b ffb2 59bd db2c 00bc 486d e5bd
000001f0: 719e 00be 8404 173d 0dc4 2abe 68ea ed3d
00000200: abfd fbbc 8084 2f3e 41e7 c63c 5de6 46be
00000210: d4c6 5c3c f44e b8bd ad20 783d 9e5c 86be
00000220: abdd 603c c8b4 8dbd 4a73 0f3e 42ab d13c
00000230: 9641 e4bd 4426 e73d efd7 8c3c aaf0 7abd
00000240: efa4 b53c 597f 9b3d 1678 203e a92c d03d
00000250: 7d29 763d b59f 033d 68ec 24be 500d e13d
00000260: 182b 4bbd 32a7 8bbd 9d8a df3d 05f2 62bd
00000270: ddd9 38be fa84 a3bb 92d8 f6bd d668 1bbe
00000280: 408a 8ebc 46ed 0d3e 1549 9a3d e7ae c4bd
00000290: f131 473e c9c2 ec3b 1791 26bb 5692 ae3d
000002a0: 9ac8 1d3e 7908 263e 1b1f edbd 23d7 903d
000002b0: a9cf b9bd 7148 e73d fc73 823d c88f 08bd
000002c0: faaf c63d 1c7c a0bd 2121 ee3c fbb6 e7bc
000002d0: b92b cebc 89a3 86bd 36f1 5f3a 031d 8abd
000002e0: 7f9f 2d3d 78a9 10be f5ad 023d 6616 6abd
000002f0: a95e 0dbe 9663 4639 6046 263e 246d 883c
00000300: 5409 a3bd 680d 763d a6c5 bebd fa5f a5bd
00000310: 17d0 c63c a26e 01be 3f36 c03c e983 86be
00000320: 0926 64be 2524 15bd e409 a5bd 6cd4 04bd
00000330: 29b2 6c3d c0b6 90bb 01b9 42bd e66b 2bbe
00000340: 7ff2 dabd 8cfc d53d d59d e53c daf4 fe3d
00000350: 7518 8abd 0ba8 b0bd f5f4 5bbc b490 f0bd
00000360: 33e3 0b3e 2bca 1b3e 6217 dfbc c81e 9b3d
00000370: cb1e be3d 60d0 03bc 6361 593d 4126 653d
00000380: ca2d a63c 9014 d63d f7e8 fc3d ef2f 1ebe
00000390: 9063 54be 5f10 203e c520 a2bd 52fd 26bd
000003a0: ae95 a4bd c1ce 20bb e746 1a3d 9a99 a0bd
000003b0: 538a 53bd 8738 a43d 8012 d43d 2865 69bd
000003c0: 1d60 bfbc 2863 853d fb75 eb3d cab2 10be
000003d0: 694d 1fbb 4edf 16bd 0704 4abe 85a7 d8bd
000003e0: aa12 edba 1036 3cbc 2bda b83c 801c 1ebd
000003f0: aee7 5bbc eaae e4bd 450d 09be 856e 5b3c

policy_net.0.bias f4 [256]
0.15342543 0.072266854 0.13699546 -0.07096472 0.16148242 0.15389563 -0.071927935 0.0763606
-0.03947106 -0.10682284 -0.02304276 -0.098937124 0.011493289 0.040243067 0.1471652 -0.10677662
0.027542043 0.12087009 -0.021584101 -0.045266453 -0.08364603 -0.0041647833 -0.12764253 -0.016238255
0.053362783 -0.07074179 -0.048229337 -0.018425697 -0.011911835 -0.067812674 0.16803639 0.110552154
-0.0866307 -0.042011328 0.15221551 0.05526131 0.13644566 -0.12892598 -0.0024937184 0.049188204
0.11869852 0.045990724 -0.11042209 -0.11839084 0.029245365 -0.03254367 0.060284693 -0.08603759
-0.11843238 0.096855365 -0.05591264 -0.13114509 -0.11775374 0.16723317 -0.17243874 -0.16766049
-0.08817265 0.17252114 0.09928392 0.12489111 0.02611868 0.16885921 -0.12116281 -0.14655595
-0.054713134 -0.060266472 -0.0024243426 0.16481137 0.12748139 0.04053369 -0.11907571 0.15280035
-0.021617197 0.1480617 0.10922577 -0.14458676 0.047790084 -0.03531476 0.04326 -0.03405518
0.07637159 -0.07972594 -0.1509904 -0.14620367 0.08149759 0.03796172 -0.008486629 -0.15719338
-0.038361706 0.08573895 -0.027122095 -0.13036808 -0.08610943 -0.06010539 0.15807162 -0.0148838665
-0.07611679 0.103556626 -0.10714325 0.09814421 0.09204485 0.014492581 0.16604303 0.06868656
-0.013732906 -0.087617084 -0.09127957 0.12416499 -0.16885914 -0.17897426 0.13111357 -0.14736262
0.08952716 -0.059946552 0.13953897 0.16343717 -0.06935914 -0.093221955 -0.13927488 0.17485765
-0.14242207 -0.03157103 -0.16864082 0.113338344 -0.06472321 0.036313057 -0.12904458 -0.038533024
-0.04154516 0.117101334 0.14561146 -0.07336158 0.026184492 0.08810106 0.0054192566 -0.14548905
-0.16265856 0.031880803 0.15224843 0.027875291 0.120028645 -0.016330807 0.010096427 -0.15791044
-0.1438279 0.17525044 -0.0195751 -0.035922144 -0.04389854 -0.03156583 -0.15490852 -0.058503143
0.075707525 0.13843824 0.17232163 0.064457804 0.072431095 -0.05979437 -0.05536509 0.06442497
0.02181881 0.04677917 -0.08539022 0.024392316 0.10080312 -0.074702926 -0.01851942 -0.008550593
-0.1528223 0.14255445 -0.071457185 -0.10678075 -0.13244037 -0.051556177 -0.12401173 0.10039909
0.11854062 -0.1178801 0.16798355 0.085355036 -0.020013085 0.0614043 -0.021499332 -0.003955993
-0.10761661 0.04321519 0.13141622 -0.17093052 -0.17651875 0.1277711 0.12408999 0.10610507
0.14311893 0.007945105 -0.11911275 -0.16263692 -0.17227946 0.1463483 -0.100112274 -0.16628264
0.02860052 -0.12977464 -0.024236334 -0.12999229 0.052125618 -0.060600545 0.1653297 0.17400481
0.017438943 -0.08167283 0.10063329 0.112543516 0.10911573 0.021681195 0.06955916 -0.13730519
0.16447438 -0.13990879 0.09793523 -0.047683943 0.13429888 -0.060189284 -0.07009796 -0.078742065
-0.049156897 0.120651565 -0.1255178 -0.16504891 -0.012087167 0.06293303 -0.049557626 0.15898299
-0.0332744 -0.03047331 0.033963326 -0.15594411 0.1423353 -0.06986917 0.15626176 -0.06700843
-0.009233452 0.09597802 -0.11189824 0.06121919 0.020648826 -0.06243043 -0.08990477 0.17429869
-0.005391435 -0.13949479 0.10314105 0.1280358 -0.13216935 0.11938666 -0.056860413 -0.099968955
00000000: 8e1b 1d3e a500 943d 8a48 0c3e f355 91bd
00000010: a65b 253e d196 1d3e f44e 93bd f262 9c3d
00000020: 68ac 21bd efc5 dabd 2cc4 bcbc 8c9f cabd
00000030: 594e 3c3c ead5 243d 79b2 163e b3ad dabd
00000040: da9f e13c bd8a f73d 24d1 b0bc 5169 39bd
00000050: 9c4e abbd bc78 88bb b9b4 02be 1706 85bc
00000060: ef92 5a3d 12e1 90bd 208c 45bd 7df1 96bc
00000070: db29 43bc 5fe1 8abd bb11 2c3e 2b69 e23d
00000080: 706b b1bd 1214 2cbd 62de 1b3e af59 623d
00000090: 69b8 0b3e 2c05 04be a76d 23bb 9279 493d
000000a0: 3618 f33d c560 3c3d fa24 e2bd e676 f2bd
000000b0: fa93 ef3c 834c 05bd 15ed 763d 7a34 b0bd
000000c0: ad8c f2bd 1b5c c63d a704 65bd e64a 06be
000000d0: df28 f1bd 2c3f 2b3e c893 30be 31af 2bbe
000000e0: dd93 b4bd 62a9 303e 5e55 cb3d e9c6 ff3d
000000f0: d8f6 d53c 6ee9 2c3e 3524 f8bd c312 16be
00000100: e11a 60bd fad9 76bd b8e1 1ebb 50c4 283e
00000110: 7b8a 023e a806 263d f7dd f3bd b277 1c3e
00000120: 8c16 b1bc 7c9d 173e c3b1 df3d 8d0e 14be
00000130: 89bf 433d 36a6 10bd 6631 313d 727d 0bbd
00000140: b568 9c3d 5b47 a3bd 3a9d 1abe 6ab6 15be
00000150: 35e8 a63d c07d 1b3d 810b 0bbc 4df7 20be
00000160: 2a21 1dbd e797 af3d 282f debc 367f 05be
00000170: 245a b0bd 1231 76bd 87dd 213e 76db 73bc
00000180: 1fe3 9bbd 7f15 d43d ec6d dbbd d5ff c83d
00000190: 0382 bc3d 4a72 6d3c 2f07 2a3e 8aab 8c3d
000001a0: fcff 60bc 9670 b3bd c8f0 babd 374a fe3d
000001b0: 69e9 2cbe 0745 37be a342 063e 3ae6 16be
000001c0: 045a b73d 848a 75bd 4ee3 0e3e 135c 273e
000001d0: 2a0c 8ebd 27eb bebd 139e 0ebe e20d 333e
000001e0: 17d7 11be a050 01bd 2eb0 2cbe ef1d e83d
000001f0: 9a8d 84bd 00bd 143d 4324 04be ced4 1dbd
00000200: 422b 2abd d3d2 ef3d 2c1b 153e 993e 96bd
00000210: dc80 d63c 546e b43d 0594 b13b 15fb 14be
00000220: f78f 26be 7295 023d 03e7 1b3e b95a e43c
00000230: 94d1 f53d 2fc8 85bc 7c6b 253c 46b3 21be
00000240: 9f47 13be da74 333e f65b a0bc 1923 13bd
00000250: f5ce 33bd 2c4b 01bd 57a0 1ebe fea0 6fbd
00000260: 8c0c 9b3d c1c2 0d3e 1575 303e 7402 843d
00000270: c156 943d f1ea 74bd 81c6 62bd 3df1 833d
00000280: 5cbd b23c 849b 3f3d 11e1 aebd 65d2 c73c
00000290: de71 ce3d d9fd 98bd 0ab6 97bc c917 0cbc
000002a0: 737d 1cbe cbf9 113e 2558 92bd deaf dabd
000002b0: 739e 07be 922c 53bd ddf9 fdbd 0a9e cd3d
000002c0: 6dc5 f23d 1f6b f1bd e103 2c3e 9fce ae3d
000002d0: 7bf2 a3bc 1383 7b3d 5e1f b0bc 46a1 81bb
000002e0: 1966 dcbd 6902 313d f991 063e 6908 2fbe
000002f0: 55c1 34be 6dd6 023e e522 fe3d 9d4d d93d
00000300: c58d 123e 302c 023c 63f1 f3bd 4b8a 26be
00000310: 076a 30be 54dc 153e aa07 cdbd ff45 2abe
00000320: a34b ea3c a5e3 04be 478b c6bc b31c 05be
00000330: ac81 553d 4738 78bd 304c 293e 512e 323e
00000340: 1ddc 8e3c 1644 a7bd d418 ce3d 377d e63d
00000350: 1178 df3d c39c b13c 0875 8e3d bb99 0cbe
00000360: f96b 283e 4044 0fbe 4492 c83d 3d50 43bd
00000370: a585 093e 0a89 76bd 858f 8fbd 8543 a1bd
00000380: be58 49bd 2b18 f73d bd87 00be 9502 29be
00000390: 4109 46bc 08e3 803d f0fc 4abd 70cc 223e
000003a0: bd4a 08bd 2aa3 f9bc 211d 0b3d d0af 1fbe
000003b0: 58c0 113e 9117 8fbd 1503 203e b73b 89bd
000003c0: e847 17bc 2090 c43d e82a e5bd f9c0 7a3d
000003d0: ba27 a93c 0db7 7fbd fe1f b8bd 5b7b 323e
000003e0: a3aa b0bb b9d7 0ebe 9d3b d33d d11b 033e
000003f0: 6757 07be fe80 f43d 77e6 68bd 86bc ccbd

policy_net.2.weight f4 [256, 256]
0.0047510187 0.029734358 0.043363027 0.026942167 0.07800516 0.007765623 0.019359902 0.06006529
-0.0016898931 -0.047549613 0.034815118 0.0020371908 -0.06478983 0.031778455 -0.01809691 0.017522808
0.047611117 -0.066221036 0.025149781 0.07047788 -0.023073403 -0.03150023 0.070679426 -0.0009581022
-0.038678344 0.054146446 -0.024301112 -0.017154695 0.009047906 -0.0017134177 -0.061598632 -0.007882662
0.05421872 0.0011203068 -0.026120666 -0.047483172 -0.022505105 0.030340828 0.052192822 0.04216584
0.061363026 0.024270313 0.037408795 0.04444269 0.060720824 0.014263117 0.08042345 0.03129164
-0.013918968 0.059559662 -0.017343845 0.0350231 -0.0060217436 0.045128543 0.01463585 0.0005515851
-0.054887097 -0.04791073 -0.031715773 -0.005988515 -0.0070193727 0.047249485 0.028755907 -0.06889544
0.055000205 0.06084453 -0.044467676 -0.002502911 0.032503866 0.02168235 0.043488305 0.02742654
-0.00084954035 0.009792305 0.03774961 -0.046595324 -0.008587389 0.04764867 -0.022605669 -0.04422129
-0.05946962 -0.05425682 0.03059481 0.02917756 0.012334799 0.049353793 -0.022207081 -0.04116675
0.058645457 -0.015997477 -0.05344895 0.039535332 -0.0533027 0.048681486 -0.08011164 -0.06533871
-0.013868284 0.0075450856 -0.009222558 -0.040248405 0.033309236 0.023255846 0.012217279 0.033419326
-0.026183402 -0.035311263 -0.006062353 0.033599555 -0.03869346 -0.058344223 -0.056628887 -0.066376165
0.051532608 -0.033881217 0.049412813 0.020329835 -0.021959415 0.05376821 0.017774835 -0.026357612
-0.029195724 0.060360134 0.004550325 -0.033453885 -0.013337465 0.022374364 0.01961241 0.0052546393
0.06182819 0.04409309 0.023240745 -0.011380179 0.025057096 0.024128348 -0.015158755 -0.037916344
-0.002635288 0.012130009 0.00409329 0.03878597 0.041576423 9.635629e-05 -0.016827712 -0.057126574
-0.02656527 -0.03315434 -0.054503307 0.02555766 0.0151642235 -0.02323164 -0.061990995 -0.060265142
0.06635362 -0.022361975 -0.056386206 -0.014538933 -0.050136883 -0.025221786 0.047129307 0.037657954
0.006577107 -0.02579043 0.011832419 -0.07115997 -0.07204999 -0.061607912 0.009411278 0.0068834703
0.0040958314 0.05218837 0.0037853885 0.035158552 -0.052936487 0.05641845 0.051567856 0.014189069
-0.009623493 0.03138913 0.015313815 0.03971203 0.0038390816 -0.048491444 0.02862694 -0.018546255
0.033592995 0.046965156 0.06296153 -0.039384227 -0.06207324 -0.037751615 0.0018722137 0.01710947
-0.0083266115 0.048672058 -0.062356807 0.045185912 -0.0030473268 -0.05410728 0.017994853 0.011041829
-0.011645908 0.051478703 -0.027245315 -0.0554154 0.015258817 0.0028336814 0.013591434 -0.011304596
-0.05985349 -0.039342433 0.06283753 0.02152535 -0.058464237 -0.031729985 0.019620147 0.008837488
0.003396796 -0.03240723 0.023393726 0.047487233 -0.021155957 0.025384793 -0.055093694 0.0123447785
-0.04339266 0.05861616 0.028546782 -0.017548462 0.032412346 0.06346711 0.0014615069 0.046190307
-0.046631794 0.059025835 -0.053165115 -0.065836005 -0.031457886 -0.055037025 -0.0059189512 -0.04868395
-0.021856235 0.02674571 0.033065923 -0.0351535 0.051032368 -0.026807541 0.07297666 -0.009558794
-0.0169241 -0.01798383 -0.04762229 0.05962528 0.005208272 0.04899697 0.0029125337 0.0016845864
00000000: 6fae 9b3b 7895 f33c 6e9d 313d d2b5 dc3c
00000010: 2bc1 9f3d c476 fe3b a898 9e3c 0607 763d
00000020: 677f ddba 62c3 42bd 4c9a 0e3d 6482 053b
00000030: 88b0 84bd 202a 023d f93f 94bc fe8b 8f3c
00000040: e003 433d e59e 87bd ea06 ce3c b556 903d
00000050: 6f04 bdbc 6306 01bd 60c0 903d 2629 7bba
00000060: 2f6d 1ebd aac8 5d3d 2013 c7bc 0188 8cbc
00000070: ab3d 143c c294 e0ba d94e 7cbd 4826 01bc
00000080: 7314 5e3d 42d7 923a 02fb d5bc b77d 42bd
00000090: a05c b8bc 548d f83c 24c8 553d 16b6 2c3d
000000a0: cc57 7b3d 89d2 c63c f739 193d 8a09 363d
000000b0: 66b6 783d d9af 693c 0db5 a43d aa2b 003d
000000c0: 620c 64bc d5f4 733d ae14 8ebc 6274 0f3d
000000d0: 0c52 c5bb b5d8 383d 34cb 6f3c 4098 103a
000000e0: 4bd1 60bd 0b3e 44bd 66e8 01bd 4e3b c4bb
000000f0: c402 e6bb ad88 413d 8291 eb3c 0d19 8dbd
00000100: e547 613d 1d38 793d bd23 36bd e107 24bb
00000110: c622 053d 2f9f b13c cb20 323d a0ad e03c
00000120: b0b3 5eba e76f 203c 569f 1a3d bdda 3ebd
00000130: 1fb2 0cbc 402b 433d 862f b9bc 6221 35bd
00000140: 6b96 73bd 663c 5ebd f8a1 fa3c c705 ef3c
00000150: e617 4a3c 3427 4a3d a0eb b5bc 779e 28bd
00000160: 3836 703d 240d 83bc 49ed 5abd cdef 213d
00000170: ef53 5abd 3d66 473d 9211 a4bd 4dd0 85bd
00000180: cd37 63bc c43c f73b 361a 17bc 83db 24bd
00000190: 446f 083d 0b83 be3c fb2a 483c b4e2 083d
000001a0: 937e d6bc 8ba2 10bd b4a6 c6bb b09f 093d
000001b0: 097d 1ebd 5afa 6ebd b1f3 67bd 3af0 87bd
000001c0: db13 533d 08c7 0abd 1765 4a3d c18a a63c
000001d0: 3be4 b3bc 0e3c 5c3d 889c 913c ebeb d7bc
000001e0: df2b efbc 303c 773d e51a 953b f106 09bd
000001f0: 6285 5abc 714a b73c 34aa a03c 1c2f ac3b
00000200: 8e3f 7d3d f59a 343d 6063 be3c ee73 3abc
00000210: 8a44 cd3c d0a8 c53c 6d5c 78bc 2b4e 1bbd
00000220: ccb4 2cbb f2bc 463c 0121 863b 0ade 1e3d
00000230: 0a4c 2a3d e412 ca38 45da 89bc 8efd 69bd
00000240: 699f d9bc d8cc 07bd dc3e 5fbd 4c5e d13c
00000250: 5d73 783c 4850 bebc 45ea 7dbd 95d8 76bd
00000260: 68e4 873d 7630 b7bc 39f5 66bd b434 6ebc
00000270: 555c 4dbd eb9d cebc a90a 413d 3a3f 1a3d
00000280: c684 d73b 7446 d3bc c3dc 413c 51bc 91bd
00000290: f28e 93bd 9458 7cbd c331 1a3c bc8e e13b
000002a0: 5336 863b 79c3 553d 4814 783b 6a02 103d
000002b0: eed3 58bd 0817 673d d138 533d 4579 683c
000002c0: dbab 1dbc e391 003d cce6 7a3c 15a9 223d
000002d0: 1a99 7b3b f79e 46bd 0b83 ea3c 51ee 97bc
000002e0: cf98 093d 895e 403d faf1 803d 5b51 21bd
000002f0: 8240 7ebd 70a1 1abd 1165 f53a 2929 8c3c
00000300: 576c 08bc 5a5c 473d da69 7fbd dd14 393d
00000310: a9b5 47bb 989f 5dbd f169 933c cae8 343c
00000320: 7ace 3ebc 55db 523d 9131 dfbc 42fb 62bd
00000330: 1e00 7a3c 49b5 393b 9bae 5e3c ea36 39bc
00000340: ef28 75bd 8825 21bd f7b0 803d ee55 b03c
00000350: 3278 6fbd 4df7 01bd 6eba a03c 1ccb 103c
00000360: c89c 5e3b 72bd 04bd 33a4 bf3c f981 423d
00000370: 424f adbc c5f3 cf3c eda9 61bd c141 4a3c
00000380: 80bc 31bd 8017 703d f1da e93c cbc1 8fbc
00000390: cfc2 043d 0bfb 813d 0990 bf3a 0c32 3d3d
000003a0: fb00 3fbd 13c5 713d aac3 59bd 07d5 86bd
000003b0: fcd9 00bd 816e 61bd c3f3 c1bb d268 47bd
000003c0: d90b b3bc d219 db3c 2270 073d 1efd 0fbd
000003d0: 5107 513d 7d9b dbbc ca74 953d 7d9c 1cbc
000003e0: 69a4 8abc d352 93bc 970f 43bd a339 743d
000003f0: 27aa aa3b 0cb1 483d 35e0 3e3b 57cd dc3a

policy_net.2.bias f4 [256]
-0.010830176 0.026391786 0.028826233 0.038625937 0.018291531 -0.055964764 -0.02742049 -0.035741314
-0.025460284 0.02999476 -0.017280102 0.03774036 0.0143247945 0.005621178 -0.02573768 -0.00076362584
-0.009174826 -0.05808439 0.0035041787 -0.06473016 -0.042740785 0.008015295 -0.033222143 -0.040797796
-0.001767231 0.021479912 0.020107107 -0.05624597 -0.039591033 -0.049101535 0.0035702384 0.060789008
0.0040093213 0.040358026 -0.056117944 -0.023155672 -0.034072984 0.009222831 0.0052363393 -0.060376115
-0.0020490773 0.07164796 -0.035702903 0.041296232 -0.023441155 0.059433293 0.0348898 -0.047615
0.028981525 0.058661185 -0.015845025 0.0069617857 -0.018095631 -0.005446519 0.026168946 -0.0038865511
-0.015375251 -0.055090636 -0.008605557 0.0596819 0.002405386 -0.041012164 0.031928707 0.00697869
0.020554317 -0.04927591 -0.018156815 0.026947137 0.040637363 -0.031499434 -0.040188793 -0.050474364
0.019779194 0.03590335 -0.02060847 0.050863065 -0.012521907 0.0053203716 0.040142834 -0.036495775
-0.04342499 -0.041334454 0.04492928 -0.008797724 0.0031546776 -0.03515958 0.021868661 0.0073787104
-0.0005734056 -0.06437037 -0.025055978 0.048392985 -0.029590001 0.020008719 -0.028504588 0.03091622
0.00487545 0.06439867 0.015918309 -0.028045388 0.05786808 -0.034013722 -0.055641077 -0.026609236
-0.02676836 0.013740093 -0.024966286 0.0189961 -0.016937729 -0.033525337 -0.036730833 -0.027553847
-0.05527172 0.042199604 -0.00904857 -0.014547081 0.061548095 0.057526816 0.010823793 -0.0127938455
0.055377036 -0.004255684 0.018545236 -0.028056188 -0.039883 0.04979358 0.048575986 0.0073119286
0.0016170454 -0.014594567 0.0166835 -0.06339444 -0.019419797 -0.06951918 -0.05346466 -0.011420282
-0.021749323 -0.047045663 0.0013910988 -0.009218574 -0.046411324 0.026847046 -0.059801426 -0.026906146
0.008410373 2.5755471e-05 0.05188451 0.017215628 0.04405169 -0.03799708 -0.031227423 -0.050450522
0.011783912 0.045171246 -0.0044424227 0.013748374 -0.045091394 -0.062318366 0.056913972 0.0623425
0.056610715 0.012085498 0.0049373396 -0.051035997 -0.0069593284 -0.047468953 -0.041710887 -0.013658917
0.0034772458 -0.015098668 -0.023992296 -0.023811808 -0.058814004 -0.0076654693 -0.025060566 -0.04092973
0.0046613174 -0.01875449 -0.050985515 0.0021837195 -0.008793476 0.0012649957 0.051236473 -0.036920313
-0.0519502 -0.0003594566 -0.03866964 -0.022216335 -0.017545266 0.037478786 0.04651037 -0.014666494
0.013510526 0.007799175 0.047177654 -0.040475257 0.020620218 -0.028222919 -0.001264291 -0.046682518
-0.03899651 0.049475327 -0.055262364 0.039643284 0.04943301 0.01386495 -0.0076296413 -0.046583757
0.062011447 -0.04744071 -0.0137438 0.045976713 -0.06275754 -0.048587915 -0.06431165 0.00044966312
0.040656433 -0.03138965 0.05734027 0.025508976 0.025639968 -0.0588731 -0.04412203 0.021235077
-0.009998578 -0.039902147 0.020466411 0.0044059767 0.022778828 -0.02830811 0.008728038 0.007252017
-0.043461867 0.017136646 0.028453456 0.00672237 -0.05659085 -0.036870055 0.022449212 -0.00506356
0.020172045 0.063457586 -0.02249403 0.029763736 -0.03702729 0.0174656 -0.051211867 0.015129646
0.0005726825 0.042193606 -0.02861585 -0.0030568128 0.03775766 -0.025450308 0.037381414 -0.066311166
00000000: 0d71 31bc 9633 d83c fe24 ec3c 3b36 1e3d
00000010: 1fd8 953c 4f3b 65bd efa0 e0bc 7c65 12bd
00000020: 1692 d0bc 92b7 f53c 008f 8dbc a395 1a3d
00000030: 8bb2 6a3c dc31 b83b d4d7 d2bc 102e 48ba
00000040: 0252 16bc e6e9 6dbd 5da6 653b 3f91 84bd
00000050: f610 2fbd 9552 033c f113 08bd 971b 27bd
00000060: 6fa2 e7ba a4f6 af3c a9b7 a43c 2d62 66bd
00000070: 352a 22bd b11e 49bd a9fa 693b e5fd 783d
00000080: a060 833b 754e 253d eedb 65bd f7b0 bdbc
00000090: 1d90 0bbd 5b1b 173c 9995 ab3b f24c 77bd
000000a0: d049 06bb 2abc 923d 353d 12bd 3d26 293d
000000b0: aa07 c0bc 5370 733d 9be8 0e3d f207 43bd
000000c0: aa6a ed3c b646 703d 6dcd 81bc b11f e43b
000000d0: 4a3d 94bc b678 b2bb 4260 d63c 82b5 7ebb
000000e0: 7ae8 7bbc b8a6 61bd 52fe 0cbc 0275 743d
000000f0: aea3 1d3b 5ffc 27bd adc7 023d 7fad e43b
00000100: 8761 a83c 89d5 49bd 9abd 94bc 3ec0 dc3c
00000110: 5d73 263d 8d05 01bd 019d 24bd 35be 4ebd
00000120: fa07 a23c 640f 133d 18d3 a8bc ca55 503d
00000130: af28 4dbc 8356 ae3b d06c 243d 987c 15bd
00000140: 67de 31bd 514e 29bd c407 383d 5424 10bc
00000150: b5be 4e3b 7e03 10bd e825 b33c 1cc9 f13b
00000160: 9950 16ba 9dd4 83bd 3242 cdbc b937 463d
00000170: bb66 f2bc 53e9 a33c 7482 e9bc 0344 fd3c
00000180: 3dc2 9f3b 73e3 833d 1d67 823c 71bf e5bc
00000190: 1407 6d3d f951 0bbd e6e7 63bd 9dfb d9bc
000001a0: 5249 dbbc 211e 613c 1986 ccbc b69d 9b3c
000001b0: fec0 8abc dd51 09bd 1273 16bd 9bb8 e1bc
000001c0: 9964 62bd 7ed9 2c3d 7440 14bc e156 6ebc
000001d0: db19 7c3d 3da1 6b3d 4756 313c 479d 51bc
000001e0: 08d3 623d 4473 8bbb 2eec 973c 17d6 e5bc
000001f0: 5b5c 23bd 5af4 4b3d 9df7 463d e798 ef3b
00000200: 0af3 d33a 0d1e 6fbc d6ab 883c f2d4 81bd
00000210: 4416 9fbc 1260 8ebd c2fd 5abd 221c 3bbc
00000220: a32b b2bc f4b2 40bd 8855 b63a 8009 17bc
00000230: cd19 3ebd 56ee db3c 57f2 74bd 476a dcbc
00000240: a9cb 093c 740d d837 da84 543d ca07 8d3c
00000250: 8b6f 343d d3a2 1bbd a7d0 ffbc 35a5 4ebd
00000260: 4f11 413c 7c05 393d be91 91bb dc40 613c
00000270: c1b1 38bd 8b41 7fbd a01e 693d d95a 7f3d
00000280: a3e0 673d 4102 463c 68c9 a13b 1f0b 51bd
00000290: 140b e4bb ce6e 42bd 09d9 2abd a6c9 5fbc
000002a0: 81e2 633b 6760 77bc 7e8b c4bc fb10 c3bc
000002b0: f4e6 70bd 9e2e fbbb d14b cdbc efa5 27bd
000002c0: f7bd 983b 04a3 99bc 30d6 50bd bc1c 0f3b
000002d0: 8312 10bc 36ce a53a 56dd 513d c139 17bd
000002e0: bcc9 54bd 7375 bcb9 0e64 1ebd 08ff b5bc
000002f0: 17bb 8fbc 5b83 193d a881 3e3d bc4b 70bc
00000300: 415b 5d3c 3990 ff3b 5b3d 413d 62c9 25bd
00000310: bbeb a83c c033 e7bc 91b6 a5ba 2b36 3fbd
00000320: ceba 1fbd a4a6 4a3d ca5a 62bd ff60 223d
00000330: 457a 4a3d d129 633c 1202 fabb 9cce 3ebd
00000340: b7ff 7d3d 3151 42bd ad2d 61bc 1452 3c3d
00000350: 0687 80bd 1f04 47bd d4b5 83bd c3c0 eb39
00000360: 5c87 263d 6f92 00bd a2dd 6a3d 33f8 d03c
00000370: e90a d23c eb24 71bd 4db9 34bd 2ff5 ad3c
00000380: 13d1 23bc 6f70 23bd 2da9 a73c 0360 903b
00000390: aa9a ba3c 69e6 e7bc 0b00 0f3c 54a2 ed3b
000003a0: 1205 32bd 2762 8c3c 3917 e93c 5447 dc3b
000003b0: cfcb 67bd 0e05 17bd 69e7 b73c 38ec a5bb
000003c0: d83f a53c 0df6 813d 6645 b8bc 14d3 f33c
000003d0: eda9 17bd 0514 8f3c 89c3 51bd 56e2 773c
000003e0: 1220 163a 34d3 2c3d c96b eabc cf54 48bb
000003f0: c7a7 1a3d 2a7d d0bc 411d 193d 26ce 87bd

value_net.0.weight f4 [256, 32]
-0.011763607 0.09955916 -0.0063031456 -0.042203154 -0.16083747 0.01685897 0.15038337 -0.02203433
-0.17370792 0.09260508 -0.104689695 -0.17138778 0.039092634 -0.17475031 -0.17667851 0.13678287
0.022364529 -0.15039809 0.11416017 -0.05205431 0.17297581 -0.016079571 -0.15922643 -0.10522974
-0.15746875 -0.102048665 -0.09528519 0.12714088 -0.08297283 0.0285539 -0.06309585 0.14067377
-0.026076065 -0.08755721 0.07606817 0.011130371 -0.17560153 -0.15179354 -0.15261911 0.018106075
0.0035265111 -0.050930735 -0.09200398 0.11118722 -0.0035433488 0.1762655 0.05714019 0.11388974
0.17389067 -0.14042963 -0.07988248 -0.052168272 0.10434632 -0.17152147 -0.11951653 -0.13851807
-0.014653911 0.035084616 0.13744399 -0.045274734 0.034881193 0.02261151 -0.026288569 0.07406341
0.14207044 0.16283189 0.1656555 -0.13381645 0.015953615 -0.117608756 0.15338114 -0.10261295
0.072436966 -0.11205043 0.12788922 -0.13145287 0.12314091 -0.13517696 0.003498083 -0.10890891
-0.087039776 -0.054430503 0.04391792 -0.15641761 0.05476178 0.05562579 -0.09505475 0.084481165
-0.13593973 0.14884286 -0.13583758 0.17059462 -0.058595162 -0.0049536033 -0.015529049 0.13395871
0.16825764 -0.036483724 0.059710134 -0.020805286 0.116076656 0.013317983 -0.14481588 -0.16359493
-0.010374089 -0.0008585945 0.11895101 -0.1752032 0.040350042 -0.026467884 -0.104455866 0.043374985
-0.02680413 -0.16512904 0.04142087 0.17397857 -0.118247256 0.0342625 -0.03587257 -0.028885363
0.14601827 0.02549385 -0.11542502 -0.025219915 0.15357617 -0.110504776 -0.033282395 -0.10846757
-0.13332564 -0.09527792 0.06037755 0.03414881 0.14225471 -0.010076616 -0.07467636 0.09482693
0.12807883 0.02731786 0.09147402 0.06903266 -0.12894912 0.08487041 -0.09301727 -0.120880045
-0.021645756 -0.06493799 -0.14451109 -0.16427505 0.15531419 -0.046585985 -0.09165264 -0.03555093
0.13629863 -0.08622634 -0.13204592 0.13018845 0.0988544 0.14915247 -0.1348148 0.08803699
0.065462925 -0.05940044 -0.029564666 0.11903003 -0.1647582 0.16330786 -0.088381834 -0.05491395
-0.10504883 0.092147045 -0.15428376 -0.027279926 0.018015206 0.052079007 -0.13652521 0.024669688
-0.11528575 0.04935082 -0.08865847 -0.10849686 0.088828735 0.09566938 0.03468068 -0.022596464
-0.06770893 0.093898855 0.062288888 0.0018670422 -0.04834254 0.13334349 0.12152947 -0.17071891
-0.08222395 0.14877981 0.04346539 0.00906271 -0.11012044 0.16174652 -0.0934152 -0.007893557
0.16133305 -0.16050102 -0.14074501 0.048645575 -0.15409578 -0.13267265 -0.12649561 -0.118543744
-0.041898496 -0.09090988 0.08093769 0.013834408 -0.15072545 0.08656061 -0.17407049 0.15522979
0.17444974 0.07312002 -0.15274458 0.13534985 -0.16723597 -0.111399874 0.13138635 0.13869521
0.10459235 0.07464086 0.06285001 -0.13337684 0.1235644 0.0720132 -0.005429062 -0.1137782
0.13312341 0.058342658 0.13243374 0.0064552957 0.03850397 -0.09732637 -0.058476876 0.0028401706
0.14535451 0.08913384 -0.011525224 0.007099995 -0.10366082 -0.12873803 0.028975304 -0.1270629
0.10293664 -0.1579916 0.14311051 -0.037269026 0.008911508 -0.01987797 0.16695651 0.16497661
00000000: 25bc 40bc ace5 cb3d 9e8a cebb 37dd 2cbd
00000010: 94b2 24be d31b 8a3c 19fe 193e 5781 b4bc
00000020: 7de0 31be bba7 bd3d 8d67 d6bd 4780 2fbe
00000030: 991f 203d bff1 32be 36eb 34be cf10 0c3e
00000040: d135 b73c f501 1abe cfcc e93d e636 55bd
00000050: 9220 313e 4eb9 83bc 410c 23be b182 d7bd
00000060: 7d3f 21be e4fe d0bd e224 c3bd 3831 023e
00000070: a9ed a9bd dee9 e93c 6638 81bd c90c 103e
00000080: 799d d5bc 3251 b3bd a1c9 9b3d 295c 363c
00000090: e3d0 33be c46f 1bbe 2f48 1cbe 3153 943c
000000a0: 0a1d 673b bf9c 50bd 956c bcbd 20b6 e33d
000000b0: 8737 68bb f17e 343e d50b 6a3d 063f e93d
000000c0: 6510 323e c9cc 0fbe 6d99 a3bd 66ae 55bd
000000d0: 86b3 d53d 53a3 2fbe 15c5 f4bd aed7 0dbe
000000e0: f516 70bc e3b4 0f3d 1ebe 0c3e 0072 39bd
000000f0: 95df 0e3d c63b b93c 205b d7bc 8fae 973d
00000100: ea7a 113e 67bd 263e 98a1 293e 2e07 09be
00000110: 28b1 823c dcdc f0bd f20f 1d3e bd26 d2bd
00000120: d559 943d b27a e5bd 64f5 023e 959b 06be
00000130: 4d31 fc3d d46b 0abe 1840 653b a20b dfbd
00000140: e941 b2bd 85f2 5ebd 47e3 333d f02b 20be
00000150: e34d 603d ded7 633d 11ac c2bd 7604 ad3d
00000160: c933 0bbe 436a 183e 0219 0bbe 5bb0 2e3e
00000170: 7b01 70bd d651 a2bb 8d6d 7ebc 792c 093e
00000180: bb4b 2c3e f56f 15bd 9d92 743d d96f aabc
00000190: 99b9 ed3d ab33 5a3c 9d4a 14be 6e85 27be
000001a0: 15f8 29bc 4d13 61ba 969c f33d 7868 33be
000001b0: 1646 253d 2dd3 d8bc f5ec d5bd f8a9 313d
000001c0: 5694 dbbc 9617 29be eea8 293d 7027 323e
000001d0: 9e2b f2bd d656 0c3d 1eef 12bd ffa0 ecbc
000001e0: d085 153e 7ad8 d03c f463 ecbd ff99 cebc
000001f0: 1243 1d3e 5450 e2bd 1f53 08bd 3f24 debd
00000200: 8486 08be 1221 c3bd 734e 773d 9fdf 0b3d
00000210: 38ab 113e 6418 25bc ebef 98bd 9f34 c23d
00000220: 1927 033e b4c9 df3c bb56 bb3d ff60 8d3d
00000230: 3d0b 04be 8ad0 ad3d d77f bebd f58f f7bd
00000240: 7152 b1bc 35fe 84bd b7fa 13be b837 28be
00000250: af0a 1f3e f2d0 3ebd 61b4 bbbd da9d 11bd
00000260: de91 0b3e 6f97 b0bd 0c37 07be 1f50 053e
00000270: 2d74 ca3d 6dbb 183e e40c 0abe bd4c b43d
00000280: 6d11 863d e04d 73bd 9931 f2bc 04c6 f33d
00000290: 60b6 28be 2d3a 273e 8901 b5bd 73ed 60bd
000002a0: d723 d7bd 97b7 bc3d 90fc 1dbe 277a dfbc
000002b0: a094 933c cc50 553d 44cd 0bbe 1618 ca3c
000002c0: ef1a ecbd 1624 4a3d 9292 b5bd 9a33 debd
000002d0: d7eb b53d 4fee c33d 540d 0e3d 381c b9bc
000002e0: fbaa 8abd 0b4e c03d a222 7f3d 8ab7 f43a
000002f0: d402 46bd 328b 083e 71e4 f83d f0d0 2ebe
00000300: 0865 a8bd bc59 183e c408 323d c37b 143c
00000310: d386 e1bd e1a0 253e 7850 bfbd fa53 01bc
00000320: 7e34 253e 615a 24be 761f 10be 9540 473d
00000330: 49cb 1dbe 57db 07be 1188 01be 10c7 f2bd
00000340: c29d 2bbd f62e babd a9c2 a53d b6a9 623c
00000350: c657 1abe b046 b13d 893f 32be 8ff4 1e3e
00000360: f4a2 323e f3bf 953d 1369 1cbe 2799 0a3e
00000370: e83f 2bbe 9e25 e4bd 258a 063e 1e06 0e3e
00000380: 8434 d63d 4fdd 983d 82b7 803d f093 08be
00000390: 550f fd3d a87b 933d 46e6 b1bb 8b04 e9bd
000003a0: 8151 083e b6f8 6e3d b69c 073e f286 d33b
000003b0: 57b6 1d3d 0c53 c7bd 7385 6fbd 2822 3a3b
000003c0: d0d7 143e cd8b b63d 4bd4 3cbc 13a7 e83b
000003d0: 204c d4bd e7d3 03be 9e5d ed3c c71c 02be
000003e0: 72d0 d23d 8dc8 21be 908b 123e 68a7 18bd
000003f0: 9301 123c 20d7 a2bc a6f6 2a3e a1ef 283e

value_net.0.bias f4 [256]
0.14553545 -0.0018280142 0.0083188815 -0.032019593 -0.05733866 0.08059382 -0.010926549 0.05948958
0.042291075 0.096925355 -0.004356825 0.104053594 -0.16229078 -0.13830751 0.15535611 -0.103237756
0.03830771 0.12426998 -0.14680776 0.019995308 -0.05589772 -0.018594114 -0.020748535 0.1225694
-0.14522819 0.17250013 -0.025003048 0.09870895 -0.039174084 0.07279654 0.10950746 0.06632142
-0.17389001 -0.090759486 -0.08657635 0.05307072 -0.11334826 -0.025235867 -0.020870171 0.122832924
-0.0011880564 0.15415539 0.12034999 -0.15791999 -0.114655465 -0.15377669 0.15888639 -0.14696842
-0.04382208 -0.048828218 0.07397756 0.11820804 -0.09176077 0.119499296 0.099958986 -0.029105075
-0.16384062 0.056173887 -0.042239044 -0.012695874 0.14950545 -0.124575526 0.03530985 0.111072876
-0.10095595 0.0022264284 -0.16490707 -0.007156303 -0.030163845 0.012059941 0.15364873 0.12409692
-0.08964658 0.014905781 -0.023864893 -0.047212835 -0.0669152 -0.17302243 -0.17014879 -0.118992686
0.09458465 0.031486202 -0.10029312 0.12998128 -0.02211443 -0.12718992 0.01929 0.100507
0.11282321 0.053553704 0.0350596 -0.047135055 -0.12583369 -0.02575754 0.11941258 0.11008388
-0.060775608 0.015688807 -0.0521735 -0.036049947 -0.10014251 -0.018344415 0.14604199 -0.07919962
0.08243255 0.14453766 0.11214412 0.156694 0.17453367 0.0063720555 0.06052749 -0.026369238
0.17130814 0.12374363 -0.08646074 -0.13759477 -0.0996452 -0.14685485 -0.16052027 0.13637514
-0.056899678 -0.16169454 -0.094274536 0.12583964 -0.053689983 -0.09946844 0.021363879 0.00982462
-0.08161324 -0.08723719 0.16271073 0.067469455 0.14532577 0.17003112 -0.12659335 -0.09154854
0.04778867 0.110481516 0.03822346 -0.014966599 0.11389838 -0.03055501 0.031128777 0.13968436
0.014461237 -0.06740303 -0.024869064 0.017067472 -0.15101755 0.03761033 -0.061966106 0.070276774
0.0824747 0.1581206 -0.16898829 0.14296721 0.052243274 -0.16209735 0.02342642 -0.08464918
-0.049714316 -0.013532742 0.023502009 -0.13837586 -0.12392931 0.11471482 0.09793768 -0.140819
0.06514858 -0.08088465 -0.028055828 -0.053996097 0.16812871 0.13401859 0.124849625 -0.07090994
0.040787634 -0.019857299 -0.0401109 -0.06951092 -0.017316243 -0.12572734 0.011807292 -0.018564528
-0.0720117 -0.09176408 -0.13147582 0.16437772 -0.13626759 -0.004035434 -0.004439264 -0.004965236
-0.035583634 -0.019274428 -0.08869515 -0.022306472 -0.02730532 0.15447779 -0.088372245 -0.16949412
0.086996846 -0.13344474 -0.081587195 0.0799339 -0.05481678 -0.040264107 -0.15453225 -0.12582844
-0.02275915 -0.09174355 0.08384789 0.17151111 -0.15252556 -0.17431228 -0.15249844 -0.011895231
-0.05895657 0.09978774 0.03424916 -0.107484385 0.14569636 0.06371017 -0.0027002643 0.03765235
0.08398187 0.13626929 0.09473303 -0.0057613053 -0.13939252 0.08649749 0.14368308 0.076285265
0.06181219 -0.029297285 0.0031181502 -0.10915785 -0.08194211 -0.10891601 0.025695458 -0.17348136
0.034946375 0.1194518 0.006615306 0.1575153 0.13996534 -0.15014425 0.08013408 -0.060172528
0.046519984 -0.16854356 0.052405033 0.058347866 -0.12710813 -0.078620225 0.10071556 0.1751167
00000000: 3f07 153e fa99 efba eb4b 083c fa26 03bd
00000010: f1db 6abd 5f0e a53d 4505 33bc 59ab 733d
00000020: 6839 2d3d cd80 c63d b2c3 8ebb 0d1a d53d
00000030: 8e2f 26be 7ca0 0dbe ac15 1f3e 516e d3bd
00000040: 8ce8 1c3d 4281 fe3d c654 16be 33cd a33c
00000050: 02f5 64bd af52 98bc d5f8 a9bc aa05 fb3d
00000060: b3b6 14be e0a3 303e 31d3 ccbc eb27 ca3d
00000070: 0175 20bd 5a16 953d 7245 e03d 86d3 873d
00000080: 3910 32be 1ce0 b9bd f14e b1bd af60 593d
00000090: 2223 e8bd 73bb cebc ecf7 aabc d48f fb3d
000000a0: 8fb8 9bba e9da 1d3e 0e7a f63d c7b5 21be
000000b0: 7cd0 eabd a377 1dbe 1db3 223e e47e 16be
000000c0: c87e 33bd 1900 48bd 8c81 973d 0f17 f23d
000000d0: 12ed bbbd 0cbc f43d 4cb7 cc3d c46d eebc
000000e0: d6c5 27be 9716 663d d902 2dbd 5b02 50bc
000000f0: f517 193e 7421 ffbd 10a1 103d 2d7a e33d
00000100: fec1 cebd 45e9 113b 66dd 28be 6c7f eabb
00000110: 2b1a f7bc 0f97 453c 1856 1d3e 8726 fe3d
00000120: a098 b7bd 6037 743c 4f80 c3bc 3f62 41bd
00000130: d60a 89bd cb2c 31be 7c3b 2ebe 70b2 f3bd
00000140: 99b5 c13d adf7 003d 7b66 cdbd d019 053e
00000150: 5229 b5bc 133e 02be 1006 9e3c 9dd6 cd3d
00000160: db0f e73d 215b 5b3d a89a 0f3d b010 41bd
00000170: 8cda 00be 7a01 d3bc 958e f43d a873 e13d
00000180: d8ef 78bd d085 803c e1b3 55bd 1ca9 13bd
00000190: 8417 cdbd 0747 96bc 088c 153e 6933 a2bd
000001a0: 66d2 a83d ae01 143e d1ab e53d 6474 203e
000001b0: f4b8 323e adcc d03b aceb 773d 4d04 d8bc
000001c0: 676b 2f3e 4d6d fd3d 5412 b1bd a5e5 0cbe
000001d0: c812 ccbd 1e61 16be 6d5f 24be eda5 0b3e
000001e0: a30f 69bd 4193 25be 0213 c1bd 1bdc 003e
000001f0: 07ea 5bbd 1cb6 cbbd 4d03 af3c 71f7 203c
00000200: d824 a7bd 69a9 b2bd a49d 263e 6d2d 8a3d
00000210: 47d0 143e a31c 2e3e b0a1 01be cd7d bbbd
00000220: 0dbe 433d 2244 e23d 3490 1c3d 7736 75bc
00000230: 8e43 e93d 804e fabc c701 ff3c 6b09 0f3e
00000240: d3ee 6c3c 9a0a 8abd 35ba cbbc 15d1 8b3c
00000250: 58a4 1abe 4a0d 1a3d 2cd0 7dbd 45ed 8f3d
00000260: 7fe8 a83d 5eea 213e 440b 2dbe ff65 123e
00000270: 0bfd 553d d9fc 25be c3e8 bf3c 8d5c adbd
00000280: 3da1 4bbd 6fb8 5dbc 4987 c03c 67b2 0dbe
00000290: a6ce fdbd 9bef ea3d 8d93 c83d db32 10be
000002a0: 9e6c 853d daa6 a5bd 56d5 e5bc 032b 5dbd
000002b0: ef29 2c3e 2b3c 093e 29b1 ff3d 3b39 91bd
000002c0: ef10 273d c6ab a2bc 544b 24bd be5b 8ebd
000002d0: cbda 8dbc abbe 00be 5f73 413c a314 98bc
000002e0: df7a 93bd ceee bbbd 99a1 06be a252 283e
000002f0: bb89 0bbe ad3b 84bb 3f77 91bb 6bb3 a2bb
00000300: 25c0 11bd 68e5 9dbc cea5 b5bd 10bc b6bc
00000310: 68af dfbc 6d2f 1e3e 82fc b4bd de8f 2dbe
00000320: 672b b23d bda5 08be 3017 a7bd 62b4 a33d
00000330: 8f87 60bd faeb 24bd b43d 1ebe 2cd9 00be
00000340: 6671 babc 0be4 bbbd 71b8 ab3d 9ca0 2f3e
00000350: a92f 1cbe eb7e 32be 8d28 1cbe 37e4 42bc
00000360: 727c 71bd 845d cc3d d948 0c3d c620 dcbd
00000370: 6d31 153e 7a7a 823d ebf6 30bb 5a39 1a3d
00000380: b0fe ab3d 2d8a 0b3e 6403 c23d 55c9 bcbb
00000390: eabc 0ebe 9925 b13d a821 133e 733b 9c3d
000003a0: c72e 7d3d dc00 f0bc e159 4c3b 278e dfbd
000003b0: 44d1 a7bd 5b0f dfbd 487f d23c 19a5 31be
000003c0: ee23 0f3d 25a3 f43d 35c5 d83b b14b 213e
000003d0: 1353 0f3e 6abf 19be 561d a43d 7877 76bd
000003e0: bd8b 3e3d af96 2cbe a9a6 563d 2cfe 6e3d
000003f0: a228 02be a403 a1bd f643 ce3d cb51 333e

value_net.2.weight f4 [256, 256]
0.009737328 -0.030629002 -0.045530178 0.043162435 -0.059238374 0.05225788 -0.0057405904 -0.020654745
-0.02882392 0.029136777 -0.011399709 0.058413766 0.028123982 0.0032496825 -0.052997462 -0.044803627
0.056028947 0.044925027 -0.053085245 -0.048239365 -0.021333978 0.018500455 0.046364307 0.05826869
0.041721314 0.041568436 0.03379394 0.057535768 0.0011463389 -0.040419012 -0.00034946948 -0.06233839
0.036413655 0.00017985702 -0.010846674 -0.010227092 -0.015647873 -0.00459069 0.044750802 0.019487135
0.05981864 0.0054068416 -0.022899404 0.00032413006 -0.00526572 -0.04758194 0.038075253 0.022169687
-0.050407015 -0.028598025 0.06194079 -0.037544645 0.030911677 -0.0067968816 -0.028663866 -0.034808144
-0.042961463 0.05385822 -0.013490431 0.02661895 -0.021103784 0.018243052 -0.0059133843 -0.001774922
0.04981438 -0.04116734 0.016757108 -0.007996321 -0.037957005 -0.060587883 -0.0013922378 0.010317132
-0.011449717 -0.058242917 -0.015211195 0.03208012 0.051980972 -0.049876995 -0.009535268 -0.017594889
-0.029383428 0.009323351 0.041389644 -0.038898997 0.034068137 -0.023611248 -0.014811054 0.018822268
-9.29907e-05 0.01891528 0.058310002 0.009512782 0.043918855 -0.015774965 0.022973724 0.037127063
0.008595325 -0.0432444 0.011463411 0.024646282 -0.029751554 0.015379988 0.054207794 0.05733037
-0.05923111 0.059092738 0.0065882877 -0.008792192 0.05673898 -0.021254905 0.06006454 -0.030338049
0.00079969317 -0.023972072 -0.041368686 0.010352515 -0.0011813864 0.034793787 -0.008551627 -0.03189642
-0.0013295561 0.052359328 0.046025895 -0.04182542 -0.0144106895 0.035642438 -0.020468026 0.005116977
0.030325241 0.039338022 0.0010480434 0.001101762 0.030096307 -0.006676443 0.038495705 0.0070238113
-0.038830467 0.01358363 0.008226745 -0.002140157 -0.006852947 0.059106924 -0.04233008 -0.06091401
0.016046204 0.00496608 0.027296543 0.00040009618 -0.03766159 -0.05916015 -0.009531356 0.022972643
-0.014007293 -0.00068550557 -0.0009524822 0.029941373 0.03614317 0.05682528 0.012138896 -0.03128735
-0.060782798 0.0076151416 0.015619606 0.04833111 0.033759356 -0.042746276 0.023652703 -0.013101257
0.0030294731 0.042068146 -0.023885868 -0.024126016 0.03994008 0.04182873 -0.031076312 -0.022592977
0.055707484 -0.028167754 0.0316713 -0.046638943 -0.045237973 0.043269172 -0.017531835 0.011331551
0.044428617 9.5278025e-05 0.0004259199 -0.058291346 0.026206538 0.007553309 -0.021109328 -0.058396496
0.007279873 0.033518225 -0.021148495 0.047275715 0.005046159 0.061038576 -0.028974958 0.009004809
0.016908973 -0.030934349 -0.013430409 -0.04201608 0.035917133 0.034257673 0.046267956 0.05074086
0.023139767 -0.059280366 0.057902284 -0.018762626 0.061818816 0.032920092 -0.012358241 -0.05967121
-0.029247217 0.029392287 0.027353026 -0.049864255 -0.054907754 0.035905764 0.021780983 0.06055332
0.0012268946 -0.024005726 0.027534664 0.060223863 0.0582271 -0.054611064 0.039796405 0.05772485
0.028584763 -0.05433294 0.019232303 0.025385521 0.04600005 -0.022170588 0.013965711 -0.00911285
0.008733407 0.04013475 0.008900501 0.033549212 0.03794372 -0.032287054 -0.054593205 0.040615335
0.05824604 0.018004745 0.030371688 0.0051418245 -0.037266538 0.011659354 0.02258724 -0.02699554
00000000: 5089 1f3c ace9 fabc da7d 3abd 18cb 303d
00000010: f0a3 72bd 5c0c 563d 901b bcbb 2434 a9bc
00000020: 2420 ecbc 40b0 ee3c d8c5 3abc 4643 6f3d
00000030: 4464 e63c a0f8 543b de13 59bd 0284 37bd
00000040: 9c7e 653d 4e03 383d ea6f 59bd a496 45bd
00000050: 98c4 aebc 448e 973c 80e8 3d3d 26ab 6e3d
00000060: f8e3 2a3d aa43 2a3d 846b 0a3d a0aa 6b3d
00000070: c040 963a 688e 25bd 0039 b7b9 8a56 7fbd
00000080: 7c26 153d 0098 3c39 40b6 31bc 888f 27bc
00000090: f82f 80bc 806d 96bb 9e4c 373d 7ca3 9f3c
000000a0: 6404 753d e02b b13b 8897 bbbc 00f0 a939
000000b0: 108c acbb 48e5 42bd ccf4 1b3d 349d b53c
000000c0: 9677 4ebd 6846 eabc a0b5 7d3d 6ac8 19bd
000000d0: 7c3a fd3c 60b8 debb 7cd0 eabc fc92 0ebd
000000e0: 5cf8 2fbd 709a 5c3d f806 5dbc fc0f da3c
000000f0: d8e1 acbc 7472 953c 10c5 c1bb 80a4 e8ba
00000100: 2a0a 4c3d 169f 28bd 3446 893c 0003 03bc
00000110: ce78 1bbd 002b 78bd c07b b6ba 3009 293c
00000120: 9897 3bbc 2090 6ebd 6038 79bc 7266 033d
00000130: 00ea 543d d24b 4cbd d039 1cbc 2823 90bc
00000140: 84b5 f0bc f8c0 183c 3088 293d 8e54 1fbd
00000150: 088b 0b3d 606c c1bc 10aa 72bc 2831 9a3c
00000160: 0004 c3b8 38f4 9a3c 78d6 6e3d 80db 1b3c
00000170: 42e4 333d 803a 81bc 6433 bc3c 8c12 183d
00000180: 68d3 0c3c 0a21 31bd 08d1 3b3c 00e7 c93c
00000190: 88b9 f3bc 58fc 7b3c fe08 5e3d 40d3 6a3d
000001a0: 529c 72bd 3a0b 723d 90e2 d73b 200d 10bc
000001b0: 2267 683d c41e aebc 3c06 763d 8087 f8bc
000001c0: 80a2 513a 1461 c4bc 3672 29bd 989d 293c
000001d0: c0d8 9aba ee83 0e3d 201c 0cbc d2a5 02bd
000001e0: 8044 aeba bc76 563d a685 3c3d 2251 2bbd
000001f0: d01a 6cbc cefd 113d 90ac a7bc 50ac a73b
00000200: a46c f83c e820 213d 805e 893a 0069 903a
00000210: 888c f63c 10c6 dabb acad 1d3d 0028 e63b
00000220: b20c 1fbd e08d 5e3c 78c9 063c e041 0cbb
00000230: b08e e0bb 1a1a 723d 4e62 2dbd f880 79bd
00000240: 5473 833c 80ba a23b 009d df3c 00c4 d139
00000250: 0a43 1abd ea51 72bd 6829 1cbc 2031 bc3c
00000260: d87e 65bc 80b3 33ba 00b0 79ba 9c47 f53c
00000270: dc0a 143d a0c1 683d 38e2 463c 2a27 00bd
00000280: 62f7 78bd 7088 f93b 60e9 7f3c d8f6 453d
00000290: 4047 0a3d b816 2fbd 50c3 c13c a8a6 56bc
000002a0: 208a 463b a64f 2c3d 4cac c3bc eca3 c5bc
000002b0: 3698 233d 9a54 2b3d c093 febc e814 b9bc
000002c0: 882d 643d 10c0 e6bc c4b9 013d 7a08 3fbd
000002d0: 744b 39bd 043b 313d ec9e 8fbc f8a7 393c
000002e0: c8fa 353d 00d0 c738 004e df39 e8c2 6ebd
000002f0: 18af d63c c081 f73b 78ed acbc 2a31 6fbd
00000300: 008c ee3b 684a 093d 9c3f adbc 2ea4 413d
00000310: 405a a53b 9603 7a3d e45c edbc e888 133c
00000320: b084 8a3c 086a fdbc 380b 5cbc 0e19 2cbd
00000330: d81d 133d c651 0c3d 7883 3d3d a6d5 4f3d
00000340: 9c8f bd3c f8cf 72bd f22a 6d3d 14b4 99bc
00000350: ba35 7d3d 38d7 063d 387a 4abc cc69 74bd
00000360: dc97 efbc 18c8 f03c 7413 e03c 763e 4cbd
00000370: f4e6 60bd ec11 133d 086e b23c c206 783d
00000380: c0cf a03a a8a7 c4bc 6090 e13c 4cad 763d
00000390: 8a7f 6e3d daaf 5fbd 8e01 233d e470 6c3d
000003a0: 982a ea3c 388c 5ebd 108d 9d3c 4cf5 cf3c
000003b0: 8c6a 3c3d 189f b5bc 70d0 643c 104e 15bc
000003c0: 9016 0f3c 5664 243d 68d3 113c e66a 093d
000003d0: e06a 1b3d 6e3f 04bd 209d 5fbd 445c 263d
000003e0: 6693 6e3d b07e 933c 0cce f83c c07c a83b
000003f0: cca4 18bd e006 3f3c e008 b93c c025 ddbc
