AM_RL/Controller/model/pretraining_controller.pth (torch, 625866 bytes, 10 tensors)

policy_net.0.weight f4 [256, 41]
000000 dc e9 4c 3d cc 20 0a bd d9 66 e4 bb 2f 78 44 be
       0.050027713 -0.033722684 -0.006970268 -0.19186471
000010 bb c3 38 be 65 d1 9f bc 92 08 e3 3d 07 b6 a4 bc
       -0.18043415 -0.019509027 0.11085619 -0.020106329
000020 00 6c b7 3d 7f 1e f2 bc 3a a1 d3 3d 5f be a0 bd
       0.08956146 -0.029555557 0.10333486 -0.078488104
000030 26 e9 12 3e 66 58 5e bd 3c a0 41 bd a6 61 9b 3d
       0.14346752 -0.054283522 -0.047271952 0.07586984
000040 32 83 0a be 6c bb 8e bd 3a 50 fe bd 6d d0 47 3d
       -0.1352661 -0.06969342 -0.12417646 0.048782755
000050 f1 4b f5 bd a2 07 d5 3d 00 e9 5c be 3b 3e 0e be
       -0.11977375 0.104018465 -0.21573257 -0.13890927
000060 a1 87 73 bd 99 b0 26 be d8 14 48 bc 9a cf c5 bc
       -0.059455518 -0.16278304 -0.012212001 -0.024146844
000070 6e 5a ea bc 3a 91 00 3e 3e f2 08 3e a2 a5 6e 3d
       -0.028607573 0.125554 0.13373658 0.05826343
000080 c2 43 a2 bd b4 89 5c 3c b7 2d 0f be 58 64 14 3d
       -0.0792308 0.013460565 -0.13982283 0.036228508
000090 aa 78 fd 3d 69 f2 70 3c 27 98 35 bd 43 db 2e be
       0.123765305 0.014706233 -0.044334557 -0.17075829
0000a0 c9 d2 60 bd 8e d8 2b bd 5a 2c 17 3c 15 71 be 3d
       -0.05488852 -0.04195457 0.009226883 0.092989124
0000b0 f1 06 20 be 38 9b 18 be 60 06 83 bc ed 0c 9e bd
       -0.15627648 -0.14902961 -0.01599425 -0.07717309
0000c0 26 f9 aa bd c1 71 ff bd 04 51 92 3d 90 e0 7f bd
       -0.083483025 -0.12472869 0.07144359 -0.06247002
0000d0 4f 8a 26 be c4 61 05 3e ff ab f9 bd 2c 92 47 bd
       -0.16263698 0.13025576 -0.12191009 -0.048723385
0000e0 cb 5d a2 bc 84 30 de 3c b6 17 97 3d e2 0c 15 3d
       -0.019820115 0.027122743 0.073775694 0.03638924
0000f0 18 6a 0d 3e 86 78 fb 3d a2 08 06 3d 4d 2a 2c 3e
       0.13810003 0.122788474 0.032723077 0.16813011
000100 23 02 4c be f9 11 b6 bd 53 19 19 be 8a 0e 2b bd
       -0.1992269 -0.08890147 -0.14951067 -0.041761912
000110 f4 6a 2e bb 05 be 43 bd 35 29 b5 bc 21 b9 3b 3d
       -0.0026614042 -0.04778864 -0.022114376 0.04583085
000120 dd 90 3a 3e 20 37 d6 bd ac 26 97 3d 0e e0 96 3d
       0.18219323 -0.10459733 0.07380423 0.07366954
000130 36 be 2c 3d 12 dc b1 bc 01 9b a4 3c 33 fc c8 bd
       0.042173587 -0.021711383 0.020093443 -0.09813728
000140 ba c6 14 3e 27 56 ac bd cc e4 e2 3d 34 85 d7 bc
       0.14528933 -0.0841487 0.11078796 -0.026308633
000150 d1 45 52 bd 77 d0 6d 3e 02 cd 49 3e 55 e4 27 3e
       -0.051336113 0.23224054 0.1970711 0.16395696
000160 1f 1c ab 3c 1c 70 df bc d2 f3 85 3d 97 49 dd bc
       0.020887433 -0.027275138 0.06540646 -0.02701263
000170 1a 43 26 be 04 87 b9 3d c0 43 b8 bd ca e1 d9 3d
       -0.16236535 0.09058955 -0.08997297 0.10638769
000180 1a 3c 0e be ff b0 e9 3d 16 70 fc bc 8a 64 6e be
       -0.13890114 0.114107125 -0.030815165 -0.2328054
000190 88 e6 f4 bb 4d f6 ea bd 30 29 5f 3c 50 6e 1e 3d
       -0.0074737705 -0.114727594 0.01362066 0.03867942
0001a0 f4 d8 d9 be 85 3b e6 be 63 a8 0e be b0 73 33 be
       -0.42548335 -0.44967285 -0.13931422 -0.175246
0001b0 42 67 56 bd ba 12 7d bd f7 e5 eb bc 49 48 e0 3d
       -0.052344568 -0.061785437 -0.02879618 0.10951287
0001c0 6a 71 98 bd 4c 25 af bd f8 02 31 3d 5f 39 b0 bd
       -0.07443507 -0.08552036 0.04321572 -0.08604693
0001d0 f5 a1 f1 3c ea e5 54 39 bb 50 9b bb b1 3d bf bd
       0.029496172 0.00020303545 -0.0047398484 -0.093379386
0001e0 6e be ba 3d 82 a4 8a bd 28 7b 0c 3e 56 df 20 be
       0.09118353 -0.067696586 0.13718855 -0.15710196
0001f0 60 11 d7 3d d2 ba 0d 3e 85 53 c5 3d 08 c5 65 bd
       0.10501361 0.13840798 0.09635071 -0.056096107
000200 19 44 72 3e 1d f4 27 be 3d 2b 59 3c 68 21 b8 3b
       0.2365879 -0.16401716 0.013254938 0.0056192167
000210 75 5c c7 3d 00 69 22 be 70 c9 98 3d 56 74 86 3d
       0.09734432 -0.15860367 0.07460296 0.06565158
000220 2d 8a ec 3d 88 82 24 be c8 70 52 bd cb 81 02 3e
       0.115497924 -0.16065419 -0.051377088 0.12744825
000230 e0 2c 99 bd cd 44 90 bd 66 ed 18 3d 3a 73 1f 3e
       -0.07479262 -0.07044373 0.037335776 0.15571299
000240 d2 5f 5e 3c e9 60 a2 be 8f 9c b2 3e 95 d9 ec bd
       0.01357265 -0.31714562 0.3488507 -0.11564938
000250 48 a6 d4 3d 7d 94 c5 3d 06 4b 09 be 9d 56 78 bd
       0.10383278 0.096474625 -0.13407525 -0.060629476
000260 b6 68 04 3e ad 68 59 bd b8 b7 12 be f6 7f bb 3d
       0.12930569 -0.053078342 -0.14327896 0.09155266
000270 7f 85 eb bd 0d df b3 bd c2 04 87 bd 9a f4 08 3e
       -0.11500072 -0.08782778 -0.06592704 0.13374558
000280 c2 e2 d5 3d 9a 74 82 bd 71 e0 6a be 13 a6 a4 bd
       0.10443641 -0.06369896 -0.2293718 -0.08039489
000290 3f 4b b2 bc 67 b2 9e 3d 41 f1 91 3d 7e 90 72 3c
       -0.021764396 0.07748871 0.07126094 0.014804957
0002a0 49 b5 20 3d 3c 42 df bd 83 91 13 3e 81 a1 80 3d
       0.039235387 -0.10901305 0.14410977 0.062808044
0002b0 4c b4 03 be 9d 69 22 3e 18 55 be 3c 16 12 83 3b
       -0.12861747 0.15860601 0.023233935 0.0039999587
0002c0 47 6a 16 be 92 a9 8a 3d c8 f2 35 3d d5 40 b6 3d
       -0.14688979 0.06770624 0.044420987 0.088990845
0002d0 3d 6b e4 3d b4 cd d3 bd 8b 5c 89 bc 53 b8 93 bc
       0.111532666 -0.10341969 -0.01676776 -0.018032229
0002e0 77 8e e7 bd 89 74 80 3c bc 35 d0 3e 13 77 1b 3e
       -0.1130647 0.015680568 0.40665996 0.15182142
0002f0 57 ab 01 3d 08 93 32 3d 39 9a 22 be fd 7f e1 bd
       0.031657543 0.04359725 -0.15879144 -0.1101074
000300 55 95 24 3e c1 47 85 be 7a e4 08 3c fb 76 fa 3d
       0.1607259 -0.26031306 0.008355254 0.12229725
000310 d2 95 89 3d 6e f5 1e be af ed 9a 3d 28 51 e0 bd
       0.06718029 -0.15523311 0.07564866 -0.10952979
000320 61 2e 4d bd 25 7f cd bb 3b 36 c0 3c 52 ec c6 3e
       -0.05009306 -0.0062712603 0.02346336 0.38852173
000330 16 a5 a4 3d de e3 7c 3d bd 08 c1 bd d0 e8 cc 3d
       0.080393 0.06174075 -0.09425495 0.10005343
000340 31 ee 8e 3e 3f 0c 33 3e 52 4e 7d 3e bf 84 c9 bd
       0.279161 0.1748514 0.24736908 -0.098397724
000350 db e9 0d 3e 8f 0c 57 3d 7e 6b 3f 3e fd 85 f0 bc
       0.1385874 0.05250221 0.18693349 -0.029360766
000360 dc c6 a2 bc 6d 26 51 bd 31 f0 a0 bb 46 ac 01 be
       -0.019870214 -0.051062036 -0.0049114455 -0.12663373
000370 56 08 1d 3d 3f 3a aa bd db 50 01 bd af 47 09 3c
       0.038338028 -0.08311891 -0.03157125 0.008378907
000380 6a cf 48 3d c1 50 a5 3d 5c 1e 0a 3e 22 e3 a1 3e
       0.04902593 0.08072043 0.13488144 0.316186
000390 f3 c1 83 bd ad bb 0d bc 58 00 7d 3d 15 9f f9 3b
       -0.06433477 -0.008650702 0.061767906 0.007617841
0003a0 66 e9 54 bd 0e 76 6c 3c 2c 1c f6 bd 32 5f 8e 3d
       -0.0519804 0.014432443 -0.12017092 0.06951751
0003b0 b0 71 25 3e d7 c5 83 bd 26 2f fe 3c 7d 13 ad 3d
       0.1615665 -0.06434219 0.031028342 0.08450983
0003c0 28 3e 81 3d 4a d3 f1 bc ca a3 bc bd 35 80 ad bd
       0.063106835 -0.029519696 -0.09210928 -0.08471719
0003d0 71 dd 95 3d d4 51 e6 bc ed 52 5b 3d 5b a9 1e 3e
       0.07317627 -0.02811519 0.05354588 0.15494291
0003e0 28 51 dd 3c dc cf b9 bd 89 47 4c be 8b 76 e0 bc
       0.027016237 -0.09072849 -0.19949163 -0.027400276
0003f0 dd 34 da 3d 72 d7 97 bd 9b fa 57 be 13 8a 90 bd
       0.10654614 -0.0741414 -0.21091692 -0.070575856

policy_net.0.bias f4 [256]
000000 f4 b5 1a 3e f2 dd 20 be d0 d2 b0 bd 93 2a 54 bc
       0.15108472 -0.15709665 -0.08633959 -0.012949604
000010 01 83 bd bd 53 1e 88 3d 0e 78 22 be 74 11 29 3e
       -0.09253503 0.06646409 -0.1586611 0.16510564
000020 03 6b 96 3d 5b f0 bb 3d 09 e3 21 3e 0c d4 ea 3d
       0.073446296 0.091767035 0.15809263 0.11466226
000030 3b 8c b3 bd e4 14 ed 3c 73 83 09 be a9 82 c5 3d
       -0.08766981 0.028940625 -0.1342905 0.09644062
000040 ca c2 76 bd 41 d0 93 3c 41 17 e3 bd 3c ca 13 be
       -0.06024436 0.01804364 -0.1108842 -0.14432615
000050 2f 0b 8e 3d ab 8f 69 bd 9e 90 99 bd c3 b2 a9 bd
       0.06935727 -0.057021778 -0.07498287 -0.08286049
000060 1c a0 c3 3d 8b 19 b0 3d d2 6d 07 3e c6 d5 16 3d
       0.09552023 0.08598622 0.13225487 0.036824964
000070 e7 d1 a2 bd 9b 52 f1 bd f1 84 0d bd 7c 12 10 bd
       -0.07950192 -0.11783334 -0.03455061 -0.035173878
000080 e3 c4 82 bd 29 ab e5 bd ef fc 0f 3e 00 7b 96 bc
       -0.063852094 -0.11214287 0.1406133 -0.018369198
000090 ad 83 11 3d c9 c5 d9 3c 27 26 09 bd 79 0e d8 3d
       0.035525966 0.02658357 -0.03348365 0.105496354
0000a0 90 9a 26 3d 4f ad a9 3d 02 0a 12 bd 8e 22 1f bd
       0.040674746 0.08285009 -0.035654075 -0.038851313
0000b0 0e 29 1a bd d0 88 bd bc 64 fb eb bd 93 27 2d be
       -0.03763681 -0.023136526 -0.11522558 -0.16909628
0000c0 15 10 a0 3d 7e f9 22 3e 1b cd a9 3d 45 2f 23 3e
       0.078155674 0.15915486 0.08291074 0.15936
0000d0 19 8a 00 be 1b 3a 18 3d 2a bb fe 3c 38 d2 0c 3d
       -0.1255268 0.03716479 0.031095106 0.034380168
0000e0 8b 5e e5 bd 0b 1b 15 3e 4d 4e 87 bd 72 a4 11 be
       -0.11199673 0.14561097 -0.066067316 -0.14222887
0000f0 79 6d 89 bd b5 7e 19 be 96 b5 ff bd 08 95 38 3d
       -0.067103334 -0.14989741 -0.12485807 0.045064002
000100 ff 9a cf bd 75 48 26 be 8a b7 23 bd 6b 57 98 3d
       -0.10136985 -0.16238578 -0.03996996 0.07438549
000110 97 67 11 3e 02 3a 01 3e c3 5b 07 be 17 63 15 bd
       0.14199673 0.12619784 -0.13218598 -0.036471453
000120 37 e7 6d 3b cc bc 76 bc 65 32 d2 bd 6c ce 7d bc
       0.0036301145 -0.015059661 -0.10263518 -0.015491109
000130 e8 ed ef 3d 38 9c df bd a9 16 16 be 73 7e b7 3d
       0.11715299 -0.10918468 -0.14657082 0.08959665
000140 5f bf bd bc 47 7d 1f 3d 9d 29 ca bc 35 ad 9b bd
       -0.023162542 0.038937833 -0.024678046 -0.07601396
000150 04 7e f0 bd 18 bb 23 3e 45 bb 2e 3e e7 00 15 bd
       -0.117427856 0.1598934 0.17063625 -0.036377814
000160 34 c2 9f bd 3c a0 27 bd 6d fd 88 3d 79 ee b1 3d
       -0.07800713 -0.040924296 0.06688962 0.08688063
000170 99 5d 62 3d 28 65 b3 3d 8a 00 ed bd c0 01 9e 3c
       0.055265043 0.087595284 -0.115723684 0.019287944
000180 b5 79 20 be f8 22 ac bd 57 b2 ab bd 9d 4a 02 be
       -0.15671428 -0.08405107 -0.08383625 -0.12723775
000190 c8 d3 aa 3c 40 89 c2 bd 47 eb 56 bd 71 62 d3 bc
       0.020852938 -0.094988346 -0.05247047 -0.025803776
0001a0 4f bb a0 bd af d9 29 bc 31 0a 2c 3c 74 d3 d8 bd
       -0.07848226 -0.010366841 0.010500477 -0.105872065
0001b0 27 ad 26 be 53 75 18 be a2 3a c8 3d e9 30 12 be
       -0.1627699 -0.14888506 0.09776808 -0.1427647
0001c0 c1 a5 8d 3c 0b fa 62 3c 6b bc e2 3d 2c 15 05 3d
       0.017290952 0.01385356 0.11071094 0.032490894
0001d0 ba cf 46 bd 4d 64 d5 bd 77 45 87 3d 71 92 bc bc
       -0.048537947 -0.104195215 0.06605046 -0.023019047
0001e0 77 15 18 be 96 8c c6 3c 87 01 05 be f2 76 b7 39
       -0.14851938 0.024236958 -0.12988864 0.000349931
0001f0 e1 a1 af bd de 4a 1d bd 6b cd fd bb 35 8e bb 3d
       -0.08575798 -0.038401477 -0.007745435 0.09157983
000200 62 43 ce 3d 4e e0 c0 3d de 48 04 3e af c1 0f be
       0.10071446 0.09417783 0.12918422 -0.14038728
000210 1a ba 3f bc 97 93 c4 3d 5b 47 e5 bd 56 51 a8 3d
       -0.011702085 0.09598463 -0.111952506 0.082186386
000220 f4 e8 8c bd 9f a5 17 3c b7 79 82 bd 0d 20 2e bc
       -0.0688037 0.009255796 -0.063708715 -0.010627759
000230 bd 71 98 3d 2a 8e 19 be 1d 4f c7 3d ea 61 1e bd
       0.07443569 -0.14995638 0.097318865 -0.038667597
000240 6e 0d be 3d 7e 8f cb 3d da 25 08 be d3 0d de bd
       0.09279905 0.09939478 -0.13295689 -0.108424805
000250 fe f4 c0 bd 4c 20 23 3e f3 16 23 3e a9 ce 02 3d
       -0.094217286 0.15930289 0.15926723 0.031935368
000260 ae 70 ec bd 17 77 06 3e 23 38 c6 bd 83 c9 e6 bb
       -0.115449294 0.13131367 -0.09678676 -0.007043065
000270 57 81 e3 bd 49 61 cd bd 86 4a 5c bc 80 51 08 3e
       -0.11108654 -0.10028321 -0.013445502 0.1331234
000280 66 90 83 3c b1 1f 0c be d5 ce b0 3d 1a 92 45 3d
       0.016060065 -0.13683964 0.086332 0.048235036
000290 a1 be ad bc 70 24 1d be 14 bc b9 3d 18 c2 e4 3c
       -0.021209063 -0.15345931 0.09069076 0.027924582
0002a0 44 53 61 bd 9b 78 9a 3d 0d a6 ab bd 05 bb 40 3c
       -0.05501105 0.07542535 -0.08381281 0.011763339
0002b0 3a 0d c0 bd ed bd 18 3e a2 1b 21 bd 96 b6 a4 3d
       -0.09377523 0.14916201 -0.039332993 0.08042638
0002c0 b8 f5 e1 bd 5d 30 04 bc 19 6e 5c bd 7d 4f 79 bd
       -0.11033195 -0.008068171 -0.053815935 -0.06086682
0002d0 e3 7a 24 be 3d 56 18 3d bb 18 09 bd dd 66 b8 3d
       -0.16062503 0.03719162 -0.03347085 0.090039946
0002e0 67 bd 11 bd 0f 94 af bd c1 40 fa bd ae cb 8b 3c
       -0.03558102 -0.08573162 -0.12219382 0.017064895
0002f0 39 df 20 3e 27 46 88 3d d5 c9 47 bd a2 7c 6a bd
       0.15710153 0.066540055 -0.048776466 -0.057247765
000300 0f 96 16 be d9 d8 0b be c0 d1 f1 3b dc 14 a9 bd
       -0.1470568 -0.1365694 0.0073797405 -0.08255932
000310 cd ec 82 3d 4d 00 25 3e 66 84 cd bb 2c d5 a7 bd
       0.063928224 0.16113396 -0.0062718866 -0.08194956
000320 f9 66 18 be 7f 09 61 bd ae ce e4 bc 7a 99 02 3d
       -0.14883031 -0.054940697 -0.027930584 0.031884648
000330 bc 77 35 bd be 9f 10 be 3e 39 1f be c8 68 54 3c
       -0.04430364 -0.14123437 -0.1554918 0.012964435
000340 4c e1 f0 3d 7e 40 ed 3d 01 72 24 bd 32 c9 78 3c
       0.11761722 0.115845665 -0.040147785 0.015184687
000350 fb 2c c1 3c 5a 77 8b 3a eb a3 07 3e 52 2a be bb
       0.023581019 0.0010640428 0.13246123 -0.005803385
000360 1f 7d e4 3d 5e 30 4d 3d db 9e e3 bd 2a 7f d6 bd
       0.111566775 0.050094955 -0.11114284 -0.10473473
000370 e7 f8 b8 3d 8d aa 01 3e 90 18 b6 bd 27 d3 1d 3c
       0.09031849 0.12662716 -0.08891404 0.009632862
000380 c1 c6 04 be 91 ff cb bd 23 35 89 bc 11 7b 26 3e
       -0.12966444 -0.09960855 -0.01674897 0.16257884
000390 97 35 a5 3c 91 50 91 3c 8a 94 9e 3d be 77 0a 3e
       0.020167155 0.017738612 0.07743175 0.1352224
0003a0 1a ca b8 bd fc 24 db bd e7 b4 46 bc ab a4 1c 3d
       -0.09022923 -0.107004136 -0.012128091 0.038242977
0003b0 8f 53 82 3d a6 18 2d 3e 48 43 81 bd db 77 00 3e
       0.06363594 0.16903934 -0.06311661 0.12545721
0003c0 14 f2 22 3e fe 82 8b bd 0d a2 97 3c ca d4 2e 3c
       0.15912658 -0.06812094 0.018509889 0.01067085
0003d0 f5 0b ac bd e1 54 eb 3c fd c5 07 3e 3b e5 cc 3c
       -0.08400718 0.028726997 0.1325912 0.02501165
0003e0 46 d5 fc bc 16 f8 e5 bd d6 ec 48 bd 2f f3 07 3e
       -0.030863415 -0.11228959 -0.04905399 0.13276361
0003f0 4b 8a a0 bd 00 2a 91 bc 56 72 74 bd 08 40 13 be
       -0.07838877 -0.017720222 -0.05967935 -0.14379895

policy_net.2.weight f4 [256, 256]
000000 f0 09 80 3d 76 2d 10 3d 50 7c 78 3d 68 31 48 3d
       0.062518954 0.035199605 0.06066543 0.048875242
000010 89 a4 8b 3d ff b7 c4 3c 17 aa bc 3d 20 81 12 3d
       0.06818492 0.024013517 0.092121296 0.035767674
000020 8a ee 8e bb 0c b6 80 bc 96 dd 87 3d 6b 90 02 3a
       -0.004361932 -0.015711807 0.06634061 0.00049806264
000030 6b d2 80 3a 82 a2 dd 3c da 33 37 3d 4f 7e 7b 3d
       0.0009828334 0.027055029 0.044727184 0.061399754
000040 2b 30 67 3b 5d 02 cc bc 0a b6 df bc 85 1d e8 bb
       0.0035276513 -0.02490347 -0.027308483 -0.007083597
000050 e7 cd 84 3c 62 6f 58 3d 83 31 34 3c 54 20 d7 3c
       0.016211463 0.052840598 0.010998133 0.026260532
000060 96 c0 1f bd 60 ad 55 bb 3e 0b 74 3c b8 9b 22 bd
       -0.039002024 -0.003260456 0.0148952585 -0.039699286
000070 84 b1 1b 3d 21 3d 21 3d ff 7e de bc 87 40 24 bc
       0.03801109 0.039364938 -0.027160166 -0.01002515
000080 65 58 04 bd 62 6f 0b bc 2e 59 b4 3c 36 62 5a 3d
       -0.032310862 -0.008510442 0.02201518 0.053316317
000090 ff e9 98 bd 70 db d7 3c cd bf f3 ba 16 54 0d bd
       -0.07466506 0.026349753 -0.001859659 -0.03450402
0000a0 03 6a a8 3c 71 7a 6b bc 12 56 91 bd 76 ba 64 bd
       0.020558363 -0.014372454 -0.07096495 -0.055841886
0000b0 69 af 38 bd 0b b1 3d 3c e3 e0 2f 3d e9 cf cc 3c
       -0.04508916 0.011577855 0.042939078 0.025001483
0000c0 c1 41 4d 3d ca b3 46 bd f5 c0 4a bc 64 d4 20 bd
       0.050111536 -0.048511304 -0.012375106 -0.03926505
0000d0 66 c7 b1 bc 35 ad 7c bd 3a bb 07 3b 9f 26 79 bd
       -0.021701526 -0.06168862 0.002071096 -0.060827848
0000e0 5e cd 97 bd 6e c2 17 bd 99 0c 88 bd 5d ee 12 3d
       -0.074122176 -0.037050657 -0.06643028 0.035871852
0000f0 a5 fb 33 3d 0e 30 60 bc 0f 7b 10 3c df 3c a7 3c
       0.04394116 -0.013683332 0.008818402 0.020414768
000100 11 cc 15 bc 16 cb ca bc 96 35 34 3d e8 6a 00 3d
       -0.0091428915 -0.024755042 0.043996416 0.031351954
000110 9f d9 4d 3d e9 71 19 3d 29 1d 1d bd c9 f7 bf 3c
       0.050256368 0.03746215 -0.038357887 0.023433583
000120 f4 6a 78 bd 71 19 15 3c c6 25 90 3c 84 b3 3e bc
       -0.060648873 0.009100304 0.017596137 -0.01163948
000130 74 48 32 3d e2 b5 24 bd 39 67 15 bc f9 78 51 3d
       0.043526128 -0.04021252 -0.0091188485 0.05114076
000140 f2 8f a3 bc ed 29 e1 3c e1 09 1a bc 6f 98 11 3d
       -0.0199661 0.027485812 -0.009401769 0.035545763
000150 56 94 d1 3a d4 08 27 bd e5 70 3e bd d9 41 97 bc
       0.0015989642 -0.040779904 -0.046494383 -0.018464016
000160 e1 00 41 bd 83 32 76 3a b8 e3 31 3d c1 b5 88 bb
       -0.04711998 0.0009391682 0.04343006 -0.0041720574
000170 e4 ff f8 bc 46 79 f4 3c ad 2d 5a 3b 0f d1 9b 3c
       -0.030395456 0.029842984 0.0033291385 0.019020585
000180 89 35 7f bd 7f 84 64 bd bd 78 4f bd 5f 7f f5 3a
       -0.062306914 -0.05579042 -0.050652254 0.0018729976
000190 65 b6 0f b9 cb cc 6f 3d 32 01 80 3c 37 45 99 bc
       -0.0001370549 0.058544915 0.01562557 -0.018709762
0001a0 28 4e bc 3c c1 77 50 3d 53 e6 3d bd 65 af 67 3c
       0.022986487 0.050895456 -0.046362232 0.014140938
0001b0 46 c3 97 3d 3f a4 1f bd fa a2 d7 bc 60 89 6b 3c
       0.07410292 -0.038974997 -0.02632283 0.0143760145
0001c0 19 a0 95 3d fd 06 b2 3c 72 37 d3 3c 86 0f ed 3a
       0.07305927 0.021731848 0.025783274 0.0018086291
0001d0 26 0c f1 bc 4f 5a 5f bd 92 9d 19 bd 0e c2 0f 3d
       -0.029424738 -0.054529484 -0.037503786 0.035097174
0001e0 03 db 5f bc 8e fe 60 bd 1f 9f 35 3c e7 35 83 3d
       -0.013663056 -0.054930262 0.011085301 0.064067654
0001f0 78 9b 87 3b ee 18 49 bc b9 2f 47 bd 66 5b 2e bd
       0.0041384064 -0.01227401 -0.048629496 -0.042567633
000200 2f cc c9 3c fd 3e 1e 3c 5a 90 bc bc aa 17 03 3d
       0.024633495 0.009658572 -0.023018051 0.03200499
000210 14 73 29 bd b8 94 a9 3b 6f 37 2d bd 65 2f 23 3c
       -0.041369513 0.0051751994 -0.042289194 0.00996003
000220 8e 91 1a 3d d4 8e b9 bb d8 16 83 3c e8 6b 8c 3d
       0.037736468 -0.0056627784 0.016002104 0.06856519
000230 c1 f3 5e 3d 07 29 e6 b9 88 7f a6 3c d2 db 89 3d
       0.05443168 -0.00043899586 0.020324484 0.067313805
000240 73 30 20 bc cb 23 7d 3d 43 e2 82 bc 66 4a 88 3c
       -0.009777176 0.061801713 -0.01597703 0.016637038
000250 52 f0 34 3d 08 62 86 bc 48 77 10 bc ff 32 86 3d
       0.0441745 -0.016404167 -0.008817501 0.065526955
000260 03 2f 3f 3d 1a e2 e6 bc 11 72 1a 3c 46 11 bf 3a
       0.046675693 -0.028183986 0.00942661 0.0014577291
000270 6c 05 93 bd 75 c3 18 3d ac 75 d5 bc ba cc 29 3d
       -0.071787685 0.037295777 -0.026057087 0.041455008
000280 ad ca 16 3c 82 ce 81 bd f6 01 5e 3d 9b 9a 0c 3d
       0.009203595 -0.06338216 0.05420109 0.03432713
000290 a7 83 fa 3c b5 6c 3e 3d 57 c1 59 bd c5 88 85 bd
       0.030580355 0.04649039 -0.0531629 -0.06520227
0002a0 27 14 ec bc 36 a5 a4 3d 56 30 51 bd 18 0b 29 bd
       -0.028818203 0.08039324 -0.051071487 -0.041270345
0002b0 7c 93 6e bd ab 9b 2f bd 94 45 20 3d 17 71 bf 3b
       -0.05824612 -0.042873066 0.039128855 0.005842339
0002c0 dd d9 b0 bc fa 1e 8f 3d 52 2c b2 bc 30 a9 3b bc
       -0.02158826 0.0698833 -0.02174965 -0.011453912
0002d0 a9 b2 65 3b 0a 00 08 bd 9e ea 9e 3c 06 84 f6 3c
       0.0035049117 -0.033203162 0.019398984 0.03009225
0002e0 c3 bf 32 bd 0c 79 36 3c f2 ca 28 3d 0f c9 2d 3d
       -0.04363991 0.011137258 0.04120917 0.042428073
0002f0 42 54 08 bd fb 67 83 3d 44 69 7e bb 03 1a 19 3d
       -0.03328348 0.06416317 -0.0038820067 0.037378322
000300 b4 72 f9 3c 33 07 1c 3d f6 a8 7e bd f7 cd 33 bd
       0.030450203 0.038092803 -0.062172852 -0.043897595
000310 f4 09 74 3b a7 0f 38 bd 66 0c a8 3c 79 c1 22 bd
       0.0037237378 -0.044936802 0.020513725 -0.03973529
000320 62 94 d9 3c 3e 8a 5e bd e7 fa 23 bd 28 5c 39 bd
       0.026560012 -0.054331057 -0.0400342 -0.045253903
000330 cb 62 89 bd ad 8a c0 bc eb 87 bd bc 48 fb 2f bd
       -0.067082964 -0.023503626 -0.0231361 -0.04296425
000340 b7 98 38 3d b8 23 67 bd a9 1a cf bb 85 ed 46 bd
       0.045067515 -0.05643055 -0.006320317 -0.04856636
000350 c2 0f 12 bd d3 7b 6c 3d a8 65 ca bc d6 03 b2 3c
       -0.03565956 0.057735275 -0.024706677 0.021730345
000360 b8 be 48 bd a3 25 45 3d 5c d2 6c bd 72 87 95 3b
       -0.04901001 0.048131596 -0.0578178 0.0045632655
000370 7d ad c4 3b a6 ab a3 bc 1b 1f a6 3b df f4 9b 3d
       0.0060021267 -0.01997931 0.005069626 0.07615065
000380 a9 50 0c 3d 6a e5 67 bd 0e e8 29 bd 5b 0d 32 3d
       0.03425661 -0.05661527 -0.04148107 0.043469768
000390 67 94 01 3d ac 78 40 bd 38 b5 33 3d f6 c2 ad 3c
       0.031635668 -0.04699008 0.043873996 0.021211129
0003a0 c0 48 ac bb d9 c2 f1 ba c9 73 20 3d 01 ad 5a bd
       -0.005257696 -0.001844491 0.03917292 -0.053387646
0003b0 e3 50 15 3d 3b c3 ae 3d 48 44 80 bd fa d8 21 3d
       0.036454093 0.08533331 -0.062630236 0.039513566
0003c0 b6 03 83 3c 4a ef 85 3d 43 d7 8c 3c a8 af 4b 3c
       0.01599298 0.065397814 0.017192489 0.012432016
0003d0 09 8f 1c bd ac cc 4b bd ae 9d 31 3d d4 4e 1b bd
       -0.038222346 -0.049755737 0.043363266 -0.037916973
0003e0 93 21 b3 bb 4c 45 d9 bc 88 76 f7 3b 1e e2 38 3d
       -0.005466649 -0.026522301 0.007551972 0.045137517
0003f0 e2 e8 57 3d db 15 b6 bd eb 13 e0 3c d2 be 6c 3b
       0.05271233 -0.08890887 0.027353248 0.003612448

policy_net.2.bias f4 [256]
000000 b4 37 98 3c 18 29 4d bd 77 ee 64 bb 9b f7 22 3d
       0.018581249 -0.05008802 -0.0034932175 0.039786916
000010 07 22 0b bd 0d 6c 22 3d 75 b0 8b 3c a0 65 0a bd
       -0.033967998 0.039653827 0.017051915 -0.033788323
000020 73 06 54 bb f1 f5 a3 3c 5a ce 4f 3b 70 e3 b9 bc
       -0.0032352477 0.020014735 0.0031708688 -0.022691458
000030 d2 1d cc 3c 27 a4 95 3c b6 5e 10 3d be ec 47 3d
       0.024916563 0.01826675 0.035246573 0.04880976
000040 16 76 94 3d 12 57 07 bd 68 b2 3d 3d b8 f0 82 bc
       0.072490856 -0.03304202 0.04631272 -0.015983924
000050 ab 5a 8b 3a 69 c3 92 3c 85 83 24 3a 21 62 38 3d
       0.001063188 0.017915444 0.00062757015 0.045015458
000060 3a 5f 13 3c 54 b3 d6 bc da 24 72 3d f4 c4 40 bd
       0.008994872 -0.026208557 0.059117176 -0.04706283
000070 07 2a 64 3b ea e6 a9 3c b8 82 05 3d d7 23 5b bc
       0.003481509 0.020739991 0.032595366 -0.013375244
000080 60 90 70 3d 51 97 88 3d 7d 65 53 3d 4a e8 e1 3c
       0.058731437 0.06669486 0.05161046 0.027576584
000090 18 35 15 3d 93 e7 51 bd 6f 94 8b bd f8 92 03 3d
       0.036427587 -0.051246237 -0.06815421 0.032122582
0000a0 8d 0c 65 bc 67 17 1b bd b1 9d 67 bc a0 7c 03 3c
       -0.013980043 -0.037864115 -0.014136718 0.008025318
0000b0 82 40 ad 3c af 94 15 bd 2d 3e 83 3b 41 40 24 3d
       0.021148924 -0.03651875 0.0040052147 0.04010034
0000c0 d6 71 a5 bb 84 93 8e bb 3d d7 c2 3c 02 10 07 bc
       -0.0050489707 -0.0043510813 0.023784274 -0.008243563
0000d0 0e eb ca 3b 4e b0 37 3d a0 38 8d 3d ab 3c 26 3c
       0.0061925715 0.04484587 0.06895566 0.0101463
0000e0 69 27 ab 3c 3c 86 4a 3d 50 b0 0a bc 69 2b 78 3c
       0.020892816 0.049444422 -0.008464888 0.015147069
0000f0 ad 0b 52 bd cc 3e 52 3d 1f cf 30 3d 21 2f 19 bd
       -0.051280666 0.05132942 0.043166276 -0.03739846
000100 93 e0 15 bd 12 b9 2a bd 74 b6 61 bb b8 b3 e2 3c
       -0.036591124 -0.041680403 -0.0034441026 0.027673587
000110 ef c0 3f 3d ae c7 2e bd d3 36 80 bd 18 98 f3 bb
       0.046814855 -0.0426709 -0.06260457 -0.0074339025
000120 24 0d 2d bd 6d b1 21 3d bc 1a 8b bc 3a 74 bc 39
       -0.04224886 0.039475847 -0.016980521 0.0003594475
000130 09 d7 cc 3b 94 ee 08 3c 5e af 04 3d 92 f1 04 bd
       0.00625122 0.008357663 0.032393806 -0.032456942
000140 cb 27 68 3d 34 f4 59 3d 02 ab 17 bd 49 46 9d ba
       0.056678575 0.053211406 -0.03702832 -0.0011999096
000150 73 f1 bb 3c 1d 88 09 bd 52 fd a5 3b b6 e9 06 bd
       0.02294228 -0.033577073 0.0050655985 -0.032937728
000160 a7 32 72 3d 0a 74 73 3c 21 0f 0e bd 77 fd 76 bd
       0.059130337 0.014859209 -0.034682397 -0.060300317
000170 f0 89 29 bd 89 20 46 bb bd cd 77 bc c6 cd 45 bc
       -0.041391313 -0.0030231795 -0.015124735 -0.012072986
000180 df 36 ce 3c 1f d0 a0 3c d0 69 0b bd 40 44 3d bc
       0.025172649 0.01963049 -0.034036458 -0.011551917
000190 67 db 14 bd 42 6b 08 bd e5 c4 6f bd 43 df 16 3d
       -0.03634205 -0.033305414 -0.058537383 0.036834013
0001a0 21 b8 28 3d 15 10 15 3d 4d 59 0f bd 93 e7 a0 bc
       0.041191224 0.03639229 -0.034997273 -0.019641673
0001b0 b2 26 d8 bc 48 a5 95 3b 5d 4f fe ba 01 88 3c bc
       -0.026385639 0.004566822 -0.0019402314 -0.011507035
0001c0 06 7d 77 bd ef b5 4b 3d 31 e4 fe 3c 7d c0 06 ba
       -0.060421966 0.049734052 0.03111467 -0.00051403773
0001d0 57 b4 98 bc 87 0c 82 3d 4e db a5 3c 2c a4 88 bd
       -0.01864068 0.06350046 0.020246174 -0.06671938
0001e0 93 ed 24 bd 92 4a 9b bc 13 69 8b 3c 2d 26 42 3d
       -0.04026563 -0.018956456 0.017017877 0.04739969
0001f0 72 d2 6d 3d d9 5b 1b bd 67 33 8c 3c 20 fb 1a bc
       0.058062024 -0.03792939 0.017114354 -0.009459287
000200 e2 94 da 3c bf a4 13 3c 19 d1 81 3c 1c 9c 31 3b
       0.026682321 0.0090114465 0.015846776 0.0027101105
000210 03 b5 99 3c fd 83 3e bd 5c b2 b1 bc 78 2c 10 bc
       0.01876307 -0.046512593 -0.021691494 -0.008799665
000220 e6 8e 35 bd de e0 de 3c 77 26 8c 3b 8c 98 24 bc
       -0.04432573 0.027206834 0.0042770463 -0.010046136
000230 b0 cc 55 3d 62 e4 1a bd e7 99 2a 3d 03 83 09 bc
       0.05219716 -0.03781546 0.04165068 -0.008393052
000240 cb 2f 81 bc c9 c5 37 bd 36 77 57 bb be d9 41 3d
       -0.01576986 -0.044866357 -0.0032877452 0.047326796
000250 e7 16 ff 3c 58 87 e1 bc ca 10 5f 3c 85 25 b2 3c
       0.03113885 -0.027530357 0.013614843 0.021746406
000260 8d 03 20 bd 66 6c 75 3d e4 ac 9a bc b6 1b 37 3d
       -0.039065886 0.05991783 -0.018881269 0.04470416
000270 e1 ed 29 bd 52 f3 12 3d 5a 58 09 bd 03 ed 26 bd
       -0.041486625 0.03587658 -0.033531524 -0.040753376
000280 0b 2e 97 3d 91 fe 7e 3c db 02 4e bd d0 a2 63 bd
       0.07381829 0.015563623 -0.050295692 -0.055575192
000290 0c 22 04 bd 90 e7 4c 3c 39 3a 25 3d 63 83 7c bd
       -0.032259032 0.012506381 0.04033873 -0.061648738
0002a0 e5 69 30 3d 04 a7 a3 bc 87 eb 39 3d 80 0c 4e bd
       0.04306974 -0.0199771 0.045390632 -0.05030489
0002b0 bc a0 41 3d 4a 54 66 bd 3c b6 9c 3c 8a cd 62 bd
       0.04727243 -0.056232728 0.019129865 -0.0553718
0002c0 92 83 03 bd e4 08 65 39 af d5 22 3d ef de d7 3c
       -0.032107897 0.00021842454 0.039754566 0.02635142
0002d0 59 ef 81 3d 54 64 f3 3a c9 18 16 3d 26 c8 58 ba
       0.0634448 0.0018569329 0.03664473 -0.00082695705
0002e0 4e 82 2c 3d d2 19 2e bd 38 21 93 bd 87 a4 a8 3c
       0.042116456 -0.042505093 -0.0718407 0.020586265
0002f0 7e 44 56 3b de d6 92 3c ae 90 b1 3a 6a 67 51 3d
       0.0032694633 0.017924722 0.0013547146 0.051124014
000300 cd 0c b2 bb 64 99 4a 3d e0 53 1d bd 9a 21 b5 3c
       -0.005433655 0.04946269 -0.038410068 0.022110749
000310 48 93 42 b9 23 61 53 3d 62 55 ae 3c 9c e9 41 3c
       -0.00018556148 0.05160631 0.021280948 0.011835482
000320 7e 05 88 3c 46 ce fe bc 9d af 10 bb 02 53 3e 3d
       0.016604181 -0.031104218 -0.002207733 0.04646588
000330 5d 49 27 bd cd 5e 29 bd 10 1f 0a bd c0 b2 f4 3c
       -0.04084145 -0.041350175 -0.03372103 0.02987039
000340 d7 31 8a 3d 53 9d 7f 3d df 08 19 bd 2b 4a 56 3c
       0.067477874 0.062405895 -0.037361976 0.013079206
000350 72 d1 18 bd 87 94 1b 3d ba 5d 34 bd 27 26 6d bd
       -0.037309118 0.037983444 -0.044034697 -0.057897713
000360 ec 58 39 3d 29 11 9e bc 7e ad 61 bc 13 ca 4f 3d
       0.045250818 -0.019295292 -0.013774274 0.050729822
000370 b6 0d 01 3d 84 fc 80 bd 3a e7 56 bd ca 19 fa 3c
       0.031507216 -0.062981635 -0.05246661 0.030529875
000380 fe 56 3c 3d d6 ab 1f 3c 82 4f 4f 3d e2 dc 60 3d
       0.0459814 0.009745559 0.050612934 0.05489815
000390 f4 a4 c4 bb 54 e3 81 3c b3 4a 34 bd c0 43 7f 3c
       -0.0060011093 0.015855469 -0.04401655 0.015580118
0003a0 10 06 62 3d 13 22 68 3d 89 46 02 3d d5 51 0c bd
       0.055181563 0.05667312 0.03180555 -0.03425773
0003b0 74 63 4c 3d 8b cd 5a bd 43 c5 f0 bc 86 00 e9 bc
       0.049899533 -0.053418677 -0.029390937 -0.028442632
0003c0 f0 9d 19 3d fb a8 f6 bb c6 98 d3 38 ca a5 30 3d
       0.037504137 -0.0075274683 0.0001008972 0.04312686
0003d0 fd 21 d3 bb 1b 9d 94 bc cb 8d 86 3d 68 11 5a bc
       -0.0064432607 -0.01814132 0.065700136 -0.013309814
0003e0 9e 66 4f bb ac f0 8b bd 85 0b 18 3d 77 e7 87 bd
       -0.0031646858 -0.06833014 0.03712036 -0.06635945
0003f0 fd e2 29 3d 97 63 42 bd 81 79 87 bb 31 36 6a 3d
       0.04147624 -0.047458258 -0.0041343574 0.057180587

value_net.0.weight f4 [256, 41]
000000 1b 9a 1d 3e 3f 18 5b bd 80 d8 11 bd 25 9a c7 3c
       0.15390818 -0.05348992 -0.03560686 0.024365494
000010 e6 4e f8 3c 1e d7 cd 3d 75 67 f8 bd f5 0b d0 3d
       0.03031106 0.10050796 -0.12129108 0.101585306
000020 76 8d be 3d 17 09 55 3d 00 fc 0c 3e 0d cf 1d 3e
       0.09304325 0.052010622 0.13768005 0.15411015
000030 b2 d5 23 3d f9 ba fd bc 18 ab 3e 3d c1 c7 00 3d
       0.039998718 -0.030972945 0.046549886 0.0314405
000040 bb 90 8b 3d d9 41 04 3c 56 7d ed 3d 2b c8 0d 3e
       0.068147145 0.00807234 0.115961716 0.1384589
000050 51 73 1d be 5c 5e f9 3d e8 4a 03 be f6 7c 8e bc
       -0.15376021 0.12176201 -0.12821543 -0.01739357
000060 5a 95 5a 3d 21 dd 95 bd 3a 91 b1 bc 6d e5 bf bd
       0.05336509 -0.073175676 -0.021675695 -0.09369931
000070 dd 25 b7 3d ba 15 fb 3c dc 55 93 bd a7 61 e8 bd
       0.08942769 0.030650008 -0.07194111 -0.11346751
000080 7f 2b 18 3e 07 48 12 bd 91 99 dc 3d 86 a1 e4 bd
       0.14860342 -0.035713222 0.10771478 -0.11163621
000090 98 ed 03 be 9f 39 ef bd 3b e5 16 3e 5e df c2 bc
       -0.12883604 -0.11680912 0.14735882 -0.02378815
0000a0 57 ca 76 bd 41 26 41 3c d8 32 15 be 95 16 ab bc
       -0.06025156 0.011788906 -0.14570177 -0.020884791
0000b0 6e 9c 0e bb 11 c2 07 be 2d a4 1a bc 5c db 1f be
       -0.002176072 -0.13257624 -0.009438557 -0.15611023
0000c0 85 53 a1 3d 6c 1c f0 3d 5d 4b 7f bd 39 dd c0 3d
       0.07877258 0.11724171 -0.06232773 0.09417195
0000d0 76 5a 00 be 6d ce 10 3e 05 41 8d 3c 46 5b 9f bd
       -0.12534508 0.14141245 0.017242918 -0.07781081
0000e0 1b f8 d9 3b a1 f5 2f 3d ca e1 18 bd 9c 9d c2 3d
       0.006651891 0.04295886 -0.037324704 0.09502718
0000f0 83 da af 3d fe 30 d5 bd bc 78 9d 3d 35 e7 e4 3d
       0.085866 -0.10409735 0.07689044 0.11176912
000100 e5 c7 50 3d a9 37 f3 3d 3d ab 73 bd bd b8 0c 3e
       0.050971884 0.11875851 -0.059489477 0.13742347
000110 01 5f 8e 3d 59 10 8a bc 2f e3 52 bd 59 4a c8 3a
       0.06951714 -0.016853498 -0.05148619 0.0015280946
000120 93 4b ce bd 82 01 d4 3c a5 2a 90 3d 70 d8 0f be
       -0.100730084 0.025879625 0.07039384 -0.14047408
000130 0d e6 48 bc e2 33 1c be 01 b5 a8 3d 9b a0 0f be
       -0.01226188 -0.15254167 0.08237649 -0.1402611
000140 a7 10 b2 bd f4 c7 df 3d f7 4e cc bd 4c c7 12 be
       -0.086945824 0.1092681 -0.09975999 -0.14333838
000150 51 e6 65 3d 1e 1c 1b 3d 64 f1 0c 3d c3 e7 e1 bd
       0.05612785 0.03786861 0.034409896 -0.11030533
000160 5e 90 27 3d b7 0f 04 3d 1c 34 6d 3c 8e 6f 25 3d
       0.040909164 0.03224155 0.014477756 0.04038959
000170 c7 dc f1 3d c1 a7 b1 bd 4e 2d e9 3d 53 bd 4a bd
       0.11809688 -0.08674575 0.11385594 -0.04949696
000180 2f ca 18 3e dd 2c 88 bd a5 f1 14 3e a0 04 1f 3e
       0.14920877 -0.06649182 0.14545305 0.15529108
000190 6c fe 9b 3d 3b 3b 5b 3b 85 f9 00 3e ec ea b8 3c
       0.076168865 0.0033452052 0.12595184 0.022572957
0001a0 a5 c1 ea bd 39 62 d2 3d cb 66 e9 bd 7b fa 49 3c
       -0.11462716 0.10272641 -0.11396559 0.012327786
0001b0 0f 35 29 3c 29 1b 63 bd 60 08 c1 bd cb af 1f 3d
       0.010327592 -0.055445824 -0.094254255 0.03898601
0001c0 51 22 f6 3d 9e 63 bd bd c2 4f 04 3e 66 fd 77 3d
       0.12018264 -0.09247516 0.1292105 0.060544394
0001d0 b4 89 01 bd 49 a0 16 be 59 ad e9 bc 5a 0c 44 bd
       -0.031625465 -0.14709581 -0.028525041 -0.047863342
0001e0 04 bd 86 3d 77 c2 37 3d b2 36 ec bd 66 1e 98 3b
       0.065790206 0.04486319 -0.1153387 0.0046422957
0001f0 ae cc 9c 3d e3 8b 21 bd 08 44 d8 bc 77 12 1b 3e
       0.07656227 -0.039440047 -0.026399627 0.15143763
000200 a1 34 1a bd 8f c2 2a bd 5f 8f 9d 3d 02 8b 73 3d
       -0.037647847 -0.04168945 0.076933615 0.05945874
000210 a4 71 36 3b 73 0e 0e be a2 d4 89 3d 22 a8 b1 bd
       0.0027838731 -0.138727 0.067300096 -0.08674647
000220 a3 34 0c 3d 53 01 06 bd ec d6 cd 3d fd 04 50 bc
       0.034229886 -0.032716107 0.10050759 -0.012696502
000230 5d ea 1d be c0 ba c3 3d 01 2e e4 3d fb 47 fc bd
       -0.15421434 0.09557104 0.11141587 -0.12318417
000240 66 ab bd 3c 2a e1 6a 3c e5 69 19 be a5 26 5f 3d
       0.023153018 0.01433591 -0.14981802 0.054480214
000250 ba 61 bc bd aa fc 9b bd 04 ad 11 be c2 e2 92 3d
       -0.09198327 -0.07616551 -0.14226156 0.07172157
000260 a9 6e 28 3d 53 72 1b be c3 0b 16 be a2 1f 1d be
       0.04112116 -0.1518033 -0.14652924 -0.15344098
000270 00 4b 8f 3d 46 5e c0 3c 9b b1 a9 bb 3d 8d 14 be
       0.06996727 0.023482453 -0.005178643 -0.14507003
000280 3b 33 82 b9 f9 b5 c6 bc 72 36 04 bd 2e 2c a7 3d
       -0.00024833702 -0.024256693 -0.032278486 0.081627235
000290 1c 67 90 3d c8 e6 2b bd 4d 37 44 bd 27 bb 0a be
       0.070509166 -0.041968137 -0.0479043 -0.13547955
0002a0 fd dc 7e bd a2 85 aa bd 2b 81 ee 3d 74 19 ec bd
       -0.06222247 -0.0832627 0.116457306 -0.11528292
0002b0 d5 3e b7 3d e6 5c 8c 3d a3 c3 d1 3d 85 f1 3a 3d
       0.08947531 0.068536565 0.10242393 0.045640487
0002c0 d8 db fe 3d 20 bf 15 3e 8b a2 12 3e d2 8f 0a be
       0.124442756 0.1462369 0.14319818 -0.13531426
0002d0 ac f4 cd bd 24 5c d1 3c 8b db 79 3d 73 97 1f 3e
       -0.10056433 0.025556631 0.061000388 0.15585117
0002e0 2e c1 17 3d 94 38 f7 3d 6b 22 a7 3d ac 7f b2 bd
       0.037049465 0.12071338 0.081608616 -0.08715758
0002f0 cd 1f 80 3d e3 31 52 3d 64 29 a1 3d 86 a7 80 3c
       0.062560655 0.051317107 0.07869223 0.015704881
000300 9a 2d 06 3d f1 d6 d2 3d c5 f7 f5 3d 0d d0 9f bd
       0.032758333 0.10294903 0.12010149 -0.078033544
000310 d8 00 ca bd 86 cd c2 bd ca b8 1a bc 11 44 3a 3d
       -0.09863442 -0.09511857 -0.009443471 0.04547507
000320 4d 1f 34 3d d6 b6 01 3d 5c 6a 82 bb 10 c0 d8 bd
       0.043975163 0.031668507 -0.003979964 -0.10583508
000330 de e9 1a bd aa f2 c1 bd 3d 5b 00 3e dc c7 d4 3d
       -0.03782069 -0.094701126 0.12534805 0.10389683
000340 2b 50 b7 3d 44 2d b0 3b 34 d8 14 3e 05 7f 02 3e
       0.08950838 0.00537649 0.145356 0.12743767
000350 47 a6 df 3c a7 68 18 3e 23 1b 8d bd d6 8f fa 3d
       0.027300967 0.14883672 -0.068899415 0.12234466
000360 a0 8e 2e bb dd 54 22 bd b7 47 1a 3e fd b6 6e bd
       -0.0026635304 -0.039631713 0.1506642 -0.05827998
000370 1a 7d c3 3d 02 6b 80 3c b8 de 1c 3e 01 13 ef bd
       0.095453456 0.015676025 0.15319335 -0.116735466
000380 0b 27 f9 3d 61 a3 19 3e e8 a7 0f 3e da b4 13 3d
       0.1216565 0.1500373 0.14028895 0.036061145
000390 7e 1f f2 ba f3 d2 81 bd 30 5f f9 3c 28 b0 1b 3e
       -0.001847252 -0.063390635 0.030440897 0.15203917
0003a0 df 59 41 3d b0 b0 c9 3c d1 82 98 3c cd fb 1e be
       0.04720485 0.024620384 0.018617066 -0.15525742
0003b0 96 47 ef 3d cf 0e 04 be 0c 9a 36 3d cd c5 02 3e
       0.11683576 -0.12896274 0.044580504 0.12770768
0003c0 4c 84 99 bd 61 0a 73 3c 16 02 1a 3d ff 63 c8 3d
       -0.07495937 0.0148340175 0.037599646 0.09784698
0003d0 a0 50 d1 3b 53 83 d5 3d 21 05 1b 3e cc 56 17 3e
       0.006387785 0.10425439 0.15138675 0.14779204
0003e0 d1 87 4f bc bd 68 b6 3d f5 cd 92 bd 60 5c d7 3d
       -0.0126666585 0.08906696 -0.071681894 0.10515666
0003f0 69 e8 97 3d d8 87 9c 3d e5 36 d7 3d 73 37 15 be
       0.074173756 0.07643098 0.10508517 -0.14571933

value_net.0.bias f4 [256]
000000 47 02 97 bc 56 ed 8f 3c b4 75 aa 3d 25 ac 0e be
       -0.018433703 0.017569225 0.08323231 -0.13932855
000010 47 3b 1c be 93 fa e3 3d cf 6a fd bd 86 da 71 bd
       -0.15256988 0.111317776 -0.12373888 -0.05904629
000020 e3 ff bf 3d 43 29 16 be 1c 32 fb 3c 25 f8 f2 bc
       0.093749784 -0.14664178 0.030663542 -0.02965934
000030 1b 2d c7 bd 18 54 ca bd f5 6a 76 ba 86 35 62 bd
       -0.097254 -0.09879321 -0.0009400093 -0.055226825
000040 0c 70 df bb 23 e2 a4 bd 22 8f a8 bd 11 a2 e1 3d
       -0.006818777 -0.08050945 -0.082304254 0.1101724
000050 ec 8c 44 bd 00 69 46 bd 36 fa 94 bd fc 71 1a bd
       -0.047985956 -0.04843998 -0.072742864 -0.03770636
000060 0a 12 5b 3d 68 29 b2 bd b1 fb a9 bd 9c 57 9c 3d
       0.053484 -0.08699304 -0.082999595 0.07633898
000070 75 83 c2 3d ba 3a 2f 3c 48 58 de bd ee d6 ce bd
       0.0949773 0.010695154 -0.10856682 -0.10099588
000080 60 ec f6 3d 1d e9 4a bc ae bd 08 be 56 03 1d be
       0.12056804 -0.01238468 -0.13353607 -0.15333304
000090 ee 42 70 bd 26 69 4a bd ba e6 1a 3e 19 93 9e 3d
       -0.05865758 -0.049416684 0.15127078 0.077429004
0000a0 52 c8 e7 bd 42 3b 1e bd dd 19 af bd 97 63 05 3d
       -0.11317505 -0.03863073 -0.08549855 0.03256568
0000b0 21 f4 ef 3d 4f dd 15 3e c9 00 59 bd 13 95 c9 3d
       0.11716486 0.14635204 -0.052979264 0.09842887
0000c0 35 f8 19 3e 04 17 65 bd 34 64 42 3d b3 6f a1 3d
       0.1503609 -0.055930153 0.047458842 0.07882633
0000d0 ec 50 08 3e 31 0b 72 bd b9 b3 c3 3d 4b 34 f7 3d
       0.13312119 -0.059092704 0.09555764 0.12070521
0000e0 74 94 f5 bd d2 63 68 bc 4f 26 f6 bd f9 98 8f 3d
       -0.11991206 -0.014183955 -0.120190255 0.07011599
0000f0 3d dd 0c be 46 0d 15 bd 57 c0 c0 bd 85 dc 54 3d
       -0.1375627 -0.03638961 -0.09411686 0.051968116
000100 a6 43 10 3e e4 97 c5 bd 32 6e ec bc 73 f4 cd 3d
       0.14088306 -0.096481115 -0.028861139 0.100563906
000110 13 b6 ce bb ff 84 11 be 11 7c 16 3e 50 ae ba 3d
       -0.006308326 -0.1421089 0.14695765 0.09115279
000120 89 8b 55 3d 7f 4c ff 3c 6d ca 5e 3c f4 a7 af 3d
       0.052135024 0.031164406 0.013598067 0.085769564
000130 73 bb d6 bd 5a b8 03 3e d7 90 8f 3d 6c 15 ed bd
       -0.10484972 0.12863293 0.07010048 -0.115763515
000140 1f ac 19 be 8f 5f a9 bd 85 34 f2 3d 1a a3 58 bd
       -0.15007065 -0.082701795 0.118264236 -0.05288992
000150 b5 c6 ba bc df 3c fe 3c 61 b9 c2 bc f1 a9 a5 3d
       -0.022799829 0.031034885 -0.023770036 0.080890544
000160 48 31 0a 3d 69 ef 10 bd 83 9f bd 3d 11 c6 15 3d
       0.033738405 -0.03538457 0.0925894 0.036565844
000170 b9 36 87 bd 47 34 81 3c 9b 12 bc bd 46 94 d8 bd
       -0.066022344 0.015771998 -0.09183236 -0.10575156
000180 9b 87 12 be 9b e2 2e 3d 73 48 5e 3d 96 fe 0e bd
       -0.14309542 0.042696577 0.05426831 -0.03491076
000190 8c d7 86 bd 43 f8 27 ba 4b 95 07 be f7 98 0a be
       -0.06584081 -0.00064075383 -0.13240544 -0.13534914
0001a0 d8 93 0e 3e ff 7d 4a 3d 71 09 df 3c 16 f9 23 bc
       0.13923585 0.049436565 0.027226182 -0.010008117
0001b0 4d 1e 14 3e 72 a4 c4 3d e0 1a 35 bd d0 a1 91 bd
       0.14464684 0.09601678 -0.044215083 -0.071109414
0001c0 e0 ef 5a bd 23 92 e2 3d 92 d7 e0 3d 82 2f 17 be
       -0.05345142 0.110630296 0.10978617 -0.14764217
0001d0 4d 85 3e bd 0a 77 71 3d b1 0d 91 3d 75 92 a0 3d
       -0.046513844 0.058951415 0.070826896 0.078404345
0001e0 fe 8f d1 bc 78 73 1a bd 1d 2a c0 bc 44 6a 03 3e
       -0.025581356 -0.037707776 -0.023457581 0.12833506
0001f0 aa f2 1e be 32 65 9c bd 9c bd 67 3d 78 f0 b3 3c
       -0.15522256 -0.07636489 0.05657731 0.02196525
000200 6b 74 eb bd 9d 13 00 be 9c 87 02 3e 77 e9 1f be
       -0.11496814 -0.12507482 0.12747043 -0.15616404
000210 73 79 aa bd 39 11 6d bd 2e 0c 19 3e f1 6b 7c bc
       -0.08323946 -0.057877753 0.14946052 -0.015406595
000220 c3 3a f4 3d 5b c4 8c bd 04 ed 10 3e f1 aa 2d bd
       0.119252704 -0.06873389 0.14152914 -0.04239935
000230 26 15 34 bd b2 dd cd bc 7d 87 a5 3c b3 8d fa bc
       -0.04396548 -0.025130127 0.020206207 -0.030585146
000240 40 44 09 3e 96 e1 e9 3b 80 fb fd bd 59 e7 26 bd
       0.13404942 0.0071374876 -0.124014854 -0.040747974
000250 2c a9 29 bb 34 29 21 bc fc 53 c0 bd 6b fa da 3b
       -0.0025888188 -0.009836484 -0.09391019 0.006682684
000260 70 17 78 bd ef 8a 49 bd fa 8b 07 be a8 ee ee bd
       -0.060569227 -0.049204763 -0.1323699 -0.11666614
000270 81 4e 77 bd 85 1c b9 bd 48 fa 3a 3d 82 64 89 bd
       -0.0603776 -0.09038643 0.045648843 -0.067086235
000280 55 db 6d 3d ed 9d 0e be 59 f5 9e 3d 0e a1 04 3d
       0.0580705 -0.13927431 0.0776164 0.032380156
000290 0e a1 2e bd b9 0d 00 3e e8 97 e1 3d d5 a2 16 be
       -0.042634062 0.12505235 0.11015302 -0.14710553
0002a0 8f 94 38 bc c0 52 91 3d 5e c8 b0 bd 8e 1d db 3d
       -0.011265888 0.070958614 -0.08631967 0.106989965
0002b0 bf dc 5d bd b9 68 0c 3e 51 95 97 bc c2 b9 a8 3d
       -0.054165598 0.13711824 -0.018503817 0.082385555
0002c0 e5 a9 d8 3d b4 3f 8c bd 64 a7 fe bd 65 d9 2c bd
       0.1057928 -0.06848088 -0.12434271 -0.04219951
0002d0 52 ad 77 3d c9 44 19 be 96 d0 02 be a9 f6 2c bd
       0.060468026 -0.14967646 -0.12774882 -0.04222742
0002e0 d8 30 27 3d 2d 88 da bd 51 d9 1d 3d e9 47 69 3d
       0.040818065 -0.10670505 0.038537327 0.056953344
0002f0 8d cc a8 bd 0e 02 18 be ac f8 7c 3d 6c 36 e7 bd
       -0.0824214 -0.14844534 0.06176059 -0.11289677
000300 6e 20 fc 3d d8 48 f0 3d 2f f9 c3 3c 14 ab e6 3d
       0.12310873 0.11732644 0.023922531 0.11263099
000310 65 ec 0a 3e 4c 29 05 3d 51 80 06 be 31 08 db 3d
       0.1356674 0.032510087 -0.13134886 0.10694922
000320 09 44 c1 bd ee 9c 0e be 94 34 0f 3e 60 2b b9 3d
       -0.09436805 -0.13927051 0.139849 0.09041476
000330 68 09 71 3d c1 fd e4 3d 02 d6 e5 bd 0f e6 91 3d
       0.05884686 0.11181212 -0.112224594 0.07123958
000340 c8 4c 9d bb d5 eb d6 3d 5e 18 1b bc 34 9f 3b 3d
       -0.004800413 0.104942 -0.009466259 0.045806125
000350 fd e9 74 bd 49 ce f0 3d e9 b7 a1 3d b5 da 0b 3e
       -0.05979346 0.11758096 0.07896406 0.13657649
000360 ac a6 b5 bd 3c 32 c5 3c 5b c4 c3 bd 65 8d ff bd
       -0.08869681 0.024071805 -0.09558936 -0.12478141
000370 a2 11 e3 bd 12 93 f2 bd 71 e6 d2 bd 26 a9 b7 bd
       -0.110873476 -0.11844458 -0.102978595 -0.089678094
000380 59 28 18 be 09 2e 0d be de ca d7 bd 5c 81 94 bd
       -0.14859141 -0.13787092 -0.10536741 -0.07251236
000390 2b c7 eb 3d 1e 45 b3 bd fa 8f 0c 3d e6 72 1a be
       0.11512598 -0.087534174 0.034316994 -0.15082893
0003a0 e4 da 08 3e 60 c0 25 bd d7 13 05 be c5 89 72 bd
       0.1336475 -0.040466666 -0.1299585 -0.05921342
0003b0 e2 71 c1 3d 6b 34 8e bc 3e a6 04 3e 1f d5 a1 3d
       0.094455495 -0.01735898 0.12954041 0.07901978
0003c0 94 cf 68 bc 71 87 bd bc ca 1f 48 3d d7 06 39 3d
       -0.014209647 -0.023135873 0.04885844 0.04517254
0003d0 0c 88 a3 3d 0b 0a 0c 3e 34 a4 09 3e 90 e0 b0 3d
       0.07984933 0.13675706 0.13441545 0.08636582
0003e0 b4 2a 0f bc db 4f 83 bc 55 a7 bc 3d a1 47 e8 bb
       -0.008738209 -0.016029289 0.092116036 -0.007088617
0003f0 d4 bf d8 3d 70 9d d8 bc 6b 19 e0 3d fb 91 f7 bd
       0.10583463 -0.02644226 0.10942348 -0.120883904

value_net.2.weight f4 [256, 256]
000000 7c 86 6a bd 76 ed 38 bd f0 1e 43 bc 88 5b 51 3c
       -0.05725716 -0.045148335 -0.011909232 0.01277817
000010 58 23 f6 bc 96 53 7a bd e0 2c 79 bb ec 0d 54 bd
       -0.03004615 -0.06111487 -0.0038021132 -0.05177109
000020 40 8f 74 3d b0 00 bd bb 80 8b 70 3a c2 a0 3e bd
       0.059706926 -0.005767904 0.00091760606 -0.04654003
000030 28 0a 53 3c 50 8a 77 bd c8 96 35 3d 2e e6 3f 3d
       0.012880839 -0.06043464 0.04433325 0.046850376
000040 ea 9a 0a 3d 48 ca 63 bd 58 36 83 3c 88 6f e5 bc
       0.033839144 -0.055612832 0.016017124 -0.028007284
000050 70 3d 71 bd 76 cd 0b 3d 7a 8c 04 3d 76 88 7c 3d
       -0.058896482 0.03413149 0.03236053 0.061653577
000060 4e 5d 3f bd 58 0f 2f 3c b4 8a 24 bd e2 99 32 bd
       -0.04671984 0.010684811 -0.04017134 -0.043603785
000070 a2 b3 34 bd ba f1 16 3d 70 1a b2 bb 18 ec 6c 3d
       -0.044116624 0.036851622 -0.0054352805 0.057842344
000080 0a cf 59 3d 4e f7 70 bd fe 42 09 3d d8 91 4e bc
       0.053175963 -0.058829598 0.033511154 -0.012608014
000090 f0 19 b9 bc 00 68 6d 39 5c 74 3f bd a0 6e 02 3d
       -0.022595376 0.00022640824 -0.04674183 0.03184378
0000a0 22 6b 5e bd a8 3f 85 bc 04 64 34 3d 3e da 52 3d
       -0.05430139 -0.016265705 0.044040695 0.051477663
0000b0 50 ef bd 3c b0 4c a6 3b 80 5d 75 bb 30 00 ad 3b
       0.023185402 0.00507506 -0.0037439764 0.0052795634
0000c0 ac 34 87 3c 38 e3 8f 3c 7c 7e 09 bd a8 e2 04 bd
       0.016504608 0.017564401 -0.03356789 -0.03244272
0000d0 6e fb 53 bd 80 cb 30 bc c8 6a 18 3c 00 99 68 bc
       -0.051753454 -0.010790706 0.009302802 -0.014196634
0000e0 50 f6 be 3b 44 2c 95 3c 3c bc 00 bd 00 0e 8b 39
       0.0058277026 0.018209584 -0.031429514 0.00026522577
0000f0 02 a0 7f 3d f0 71 16 3c c6 ea 16 3d 94 28 6c 3d
       0.062408455 0.009182438 0.03684499 0.057655886
000100 d8 02 17 3d 00 16 38 3d a4 b2 c3 3c 1e fd 09 3d
       0.036867946 0.044942856 0.023888893 0.033688657
000110 6e df 6e bd 6c 0b e2 bc a8 b9 e3 bc ae 96 63 3d
       -0.058318548 -0.027593337 -0.027798489 0.05556362
000120 20 39 3f bd 60 6d 98 bc e2 34 20 bd 02 69 03 3d
       -0.046685338 -0.018606842 -0.039112933 0.032082565
000130 0c 14 71 3d ec 91 eb bc 9a 04 7d bd ea 94 51 bd
       0.05885701 -0.028756104 -0.061771967 -0.051167406
000140 80 85 b0 bb 6c 25 c7 bc 20 68 34 bb d0 aa 71 3c
       -0.005387008 -0.024309836 -0.0027527884 0.0147501975
000150 68 b6 41 3c f0 26 09 3c 3c db a5 bc 20 b2 ab 3b
       0.011823274 0.0083711 -0.02024614 0.00523974
000160 e2 6a 3f bd 68 55 5e 3d c8 82 2d 3d 42 ab 62 3d
       -0.04673279 0.05428067 0.04236105 0.055339105
000170 80 67 02 bc e0 18 98 3b 8c 24 7e 3d 60 e5 4c bb
       -0.007959247 0.004641637 0.062046573 -0.0031264648
000180 dc 46 37 bd 5a 89 5e 3d 68 4d 1b bd c8 e0 a0 bc
       -0.04474531 0.054330207 -0.037915617 -0.019638434
000190 f4 0c 21 bd 50 74 e8 bc c2 ed 10 bd 98 a3 e8 3c
       -0.039318994 -0.028375775 -0.035382994 0.02839832
0001a0 f8 5f 49 bd a6 f0 48 bd 50 33 24 3c f0 f8 3b 3d
       -0.04916379 -0.049057625 0.0100219995 0.045891702
0001b0 e8 93 d3 3c 6e 3c 68 bd 68 24 53 bd 16 f2 10 3d
       0.025827363 -0.056698255 -0.05154839 0.03538712
0001c0 98 dd 69 bd ac 29 fa 3c 70 df 05 3c c4 a2 e2 bc
       -0.057096094 0.030537449 0.008170947 -0.027665503
0001d0 b2 67 69 bd 94 c1 b8 bc 5a e5 0b 3d be 38 47 3d
       -0.056983657 -0.022553243 0.034154274 0.048638098
0001e0 5c c5 43 bd bc 84 f0 3c 5c fe ea 3c 0c 3c b0 3c
       -0.04779564 0.029360168 0.028685741 0.021513008
0001f0 fc 96 de bc e4 d7 e2 bc 44 1c 7d bd 88 8c 43 bc
       -0.027171604 -0.027690835 -0.061794534 -0.011935361
000200 cc 9c 18 3d 80 cf 8e 3a da 1b 1b 3d e0 17 65 bd
       0.03725891 0.001089558 0.03786836 -0.055930972
000210 fa 9a 65 bd 6e 35 1b bd e6 37 43 3d 46 b3 08 3d
       -0.056056 -0.03789275 0.04766073 0.033374093
000220 82 8c 71 bd 32 b4 5b 3d 2c e9 a8 3c 5c fe 5d bd
       -0.05897189 0.053638645 0.020618998 -0.054197654
000230 b8 bc 7d 3d d0 6e 3f 3c 9c f2 ba bc c6 91 4d bd
       0.061947554 0.011684135 -0.022820763 -0.05018785
000240 00 50 ef b8 bc e3 55 3d a4 5c fa 3c b6 09 30 bd
       -0.00011411309 0.052219138 0.030561753 -0.04297801
000250 3e 12 4a bd d8 5b a9 bc 9c 07 be 3c fc 5b 5d 3d
       -0.049333803 -0.020673677 0.023196988 0.0540428
000260 24 59 bf 3c 30 f6 75 3c d8 f2 78 bc ce e2 4a 3d
       0.023357935 0.015012309 -0.015194617 0.049532704
000270 d8 ae 0f 3d 34 a3 5b bd 28 3a 0c 3d dc 35 6a bd
       0.035078853 -0.05362244 0.03423515 -0.05718027
000280 9c 47 94 bc 68 80 a3 3c 34 79 91 bc 18 71 4b bc
       -0.018100552 0.01995869 -0.01775799 -0.0124171
000290 a4 d3 bb 3c 9c f3 02 bd f0 25 7a bd d6 59 5a 3d
       0.022928067 -0.031970605 -0.061071336 0.05330833
0002a0 da b1 41 3d 08 0b 0f 3c 30 bb 45 bc 88 e7 5a bd
       0.047288753 0.008730657 -0.012068555 -0.05344346
0002b0 7c 30 6e 3d c0 60 2d bb 2c a8 77 bd f8 9c 0c bd
       0.058151707 -0.0026455373 -0.060463116 -0.034329385
0002c0 a6 55 70 3d e4 f3 26 3d 36 01 6d bd 38 ea 81 3c
       0.05867543 0.040759936 -0.057862483 0.015858755
0002d0 10 d7 8e 3b de 22 12 bd d0 80 11 bc c0 6b ff 3c
       0.0043591335 -0.035677783 -0.008880809 0.031179309
0002e0 80 40 c2 3b 24 7f 1a 3d 90 d9 7b 3c 40 d1 47 bb
       0.005928099 0.037718907 0.015371695 -0.0030489713
0002f0 36 a6 61 3d 7a 03 7a bd d0 85 b3 bc 80 3e ea ba
       0.05509015 -0.06103847 -0.021914393 -0.001787141
000300 28 54 10 bd 2c 98 7e 3d d4 3c f7 3c 30 e0 ab 3c
       -0.035236508 0.06215684 0.030180372 0.020980924
000310 12 d2 42 bd 44 5e 09 3d 74 0e f8 3c 5a b0 59 3d
       -0.04756362 0.033537164 0.03028033 0.053146698
000320 54 fe 57 bd 20 a7 ea 3b a0 66 d9 3b b0 8a 5a bd
       -0.05273278 0.007161036 0.0066345483 -0.05335492
000330 60 15 a2 3c 7a fb 7c bd 40 8a 28 bc 60 5e 01 3d
       0.019785583 -0.061763264 -0.010286868 0.031584144
000340 5c 2c 29 bd 54 83 01 3d 5c ef 98 bc 30 41 f3 bc
       -0.04130207 0.031619385 -0.018668823 -0.02969417
000350 80 7b 67 3a f4 cd b7 bc b4 57 0c 3d 52 71 7b 3d
       0.00088303536 -0.022437073 0.034263328 0.061387368
000360 90 08 1b 3c d6 d7 3d bd ac 1d 23 3d 70 c9 e3 bb
       0.009462491 -0.046348415 0.03982322 -0.0069515035
000370 f0 55 8f 3c 10 6f 4e bd 80 a7 b4 3c fc 1a a6 3c
       0.017497033 -0.050398886 0.022052526 0.020276539
000380 fc 10 a1 3c 74 e1 30 bd dc ae 79 3d 4c e5 2a 3d
       0.01966142 -0.04318376 0.060957775 0.04172258
000390 60 b6 dc 3c ea 2e 28 3d 20 8e 95 3c 88 a7 73 bc
       0.026942432 0.041060366 0.018256247 -0.0148714855
0003a0 4c c0 95 3c 70 bc 77 3c 48 df 41 3c 62 39 46 3d
       0.01828017 0.015120611 0.01183302 0.04839457
0003b0 00 7b c8 39 0c 26 a3 bc d6 05 39 bd 20 bd 83 bc
       0.00038238615 -0.019915603 -0.04517158 -0.016081393
0003c0 74 c5 ef 3c d0 06 77 3d 28 35 3b 3d fe 37 38 bd
       0.029268958 0.06030923 0.04570499 -0.044975273
0003d0 94 76 34 3d d8 02 82 3c 90 41 1c 3c 26 e9 50 3d
       0.044058397 0.015870497 0.009537116 0.051003598
0003e0 8e d2 68 bd 20 29 d3 bc 50 a4 fe 3c 4e 5d 5e bd
       -0.056841426 -0.025776446 0.03108421 -0.0542882
0003f0 44 48 25 bd 10 8c 4f bd 62 a1 79 bd a8 da f2 3c
       -0.04035212 -0.050670683 -0.060944922 0.029645279
