AM_RL/Controller/model/pretraining_controller.pth (torch, 625866 bytes, 10 tensors)

policy_net.0.weight f4 [256, 41]
000000 44 ab 01 be c9 30 ff 3d 56 86 85 bc 70 7c a9 3d
       -0.12662989 0.12460477 -0.016299408 0.08275688
000010 50 5e 87 bd 37 73 12 be 36 a4 49 bd 1a 72 67 be
       -0.066097856 -0.14301763 -0.04922887 -0.2260212
000020 7c a7 9e bd 66 3d 80 bd bf 61 de 3d ff fa 35 be
       -0.07746789 -0.06261711 0.10858487 -0.17771529
000030 fc 36 3a bd 67 15 07 3e 46 dc da bd f8 6e 13 3e
       -0.045462593 0.13191758 -0.10686545 0.143978
000040 ce 34 e6 3c 16 54 4f bd c3 04 72 bd 45 23 11 3e
       0.028101351 -0.0506173 -0.059086572 0.1417361
000050 de 90 04 3d 2e 96 b5 3b 1f cb fa 3c a8 e8 b7 bb
       0.03236472 0.0055415845 0.030614434 -0.0056124516
000060 09 96 0f 3e ab 2f 3a 3e db 5e bf 3c 08 8d 22 3e
       0.14022078 0.18182246 0.02336066 0.15874112
000070 7d 7e cd bd 4f 64 c0 bd 57 7b 58 3c 50 e4 4d bd
       -0.10033891 -0.09394132 0.013213 -0.050266564
000080 8f 3d 9e bd 53 e5 25 3e 2b c6 de bd 92 38 87 bd
       -0.07726585 0.16200761 -0.10877641 -0.06602587
000090 7a 08 49 bd 85 1f 18 3e 4d 98 cf bd 88 7c f9 3d
       -0.04908035 0.14855774 -0.10136471 0.121819556
0000a0 1a 86 a1 3d d5 87 ba 3b 08 55 10 be eb 53 02 bd
       0.07886906 0.005692462 -0.14094937 -0.03181831
0000b0 a7 b0 fc 3b ed 89 39 bd e2 bc 48 bd 75 1d fe 3c
       0.0077114883 -0.045297552 -0.049008258 0.031019906
0000c0 a8 40 1f bc f7 14 2f 3d 70 7f 32 bd b3 19 ce bc
       -0.009720005 0.042744603 -0.043578565 -0.025158739
0000d0 e7 e7 d7 bd 0f 18 aa 3d a2 b2 80 3d 4d d1 f8 bd
       -0.10542279 0.0830537 0.062840715 -0.12149296
0000e0 4e 02 88 3c c4 93 a5 3d 1f b6 10 3e 43 ad 00 3e
       0.016602661 0.08084825 0.14131974 0.12566094
0000f0 18 c6 d8 3c 27 6f 7b 3c 87 80 17 3e 6a b2 25 3e
       0.026461646 0.015346325 0.14795123 0.16181341
000100 d9 77 05 be 71 ef bb 3d 50 79 b4 3d 19 17 1c 3e
       -0.13034 0.09176529 0.08812201 0.15243186
000110 74 09 b2 bd 2e c9 e8 3d 0e 45 37 3d da 4f 6f bd
       -0.08693209 0.11366497 0.04474359 -0.05842576
000120 7e 3a cd 3d d6 d0 10 3d 22 63 42 3d 1e 07 a5 bd
       0.10020922 0.03535541 0.04745782 -0.08057998
000130 f6 ab aa bd c7 96 2c 3c c7 47 b7 3d 9a 1d 39 bd
       -0.0833358 0.010533995 0.08949237 -0.045194246
000140 eb 0e a8 bb 51 a6 ed ba 64 59 b5 3d f2 65 d1 bd
       -0.0051287315 -0.0018131231 0.088549405 -0.10224523
000150 f1 d6 ac bd 50 5f e5 3d 66 62 00 3e 73 2d 58 be
       -0.08439434 0.1119982 0.12537536 -0.21111088
000160 56 33 1c 3e 2e c3 5b 3c 2c 06 0c 3e 9b 1c be bd
       0.15253958 0.013413234 0.1367423 -0.092828
000170 28 8b 8e bc 1c 38 77 bd 45 86 0a 3e 00 4b 8c bc
       -0.01740034 -0.060356244 0.13527782 -0.017125607
000180 ab 21 57 3d 1f f9 f5 3d 97 b0 4a bd 58 be 5d 3b
       0.052522343 0.12010407 -0.049484815 0.0033835378
000190 77 1d b7 bd a7 cd 13 3e 5d f9 08 be 76 fc 4b 39
       -0.08941167 0.14433919 -0.13376375 0.00019453638
0001a0 6c 3e 4d 3e a1 9e 0a be 29 04 20 be 13 ce b9 3d
       0.20043343 -0.13537075 -0.15626587 0.09072509
0001b0 5e dc 93 bd 46 6b 87 bc 79 8d ae bd 4a b1 26 be
       -0.07219766 -0.016530644 -0.085230775 -0.16278568
0001c0 b6 7f 06 3e 0c 6f e9 bc b9 86 d1 bb 1d 3e e0 3d
       0.13134655 -0.028495334 -0.006394234 0.10949347
0001d0 b0 42 8d 3d df 94 e8 3d 11 14 ee bd e4 57 61 3d
       0.06897485 0.1135652 -0.11624921 0.05501546
0001e0 43 d4 04 be f5 0d 13 3e c3 8d ab bd cd c9 b8 bd
       -0.12971596 0.14360793 -0.08376648 -0.090228654
0001f0 f0 12 06 3e 56 22 f4 bc eb bd f3 3d f5 fb cc 3d
       0.13093162 -0.029801529 0.11901458 0.100089945
000200 eb 1c 4d be c8 52 db 3d 2c 8d 31 be 18 b4 9f bd
       -0.20030563 0.10709149 -0.17339009 -0.07798022
000210 9d 28 e4 3d 4d ed cf bd f5 f5 52 3d 95 d2 60 3d
       0.11140559 -0.101526834 0.051504094 0.054888327
000220 cc bd 8e 3d 9f 44 ad bd 94 13 a6 bd 94 24 23 3c
       0.06969795 -0.08460354 -0.08109203 0.009957451
000230 57 ad 7d 3d 9c 8e 19 bd 9b 3b 94 bd ee ac 73 bd
       0.061932888 -0.03748952 -0.07237931 -0.05949109
000240 8b bf 38 3d 3f 6d 00 be 87 28 59 bd 3a 98 6d bd
       0.045104545 -0.12541674 -0.053017166 -0.058006503
000250 1a 5a c0 3d a9 fc 08 bd 6f 67 1b be 89 3a f3 3d
       0.093921855 -0.03344408 -0.15176176 0.11876399
000260 72 39 0b bd e6 6b 13 bd 62 e4 cd 3d 67 3f 72 bb
       -0.03399033 -0.03599157 0.10053326 -0.003696406
000270 d8 fa c8 3d 6e 28 b5 3d e5 de 61 3c 20 1a 85 bc
       0.0981347 0.08845602 0.013786052 -0.016247809
000280 52 40 d0 3d 9b 4e 90 bc 82 31 92 bd 04 d9 e0 3d
       0.10168518 -0.017615607 -0.07138349 0.109788924
000290 74 16 0b 3d 25 e4 fe bd a6 75 2a 3c dc f8 15 be
       0.03395696 -0.12445859 0.010404026 -0.14645714
0002a0 db 48 08 be ce 38 26 be 40 35 7a 3d 69 75 36 be
       -0.13309042 -0.16232607 0.06108594 -0.17818226
0002b0 40 03 22 3e 3b b1 3b bd 74 4a 01 be 19 44 d7 3d
       0.15821552 -0.045823317 -0.12626058 0.105110355
0002c0 4e 76 15 3e bd db 18 3e d5 fb 1c bd 58 37 d0 bc
       0.14595911 0.14927574 -0.038326103 -0.025417015
0002d0 59 ff 3b 3d 32 18 00 be d3 87 7b 3d cf 81 d7 3d
       0.045897815 -0.1250923 0.06140883 0.10522806
0002e0 96 50 14 be aa cc 8b 3d af f8 17 3e 21 a2 b3 bd
       -0.14483866 0.06826146 0.14840959 -0.08771158
0002f0 d3 35 1f be 84 44 b2 3d c2 8f cf bc ab ed 8e 3d
       -0.15547876 0.087044746 -0.025337104 0.06978925
000300 eb e5 6d 3d 45 f9 24 3d 88 44 d1 bd 26 98 a0 3c
       0.058080595 0.040276784 -0.102181494 0.0196038
000310 9b 21 1f 3e 78 6e e0 bc 82 8e 03 3e 90 39 25 be
       0.15540163 -0.027396426 0.12847331 -0.1613524
000320 08 03 01 3d 0c dd 3c be 8b 67 e6 3d 83 fa 82 bc
       0.03149703 -0.18443698 0.11250218 -0.015988594
000330 c1 cd 29 bd 3e cc 62 bb 3a a6 5a bc a9 3e 89 bd
       -0.041455988 -0.00346066 -0.013345296 -0.067014046
000340 b9 eb 30 be 65 ff ba 3d fb 1f 0a be c3 72 8d bd
       -0.17277421 0.09130744 -0.13488762 -0.06906655
000350 fa 5b 85 be 97 c4 93 bd 94 4e 43 be 07 11 73 3d
       -0.26046735 -0.07215231 -0.19072944 0.05934241
000360 94 21 12 bd f8 32 b0 3d b4 b7 1c be 31 41 fd 3d
       -0.035676554 0.086034715 -0.15304452 0.1236595
000370 5d c8 af bd 57 15 01 be 74 3b 34 3e 66 73 a3 3b
       -0.08583138 -0.12605797 0.17600805 0.004988122
000380 32 ae ea 3d 4b c1 97 bc 4c c7 42 3d 63 8d 2b be
       0.11459006 -0.018524786 0.047553346 -0.16753154
000390 87 dd b2 3d b4 e7 e4 bd eb fb ec bd 82 9b 8a 3d
       0.08733659 -0.11177006 -0.11571487 0.06767942
0003a0 03 67 78 bd b0 88 07 3e 7c 26 f5 bc 8b 27 b6 3d
       -0.060645115 0.13235736 -0.029925577 0.08894261
0003b0 70 b1 f7 3c ce a0 3e 3d 8a 07 28 3e 1e ad 55 3b
       0.030235976 0.046540074 0.16409126 0.0032604407
0003c0 6f a4 b3 3d 3d 38 88 3d 06 77 1f 3d ec 5d dd 3d
       0.087715976 0.066513516 0.03893187 0.1080893
0003d0 82 90 0f be ad d9 b7 bd c2 e5 04 3e 04 82 86 3c
       -0.14019969 -0.08977065 0.1297827 0.016419418
0003e0 c4 15 a5 bd 51 f5 9d 3c 70 ab 12 be a2 0e c5 bd
       -0.08060792 0.019282015 -0.1432321 -0.096219316
0003f0 74 18 e7 bd 3b be ae be 35 45 26 3d a3 dc 2d be
       -0.11283961 -0.3412951 0.040593345 -0.16978697

policy_net.0.bias f4 [256]
000000 19 f4 bd bd ff 13 d3 3d ed 35 8d bd b3 8f 03 3e
       -0.092750736 0.10306548 -0.06895051 0.12847786
000010 2e 9c 8c 3d 60 51 0f 3e fe 98 19 bc 06 5b 9e 3d
       0.068657264 0.13995886 -0.009374855 0.07732205
000020 93 2e 1e 3e 46 e4 c4 bc 89 33 36 bc bc ba 54 3c
       0.15447454 -0.02403463 -0.011120685 0.012983974
000030 81 e8 12 bd 5f b2 4a 3d ca a1 0f be 2c 2f 03 be
       -0.035866264 0.049486514 -0.14026561 -0.12810963
000040 97 23 a2 3d a7 52 93 3d 6b 02 07 3e 56 9c fa 3d
       0.079169445 0.07193499 0.13184516 0.1223685
000050 1c 3d 22 3e de d8 ed 3d 74 13 8a 3d 92 ec 12 3e
       0.15843624 0.1161363 0.06741992 0.14348057
000060 4f 74 e1 bc 66 69 9c 3d 59 2e 60 bd ee 40 b7 bd
       -0.02752128 0.07637291 -0.0547317 -0.08947931
000070 ee 82 45 bc 89 04 78 bd c5 2c 14 be da 4e d3 3d
       -0.012055142 -0.0605512 -0.14470203 0.10317774
000080 56 7d eb bd 43 0f a1 3d 76 c6 82 3b af 2b bc bd
       -0.11498515 0.07864239 0.0039909435 -0.091880195
000090 e8 81 49 bd 87 66 01 3d 91 a5 34 3d cf e3 a6 3d
       -0.049196154 0.03159192 0.04410321 0.0814892
0000a0 9c 9b 3d 3d 69 8e 8e 3d ae 86 11 be 75 f9 05 3e
       0.04629098 0.06960756 -0.14211532 0.13083442
0000b0 db 20 ba bd b1 a7 c9 bd ab 1e d3 3d b8 a1 04 be
       -0.09088298 -0.09846438 0.10308584 -0.12952316
0000c0 1b 2e 96 bd 38 ac ff 3d a1 31 e3 3d 2d 02 3b 3d
       -0.07333013 0.1248402 0.1109345 0.04565637
0000d0 75 0b ed 3c f5 99 8e 3d 7d 82 0c be 63 0b 49 3b
       0.028936127 0.06962959 -0.13721652 0.0030676953
0000e0 a5 f5 9c bb c8 d2 ff bd 29 28 2e bd fa 5f a6 3c
       -0.0047900253 -0.12491375 -0.04251877 0.020309437
0000f0 a2 d2 3d bd d7 a9 87 bd 36 30 0c be 73 ad bf bd
       -0.046343453 -0.06624191 -0.13690266 -0.09359255
000100 b6 7c 0e be 5a 7b 13 3e 33 c6 1a bd 1e f2 11 be
       -0.13914761 0.14402524 -0.037786674 -0.14252517
000110 43 13 1c bd db 4e 09 be b2 ad 14 be eb ff b5 3a
       -0.038104307 -0.13408987 -0.14519385 0.0013885474
000120 d0 48 7d bd 58 be 6c bd 0c 36 14 be d2 b2 30 bc
       -0.061837018 -0.057798713 -0.14473742 -0.010784822
000130 b2 94 9b 3d b9 cd fa 3d 8b f1 00 be cb ae d4 bd
       0.07596721 0.1224627 -0.12592141 -0.103849016
000140 20 9d f1 3d 0a 15 64 3d 5d 84 f2 3d 90 24 0b be
       0.11797547 0.055684127 0.118416525 -0.13588166
000150 ec 23 8e 3d 90 d6 0a be 0f 90 80 bc 5d 4f 90 bd
       0.06940445 -0.13558412 -0.015693692 -0.07046387
000160 cd d8 ac bd b9 d5 45 bd 19 1c e6 bd e8 10 de bd
       -0.08439789 -0.048299525 -0.11235828 -0.10843068
000170 a0 cd e2 bd c9 df 12 3e 7b c2 1e be bd 49 d0 bd
       -0.11074376 0.1434318 -0.15503876 -0.101703145
000180 c5 ae 98 3d 2d c9 05 3d e4 69 12 be 9c 8c f2 bd
       0.0745521 0.03266256 -0.14298207 -0.11843225
000190 d2 2a 06 3e e9 72 26 bc ad 82 0d be d9 58 ac bd
       0.13102272 -0.010159233 -0.1381938 -0.08415384
0001a0 1a 68 e7 bd 71 f3 df bc fa 59 ee bd b0 98 11 bc
       -0.11299153 -0.027337762 -0.116382554 -0.008886501
0001b0 78 47 e5 3d b0 83 8f bd cf d1 93 bd f9 2f f3 3c
       0.11195272 -0.07007539 -0.07217752 0.029685961
0001c0 cd da 96 3c 45 ca 17 be 11 ae b9 3d 00 b7 da bd
       0.01841488 -0.14823253 0.09066404 -0.10679436
0001d0 8a e7 d4 bd 38 6e 12 3d c5 4a ee 3d b0 8e e7 3d
       -0.10395725 0.035749644 0.11635355 0.11306512
0001e0 c6 7c c4 3d 98 01 9a 3d 28 44 c5 bd 8e 05 8f 3d
       0.09594111 0.07519835 -0.096321404 0.06983481
0001f0 f7 75 e3 3c 1a e1 63 bd a9 a6 c9 3d 37 a5 58 b9
       0.027766211 -0.055634595 0.09846241 -0.00020660913
000200 b4 78 d7 3d af 2a 95 3d 53 38 96 3d 47 a2 99 3c
       0.10521069 0.07283532 0.07334962 0.018754138
000210 6b 75 44 3d df c9 56 bc 2a 89 c0 bd 35 65 28 3d
       0.04796354 -0.013109653 -0.09401162 0.041112144
000220 87 11 66 bd bf 6e d0 bc be f8 07 3e 96 06 6a 3d
       -0.05616906 -0.025443433 0.13278481 0.057135187
000230 5b 22 31 bc f2 ee 06 bd 5e 07 21 3c 33 61 0d be
       -0.010811414 -0.03294272 0.009828417 -0.1380661
000240 a1 e0 8c 3c 75 a0 ea 3d f6 eb d5 bd 01 06 80 3d
       0.017196955 0.11456386 -0.104453966 0.06251145
000250 0b fd 73 3b 7c 85 04 be 22 a9 19 be db 3e 24 3e
       0.0037229683 -0.12941545 -0.15005925 0.16039602
000260 2d ba 0e 3e c2 64 e4 3c 67 6e 81 bd 48 2b bb bd
       0.13938208 0.027880076 -0.06319886 -0.091391146
000270 f7 d7 03 be 20 5b 46 bd 11 2d 51 3c 5b f8 90 bd
       -0.12875353 -0.048426747 0.012767092 -0.0707862
000280 75 b8 0e be 62 51 ac 3d 86 8d 30 3e 75 0f f9 3d
       -0.13937552 0.0841396 0.17241487 0.12161151
000290 c3 59 60 3d 75 9e 12 3e a3 87 b5 bc 46 a5 3c 3c
       0.054773103 0.14318259 -0.022159403 0.011514014
0002a0 5d d7 83 bd b6 b4 d0 bd e7 20 31 3d 10 64 be bd
       -0.06437562 -0.10190718 0.04324427 -0.09296429
0002b0 67 3a 42 3c 78 3b 99 3d 01 36 6c 3c fe f8 16 be
       0.0118547445 0.07482046 0.014417172 -0.1474342
0002c0 d6 75 f2 bd 33 fe 4e 3d 35 33 09 3e 99 80 af bd
       -0.11838882 0.050535392 0.1339844 -0.0856945
0002d0 ff 2d 8f 3c c2 8c cf 3d 90 8a 95 bc 40 97 e3 3c
       0.017477987 0.10134269 -0.018254548 0.027782083
0002e0 89 de a3 3d fe 76 8f bd 9b ef 0f be fa b5 7c 3d
       0.080014296 -0.07005118 -0.14056246 0.061696984
0002f0 a0 6e 12 bc 4b ad 27 3d 45 09 ce bd 07 16 39 bd
       -0.008937508 0.04093675 -0.10060362 -0.045187023
000300 60 c1 9a 3d f8 03 d1 3d d6 a7 14 3e 94 51 66 bc
       0.075564146 0.10205835 0.1451715 -0.014057536
000310 b8 c4 6b bd c8 bc c9 3d a7 3e 91 3d ca 62 5f bd
       -0.057560652 0.0985046 0.07092028 -0.054537572
000320 00 17 fb bd bb cd 46 3d 63 a1 f8 3d e7 90 4f 3d
       -0.12260246 0.048536044 0.12140157 0.0506753
000330 82 c8 c3 bc 00 2c e6 bd 56 b9 3c bd bf b9 1d 3e
       -0.02389932 -0.11238861 -0.046075188 0.15402888
000340 c5 d4 fa 3d aa 80 19 be bf e5 e1 3d c9 a0 0f be
       0.12247614 -0.14990488 0.11030149 -0.14026178
000350 30 a1 97 3d 7b b6 e8 bd 5c b2 9a bd 3e eb e7 bd
       0.07403791 -0.113629304 -0.075535506 -0.11324166
000360 78 ce 02 be 79 8d 00 3e 7e 91 01 be 8d 5a a9 3d
       -0.12774074 0.12553968 -0.12653157 0.08269224
000370 07 75 23 3d cb d5 b7 3d cd bb a1 3d 84 05 e0 bd
       0.039906528 0.08976325 0.07897148 -0.10938552
000380 a6 a8 b4 3d e8 c5 b2 3d 65 5d 5a bd d7 a8 d4 3d
       0.0882123 0.08729154 -0.053311724 0.10383766
000390 f1 08 0e 3e ee 21 0c 3d 9b 00 0b be 8a e3 1c 3e
       0.13870598 0.034212045 -0.1357445 0.15321174
0003a0 64 69 de 3d 2b 56 84 bb 28 c2 a9 3d f9 83 92 bd
       0.108599454 -0.0040385923 0.082889855 -0.07154078
0003b0 aa f7 cf 3d 83 aa a4 3c 51 d0 3f bc 3b 9d 04 3e
       0.1015466 0.020100838 -0.011707381 0.12950604
0003c0 db f1 74 bc c0 f8 95 bd 87 78 a1 bd 7f 2d 95 bd
       -0.014950241 -0.07322836 -0.07884317 -0.07284068
0003d0 cc f0 07 3e c8 49 66 bd 8b 86 03 be 74 9c 86 3d
       0.1327545 -0.056222707 -0.12844293 0.0657281
0003e0 65 c4 05 be a0 86 02 3e d6 f8 92 bd c1 d8 21 3d
       -0.130632 0.12746668 -0.07176368 0.039513353
0003f0 82 87 0d be 39 b6 aa bd 15 45 0b 3e 08 c7 f7 bd
       -0.13821223 -0.083355375 0.13600571 -0.12098509

policy_net.2.weight f4 [256, 256]
000000 c8 5f 0c bd 27 a2 57 3d 97 00 96 bc e5 a8 58 bd
       -0.03427103 0.052644875 -0.018310828 -0.052895445
000010 a3 ad 11 bd dc f9 46 3d 33 17 5b 3d 12 36 0c 3d
       -0.035565984 0.04857813 0.05348892 0.034231253
000020 59 aa 50 bd 3d 7d 12 bd 64 3c a1 bc bc 81 e3 bc
       -0.050943706 -0.035763968 -0.019682117 -0.027771823
000030 48 d0 89 3d 5a 8d dc bb 71 0f 46 3d 62 f4 54 bd
       0.067291796 -0.0067307176 0.04835457 -0.051990874
000040 87 de 42 bd 63 48 1c 3d 00 8b 5d bd d8 89 6c bc
       -0.0475755 0.03815497 -0.05408764 -0.014437161
000050 5d 19 b4 bc b9 92 56 3d ad ce 82 bd d3 aa d1 3c
       -0.02198475 0.05238602 -0.063870765 0.02559415
000060 13 86 31 bd 75 5a 92 bc 21 86 21 3d 83 e8 94 3d
       -0.043340754 -0.017865399 0.039434556 0.072709106
000070 dc 03 c2 bb 4a 97 91 3d 00 64 3a 3d 9f 12 1f 3d
       -0.00592087 0.07108934 0.045505524 0.038836118
000080 79 7d 56 bd 37 bc 02 3d ef 80 1f 3c fe 70 a2 bc
       -0.052365754 0.031917777 0.00973533 -0.01982927
000090 9f c1 81 3c 14 b0 21 bd d9 0d 00 bd 80 b0 48 bb
       0.015839396 -0.03947456 -0.031263206 -0.003062278
0000a0 2b 21 0b bd 54 7b 0e bd 9d 10 18 bd 66 f4 49 bd
       -0.03396718 -0.034785584 -0.03712522 -0.049305342
0000b0 db 3d ae 3c d7 20 3f bd 27 dd 39 3c c6 16 36 3d
       0.02126973 -0.046662178 0.011344231 0.044455312
0000c0 7f 82 1d 3c ae 3f 0d 3d 10 77 1e bc 99 7f 69 bd
       0.009613632 0.034484558 -0.009671941 -0.057006452
0000d0 9d 25 71 bc 4b 17 53 bd 3d 12 52 3d 32 ea 71 bc
       -0.01471844 -0.051535886 0.051286925 -0.014765309
0000e0 24 c0 5b bd ba b6 9b 3c 18 c0 cf 3c 8e ec 56 bb
       -0.053650036 0.01900803 0.025360152 -0.0032794806
0000f0 77 ca 24 3d 7c a2 4b 3d 61 f3 6b 3d fe f2 08 3d
       0.040232148 0.049715504 0.05760515 0.03343486
000100 01 32 57 bd e3 78 4a 3d 03 5a 80 bd 31 39 32 3d
       -0.05253792 0.049431693 -0.062671684 0.043511573
000110 4c 8e 8c bc 4f f7 87 bc ed ef 10 bb be cd 15 3d
       -0.017157696 -0.016597418 -0.0022115663 0.036573164
000120 9f 48 70 bd b2 b8 31 bd b3 3d 60 3d d9 8d 0e 3c
       -0.058663007 -0.04338903 0.05474634 0.008700811
000130 c7 42 7e 3d 63 4c 32 bd 8e 48 09 bc 16 5d 5e bd
       0.062075403 -0.04352988 -0.008379115 -0.054287992
000140 a1 92 b0 3c f5 58 19 3d 1c fd 90 bc 24 4e 05 bd
       0.021554293 0.03743835 -0.017698817 -0.032545224
000150 1c 3a 40 3d 4a d4 70 3c e6 ad 83 bc 86 d2 07 3d
       0.046930417 0.014699051 -0.016074132 0.033159755
000160 01 e5 b7 bc e9 94 67 3d 8e 53 b7 ba 18 8d 67 bc
       -0.022448065 0.056538496 -0.0013986693 -0.01413276
000170 27 70 5f bd 23 4f 52 bd 85 02 b8 3a 72 62 14 3d
       -0.054550316 -0.051345002 0.0014038837 0.036226697
000180 5e 72 4d 3a 35 a8 b7 3c a6 5b ef bc 5b a1 88 bc
       0.00078371714 0.022419075 -0.029218506 -0.016678503
000190 e0 5f 60 bd 0e b8 2a bd 08 3d 4b 3d 76 ae 19 3d
       -0.054778934 -0.041679434 0.04961875 0.037519895
0001a0 15 ed e0 3c 2b b7 72 3d 6e 2b 21 bd 5e ed 10 3c
       0.0274568 0.059256714 -0.03934806 0.008845655
0001b0 41 36 75 3d 1d e5 c8 bb 0c 5b 02 bd aa d5 5e bd
       0.059866194 -0.006130828 -0.03182511 -0.054402985
0001c0 0a 9f 47 bd b2 cc cc bc be bf 7b 3d f4 36 30 3c
       -0.048735656 -0.02499995 0.061462156 0.010755289
0001d0 ef fc af 3c 50 5a 32 bd 8c bd 11 bd d7 da 6b bd
       0.021482913 -0.04354316 -0.035581157 -0.05758175
0001e0 65 a7 56 bd f4 18 90 3a e0 9c 8d bd 5f a3 dc 3c
       -0.052405734 0.0010993765 -0.06914687 0.02693337
0001f0 c5 4a 07 bd d9 b0 2f bd 95 56 46 3d a8 31 bd bc
       -0.03303029 -0.042893264 0.048422415 -0.023094967
000200 67 78 04 bd 38 07 39 bd d4 3a 21 bd 70 ef 1a 3d
       -0.032341387 -0.0451729 -0.039362743 0.037826
000210 76 7a 3e 3d 83 d3 1f bd 00 fb 82 3d 05 53 e9 bc
       0.046503507 -0.039020073 0.06395531 -0.02848197
000220 f3 5a 69 3d e5 20 81 bc e3 f8 20 3d 5e 21 99 bc
       0.0569715 -0.015762756 0.039299857 -0.018692669
000230 71 0a 2c bd 9e 8d 64 bd 38 f1 5d bd 2a cd 38 bd
       -0.042002145 -0.05579912 -0.054185122 -0.045117535
000240 b3 60 66 bd 07 f5 62 bd bf ef fa 3c 97 27 33 3d
       -0.056244563 -0.055409458 0.030631898 0.043738928
000250 3a b3 33 3b c0 b5 83 3c 36 8d 84 3c 58 3c 36 bd
       0.002742006 0.016077876 0.016180616 -0.044491142
000260 ae 77 59 bb 59 5e 49 bd 94 a9 3d bd 10 b6 54 bd
       -0.0033182907 -0.049162243 -0.0463043 -0.05193144
000270 ea 18 a3 3c b0 d3 dd 3c 9e 58 4e bc e7 1f 19 bc
       0.01990934 0.02707848 -0.01259437 -0.009345985
000280 66 f5 ea bc 60 38 48 3d c9 e1 20 bd d8 40 67 3d
       -0.028681468 0.04888189 -0.039277826 0.056458324
000290 94 7b 05 3d 23 68 57 bd 49 67 85 bc fc 66 b9 3b
       0.032588556 -0.052589547 -0.016284602 0.0056580286
0002a0 14 b0 1e bd 56 4b 28 bd 2d 75 71 3d 28 d6 b1 bb
       -0.03874214 -0.04108747 0.05894964 -0.0054271407
0002b0 ea af 3e ba 89 0c 2f bd 2a e9 23 3d 7d 98 bf 3b
       -0.0007274138 -0.042736564 0.040017284 0.0058470354
0002c0 f0 7c 7b 3d d0 e7 79 3c 70 e0 8a bc 6e 8a ad 3c
       0.061398447 0.015253022 -0.016952723 0.021184172
0002d0 ba 13 f2 ba 4b f1 51 3d ed 9d 31 bd c9 f5 08 3d
       -0.0018469014 0.051255506 -0.0433635 0.033437524
0002e0 2d 91 8e 3c bf 0a 94 bc 89 5a 87 3c 3c 1a 9a 3c
       0.01740321 -0.01807153 0.016522663 0.018811338
0002f0 fa aa c9 3b e5 37 15 bd 2e fe 3c 3d da 7d 7a 3d
       0.006154415 -0.03643026 0.046140842 0.061155178
000300 a2 e0 16 3d 09 f6 04 bc f1 c4 5f 3d be dd 3b 3d
       0.03683532 -0.0081153 0.054631177 0.045865767
000310 58 63 e8 bc 0c e0 64 bc 2b bf 80 3b 1f 97 db 3c
       -0.028367683 -0.013969433 0.003929039 0.026805459
000320 e1 65 64 3c c2 18 4d bb 19 08 07 3d 5d 7f 22 bd
       0.013940305 -0.0031295274 0.032966707 -0.039672244
000330 72 ea 71 3c be a5 53 3d fe 25 5f bd e5 62 41 3d
       0.014765369 0.051671736 -0.05447959 0.047213454
000340 05 5a 61 bc fa a8 78 bb 5e c7 05 bd af a0 fb bc
       -0.0137543725 -0.0037942515 -0.032660834 -0.030716268
000350 b0 97 51 bd 0b a3 80 bd cb 0d 26 3d 92 ac 42 3d
       -0.05117005 -0.06281098 0.040540498 0.047527857
000360 b9 fa 81 3d 77 c4 19 3d 7e 84 a9 3c 32 0f 28 3d
       0.0634665 0.03754088 0.02069306 0.041030116
000370 d8 f9 f4 bc 48 28 ff bc 9b ee 12 3d 3f 86 ed 3c
       -0.029904291 -0.031147137 0.035872083 0.028994678
000380 3e 41 03 3b 76 e6 ad 3c 35 fd f8 bc 44 53 ef bc
       0.00200279 0.021228056 -0.030394176 -0.029214509
000390 dd 14 56 3c 20 45 49 bd f7 5c b9 bc 13 12 ec bc
       0.013066498 -0.04913819 -0.022627337 -0.028817212
0003a0 f7 ee f3 bc 10 3b 02 3d e5 cd 05 3d df f3 2a bd
       -0.029777033 0.031794608 0.03266706 -0.04173648
0003b0 52 ad 00 bd 18 bd 33 3d 1c fd 19 3a 3a 31 41 3d
       -0.03141529 0.043881506 0.0005874203 0.047166087
0003c0 85 36 45 3d 9f 8b d9 ba f2 8f 85 bd cb 43 ff 3b
       0.048147697 -0.0016597396 -0.06521596 0.007790064
0003d0 a0 c0 40 3d a5 c3 f2 3c 5f 44 de bc f0 a4 9f ba
       0.0470587 0.029634306 -0.027132211 -0.0012179893
0003e0 cc ae d7 bc 81 32 1b bd 8a d4 f1 3c 21 24 26 bd
       -0.026328467 -0.03788996 0.029520292 -0.0405618
0003f0 59 28 ba 3b 0f ef 46 bd 6e ac 1e 3c bc c5 0d bd
       0.0056810793 -0.048567828 0.009684665 -0.034612402

policy_net.2.bias f4 [256]
000000 88 cd fd 3c f9 ad a8 bc fd a7 29 3d 7e 7f d8 bc
       0.030981794 -0.02059077 0.04141997 -0.02642798
000010 b0 14 37 3d 15 b8 f9 3c 12 ac dc bc 49 43 0c 3d
       0.044697464 0.030483285 -0.026937518 0.034243856
000020 bf 7f 9a 3a d4 e0 5b bc 82 2d f4 3c 17 97 01 bd
       0.0011787339 -0.013420302 0.029806856 -0.03163823
000030 5c 70 4d bc fa ba 94 3c b3 98 28 bd 93 a3 42 bd
       -0.012538996 0.018155564 -0.04116125 -0.047519278
000040 1a 45 82 bd 48 4e a7 bc 7b 4b 45 bd f1 2b 37 bd
       -0.06360836 -0.02042307 -0.048167687 -0.04471964
000050 fa aa d3 bc 55 de 0f bd d4 74 af bc bd 53 07 bd
       -0.025838364 -0.03512414 -0.021418013 -0.033038843
000060 32 a5 f0 3c 70 0a 56 3d 97 34 45 3c 63 37 60 bc
       0.029375646 0.052256048 0.012036464 -0.01368508
000070 44 3b 7b 3d 07 ba 4b bd be 6a 5e 3d d5 28 4b bd
       0.061335817 -0.049737956 0.054301016 -0.049599487
000080 f5 ed 54 3d d0 b3 10 bd 71 5f 42 bd d1 e0 d4 3c
       0.051984746 -0.035327733 -0.0474543 0.025986107
000090 18 8c 38 bd 65 15 44 3d ce 27 53 3d 7f 64 f0 3b
       -0.04505548 0.047871966 0.051551633 0.007336199
0000a0 9d f2 a8 bb d1 24 a3 3c 11 df a5 3c 8f 82 ce bb
       -0.005155875 0.019915016 0.020247968 -0.006302185
0000b0 c0 60 88 3c a9 56 d8 3c 7d e9 51 bd bc 6f 61 bd
       0.016647696 0.02640851 -0.051248062 -0.0550382
0000c0 7c f8 69 bc d3 4c 39 3d 16 cb 4a bc 20 a7 60 3d
       -0.014280435 0.04523928 -0.012377521 0.054846883
0000d0 1d 0f 3f 3d 4f b1 76 3c 39 29 be ba 2d 57 01 3d
       0.046645273 0.015056922 -0.0014508135 0.031577278
0000e0 4a fb 85 bd b0 d8 02 bd f2 dd 25 bc b2 af ee 3c
       -0.0654207 -0.03194493 -0.010123717 0.029136512
0000f0 91 86 04 3d 07 2c e2 bc 93 15 f9 bc 27 53 3b 3d
       0.032354895 -0.027608884 -0.030405795 0.045733597
000100 a6 68 5f 3d b4 72 00 3d 21 bf 11 3b 66 5e 3c 3d
       0.05454316 0.03135939 0.0022239166 0.045988463
000110 46 f9 0d bd d4 64 91 bc aa 9d 30 bc 83 76 4e 3c
       -0.034661554 -0.017748274 -0.010779778 0.012601498
000120 c5 62 3c bc 4d 22 d7 3c 8e 5f 80 3c 69 da 79 3d
       -0.011498158 0.026261473 0.015670564 0.060999308
000130 88 fb 01 bd 38 30 5c 3d ba 52 fd 3c 7e 4e 83 3d
       -0.03173402 0.053756922 0.030923236 0.064114556
000140 37 c2 47 bd 4a 01 c2 3c a5 b0 64 3d d9 a0 f4 bc
       -0.048769202 0.023682255 0.055832524 -0.029861854
000150 bb 06 02 bd 6f 5b 62 bd 27 97 28 bd cb 49 3d bd
       -0.0317447 -0.05526298 -0.041159775 -0.046212953
000160 ab cb 0c 3c 0f 00 4f 3d f7 3e e6 bb f0 cb 3a bc
       0.00859348 0.050537165 -0.007026549 -0.011401162
000170 d8 f1 bb 3c d0 83 62 3d f0 b8 60 bd ab dd 03 3c
       0.022942469 0.055301487 -0.05486387 0.008048455
000180 3c c5 49 3d b0 a2 9c 3c fa a3 6c 3d 3a e6 80 3d
       0.049260363 0.019120544 0.057773568 0.06293912
000190 05 25 11 bd eb f5 70 bc aa ca 2f bd 04 e2 8a bc
       -0.035435695 -0.014707069 -0.042917885 -0.016953476
0001a0 6e af 8c 3b 1a 49 01 bd 2e 27 bd 3c a0 15 ce bc
       0.004293374 -0.031563856 0.023089971 -0.025156796
0001b0 97 98 8a bb 48 8e 3d bd 0e 3f 77 3c 1b fe 29 bd
       -0.004229616 -0.046278268 0.015090717 -0.0415021
0001c0 1b dc 63 3d 7d f7 c9 bc ce 5b 5e bc b0 6c 11 bd
       0.05562983 -0.024654144 -0.013571693 -0.035504043
0001d0 ed f9 a6 bc 46 bb d1 bc 3a 29 2b bd 1a e4 78 3c
       -0.020382846 -0.025601994 -0.041787364 0.015191102
0001e0 9f 32 38 3d 82 f0 9a 3c 46 fc 59 bc 25 ef ba 3c
       0.04497015 0.018913511 -0.013304776 0.022819111
0001f0 d9 c9 f1 3c e7 7d fb bc bb 3b 35 3d 2b 1e d6 3b
       0.029515194 -0.030699683 0.044246417 0.006534358
000200 48 07 6d 3d 36 ee fe 3c af a7 33 3d 37 1d 2c 3c
       0.057868272 0.031119447 0.043861087 0.010505012
000210 1f c1 68 3b 99 6f 50 bc 83 c9 bb bc 37 4b 6f 3d
       0.00355155 -0.012721919 -0.022923237 0.05842134
000220 5c 4e 48 bb a6 79 43 3b 7e ec d9 bc 01 d8 85 3c
       -0.0030564284 0.0029827147 -0.026602026 0.01633835
000230 fa ff 15 bd 94 0d 25 3d cc 36 53 3c ed d2 c9 3b
       -0.03662107 0.040296152 0.012891483 0.0061591775
000240 66 40 61 3b 9b 09 01 3d 92 61 34 3d 4b 72 6c bd
       0.003437066 0.0315033 0.044038363 -0.057726186
000250 70 8b 0d bd 7f 85 af bc ce 45 45 bd 6c 59 10 bd
       -0.034556806 -0.02142596 -0.048162274 -0.03524153
000260 61 be 81 ba 13 53 14 3d 7e 34 4d bd 32 12 e5 3c
       -0.0009898656 0.03621204 -0.05009889 0.027962778
000270 d2 5c 64 3a 59 4c 9c 3c d9 5e dc 3c b9 45 1d bd
       0.0008711341 0.019079374 0.026900696 -0.03839657
000280 ed cf 36 3d 01 c7 84 bd be a4 65 3c 22 ba ae 3b
       0.044631887 -0.064832695 0.014016328 0.0053322474
000290 5f ad 33 bd 20 5b 7b bc 94 c7 47 bd 01 eb e3 bc
       -0.04386651 -0.01534155 -0.048774317 -0.02782202
0002a0 01 87 9b 3c 80 d1 b1 3c a9 fc 35 3d 38 41 71 3c
       0.018985273 0.021706343 0.04443041 0.014725022
0002b0 53 65 45 bd 5e ae 69 bc 63 3e bb b9 89 30 d2 bb
       -0.048192333 -0.014262764 -0.000357139 -0.0064144772
0002c0 bb 13 0f bd b9 dc 2f bd cc 9f 51 3c 0d 3d fb bc
       -0.034930926 -0.042935107 0.012794446 -0.03066876
0002d0 73 b1 1e 3d 25 07 4b bc 3d ed e5 3a 79 79 4b 3d
       0.038743448 -0.01239184 0.0017542016 0.049676392
0002e0 50 dc 7d 3d 7c af a3 bc b1 2d 98 3c e7 cb 32 bd
       0.061977684 -0.019981138 0.018576475 -0.043651488
0002f0 6f 4a 1e bd cf d1 40 bd d2 3b 92 3b f1 29 51 3d
       -0.038645204 -0.04707509 0.0044626975 0.05106539
000300 0b b0 01 bd ca ec 96 3b e5 58 cb bc 12 a4 c1 3c
       -0.03166203 0.004605864 -0.024822662 0.023637805
000310 2a 3d 3e bd fe 13 52 bd 97 15 2b bd 9a c8 12 bd
       -0.04644505 -0.051288597 -0.041768637 -0.03583584
000320 1f f9 d0 3b 55 8e 8f bc 45 8e 6e 3d 5e 25 8a 3a
       0.006377354 -0.017523924 0.058241148 0.0010539701
000330 0a e2 4f bd 86 81 ac ba fd 7a 20 bd 3b 39 83 bc
       -0.050752677 -0.001316116 -0.03917979 -0.0160185
000340 e8 d8 22 bc a6 ec 16 3d 35 99 05 3d 39 88 85 3c
       -0.00993941 0.03684678 0.032616813 0.016300308
000350 fc 5a 46 3d 34 11 32 3d 64 51 8b 3b c8 ba 5a bd
       0.048426613 0.043473437 0.004251646 -0.053400785
000360 88 d2 6b bd a9 88 57 3c 98 1b 1f bd 55 d2 67 3c
       -0.057573825 0.013155141 -0.038844675 0.014149268
000370 7e 48 b4 3c d8 42 83 bc f2 e2 d2 bb 0d f8 ae 3b
       0.022007223 -0.016023085 -0.0064357454 0.0053396286
000380 33 03 d5 3c ec 05 f9 bc 73 ee 77 3d 1d 43 2c 3c
       0.026002502 -0.030398332 0.060530137 0.010514048
000390 ca b9 32 bd 43 b1 1c bc 25 ca 63 3d 56 96 6c 3d
       -0.043634214 -0.009563747 0.055612702 0.05776056
0003a0 52 1e 73 bd 88 f0 13 3c 3a 9a 4f 3d a2 7d 8b bc
       -0.059355088 0.009029515 0.05068419 -0.01702768
0003b0 16 2e 89 3d 57 f0 59 bd 06 13 6b bd 00 e4 3b 3d
       0.06698243 -0.05320772 -0.05739119 0.045871735
0003c0 9b e3 38 bd 95 26 0b 3d 9f fa 24 3c 53 e7 d5 bc
       -0.045138936 0.03397234 0.010069518 -0.02611128
0003d0 96 b4 13 3d db 28 3a bd 86 02 2c bd 16 fc 4c bd
       0.036060892 -0.04544912 -0.041994594 -0.050045095
0003e0 51 a5 25 3a aa a5 43 bd d4 2e cc 3c 6d 8f 45 3d
       0.00063188846 -0.04776541 0.024924673 0.048232485
0003f0 f3 34 77 bc 20 7a 29 bd bf 86 e0 bc dd 01 64 3c
       -0.015088308 -0.041376233 -0.027408002 0.01391646

value_net.0.weight f4 [256, 41]
000000 6f 95 e7 3c 1f 6f 1c 3e 83 b6 b0 3d fb a3 e6 bd
       0.028269498 0.15276764 0.08628561 -0.112617455
000010 77 aa 79 3d 79 44 50 3d 68 95 e6 bd 59 cd 7b 3b
       0.060953584 0.05084655 -0.11258966 0.0038421957
000020 c2 f1 d6 3c 62 f3 be bd 12 8e e4 bc 2b 3b 71 bc
       0.026238326 -0.09323765 -0.027899776 -0.014723579
000030 a5 e5 11 3e a2 14 0e be df d6 f2 3d f5 c8 d5 bd
       0.14247759 -0.13875058 0.1185739 -0.1043872
000040 9f a3 7a 3d ca b3 e9 bd 3a b1 90 3d b8 1d 48 3d
       0.061191197 -0.11411245 0.07065053 0.048856467
000050 e4 e1 c9 3d cb 64 31 3d 84 2c c4 bd 5a b8 8a 3d
       0.09857538 0.043309014 -0.09578803 0.067734435
000060 26 8d 15 be e0 58 6e 3d d1 6a 9d bd 76 e0 6f 3b
       -0.14604625 0.058190227 -0.07686389 0.0036602295
000070 27 56 ac bc d6 75 0e 3e 4f 6d 1f be a0 5f 04 3e
       -0.021037174 0.13912138 -0.15569042 0.12927103
000080 80 09 ea bd c8 04 c7 bd 77 96 c1 3b 36 04 12 be
       -0.11427593 -0.09717709 0.0059078294 -0.14259419
000090 62 37 c2 bd 7b 71 a8 bd e1 03 02 be cc f2 d9 bd
       -0.0948322 -0.0822477 -0.12696792 -0.10642013
0000a0 1b 55 da 3d 0d bc 47 3d 74 e3 7c bd b9 56 95 bd
       0.10660764 0.048763324 -0.061740354 -0.07291932
0000b0 34 e1 7e bd a4 0f 63 bc d9 d3 81 3d e3 24 a2 3d
       -0.06222649 -0.0138587095 0.06339235 0.07917192
0000c0 cd 65 26 3d 8a a2 e0 bd b6 1d a9 bc 90 89 73 3d
       0.04062443 -0.10968502 -0.02064405 0.05945736
0000d0 52 9d c4 3c bb 69 fe bd fe ec e6 bd 0a 49 66 bd
       0.024000797 -0.1242251 -0.112756714 -0.056222
0000e0 4a f9 10 be d2 61 d3 3c 42 fe 0b be 32 ef 1c be
       -0.14157596 0.02580348 -0.1367121 -0.15325621
0000f0 5e f7 cd bd 18 71 f2 3d c5 66 39 bd 52 dd bc 3d
       -0.10056947 0.11837977 -0.045264024 0.09221901
000100 db a6 b5 3d 4e 75 67 3d 01 b8 6e bd f4 ea f4 bd
       0.08869716 0.056508355 -0.05828095 -0.11958876
000110 f2 d2 ac bd 6e 64 b7 bd 15 6c d1 3d 12 c4 1f 3e
       -0.08438672 -0.08954702 0.10225693 0.15602139
000120 5d 5b e0 3d 17 b6 23 3d 1b 12 c7 3d f8 28 97 3c
       0.10954926 0.039968576 0.0972025 0.018452153
000130 25 d1 08 3e c3 6f a9 3d 18 8d 10 be bf 19 1c be
       0.13361032 0.0827327 -0.14116323 -0.15244196
000140 6b a4 a5 bc 4b 2c 9f 3d 74 7f 0c 3e ba c1 a6 3d
       -0.020220002 0.0777212 0.13720495 0.08142419
000150 d0 e9 18 3c 6a ba 0f 3e 4b d1 18 3d 3e ad 03 3e
       0.009333089 0.14035955 0.037308972 0.12859055
000160 27 91 1e 3d 88 b9 13 be 88 62 92 bd 82 52 c8 3d
       0.038712647 -0.14426243 -0.071476996 0.09781362
000170 d7 e6 0c 3e 48 c6 be bd 86 9b 17 bd ed b1 11 3e
       0.13759933 -0.09315163 -0.037013553 0.1422803
000180 cc 49 0c 3d c2 fb 96 3b 48 a8 9c 3d d0 9a 4f 3d
       0.034250066 0.0046076486 0.076492846 0.05068475
000190 e6 9c d9 3c 82 9e 5f bd 97 2d d8 3d 04 6f d8 bd
       0.026564073 -0.054594524 0.105555706 -0.105680496
0001a0 36 76 16 3e 70 cc 1b 3e 41 ad 71 3c 08 75 11 3e
       0.14693531 0.15214705 0.01475078 0.142048
0001b0 fc 0d 11 bc 74 97 17 3e 06 a0 ce bd 66 ce a0 bd
       -0.008853432 0.14803869 -0.10089116 -0.078518674
0001c0 34 28 52 3d 88 99 ab 3c d2 be aa 3d 4f 76 2a bc
       0.051307872 0.020947233 0.08337177 -0.0104041835
0001d0 80 07 d0 bd 80 8a 3f 3c ed 93 28 bd f1 ef 47 bd
       -0.101576805 0.011690736 -0.041156698 -0.04881281
0001e0 72 e3 71 bc 87 30 76 3d dc a2 5c bd ac 76 c2 3d
       -0.0147637 0.060104873 -0.053866252 0.09495291
0001f0 b7 c9 be bd a3 05 62 3d 07 73 00 be 49 41 19 be
       -0.09315818 0.055181157 -0.1254388 -0.1496631
000200 b3 85 92 3c 7b f9 17 bd 5a 19 b2 3d cb 94 1a 3d
       0.017886018 -0.037103157 0.08696242 0.037739556
000210 85 e5 08 be bb f7 47 bc 24 af cc bd 40 34 d6 bd
       -0.13368805 -0.01220506 -0.09994343 -0.10459185
000220 71 af 9e 3d 6f 75 50 bd 93 0f 26 bd 0d 1c d7 bd
       0.077483065 -0.050893243 -0.040542196 -0.10503397
000230 25 82 ca 3d 01 a4 9c bd 2a a8 5e 3d 92 09 ed 3d
       0.09888104 -0.07648469 0.054359592 0.11574091
000240 72 01 e5 3b 8e ae d0 3d 3b f8 16 3e b2 34 b0 3d
       0.0069886977 0.10189544 0.1474313 0.08603801
000250 b4 a5 e9 3d a7 17 64 bc 71 2b ab 3d 3a b1 db 3d
       0.114085585 -0.013921655 0.08357895 0.10727163
000260 07 92 ca 3d dd fb ee 3c 83 c3 b1 bc 2b ec ac 3d
       0.09891134 0.029172832 -0.021699673 0.08443483
000270 3c 14 f5 bc 0b ad f3 bd bf ab 16 be 91 19 d5 3d
       -0.029916875 -0.1189824 -0.14713953 0.10405267
000280 b9 b5 88 3d 68 0f 4a 3d 00 7b df bd 0d 9c fc bd
       0.06675286 0.0493311 -0.10912132 -0.12334452
000290 c2 78 d7 3d 18 46 55 bd 5f 31 b8 bd 03 2f e3 bd
       0.105210796 -0.0520688 -0.08993792 -0.11092951
0002a0 4e 39 95 3d cf 0b be bd d5 48 09 be 86 c9 9d bd
       0.072863206 -0.09279596 -0.1340669 -0.07704453
0002b0 aa 22 a6 3d 78 17 96 3c ba a1 15 3e 44 3f b0 3c
       0.081120804 0.018321738 0.14612475 0.021514542
0002c0 0d 81 88 3d 40 97 81 3c c0 08 d3 3d fc 42 e3 3c
       0.066652395 0.015819192 0.10304403 0.027741902
0002d0 d3 bc 6b bd f4 7f 08 be 49 43 8d 3d 60 6f fc bc
       -0.057553124 -0.1333006 0.06897599 -0.030814826
0002e0 6d e4 ca bb 57 2c 0f be 7f d6 0b be be bf b3 bd
       -0.0061917813 -0.13981758 -0.13656043 -0.08776806
0002f0 0f 1a c9 bc eb 7c 05 3e 83 d4 01 3c 20 e6 63 bd
       -0.024548559 0.13035934 0.007924202 -0.055639386
000300 6d f6 f2 3c 5a 1d 8a bc 4b 50 a2 3d 6e 80 90 bd
       0.02965852 -0.016859699 0.07925471 -0.07055746
000310 92 d8 ab 3d 69 06 1d 3e e1 f7 ea 3d 85 ad d1 bd
       0.08390917 0.15334477 0.114730604 -0.10238174
000320 67 cf 16 3d 3e 28 19 bd 4c 8b f4 3d 07 37 bf 3c
       0.036818888 -0.037391894 0.11940631 0.023341669
000330 02 25 78 bd d1 69 1b be 1a 11 b8 3d 26 79 0b bc
       -0.06058217 -0.15177085 0.08987637 -0.008512771
000340 db eb f2 bd 9c 2f 67 3d 85 63 80 bd 12 71 01 3e
       -0.11861392 0.05644189 -0.06268982 0.12640789
000350 d0 a2 c0 3d 9f f9 e2 3d d3 c2 09 3e e7 1f 87 3c
       0.09406054 0.11082768 0.13453226 0.016494704
000360 f6 6a ad 3d 81 48 e0 bd 17 9a 5e bd b9 cc b8 3d
       0.08467667 -0.10951329 -0.05434617 0.09023423
000370 1a 29 0d 3e ad c3 cc bd 1f 26 dd 3c 9b b3 b9 bd
       0.1378521 -0.0999826 0.026995717 -0.0906746
000380 bf 30 1c be 94 7c 80 3c 9b b8 db bd 6d aa 74 3c
       -0.1525297 0.015684403 -0.1072857 0.014933211
000390 a0 ae 59 3c 37 d8 08 be 85 9a be 3d c6 64 f9 bb
       0.013286263 -0.1336373 0.09306816 -0.00761089
0003a0 3a 2f b1 3d d3 7f 96 bd 5d 77 5c 3d fa 47 1c be
       0.08651586 -0.07348599 0.05382477 -0.15261832
0003b0 c0 42 1b be bb ec d6 bd 3c db 72 bd a3 7e d1 3d
       -0.15162182 -0.104943715 -0.05929111 0.10229232
0003c0 6c 91 fc bd da 8a 01 3e 89 b7 1f be 4a e1 4d bc
       -0.123324245 0.12650624 -0.15597357 -0.01256592
0003d0 26 c5 6c bc a2 6f 6b 3d 14 9a da 3d f5 06 d8 bd
       -0.014451301 0.05747951 0.10673919 -0.10548202
0003e0 16 72 1b 3e 86 d9 21 3b 80 5f 07 3e 11 c0 06 be
       0.15180239 0.0024696304 0.13220024 -0.13159205
0003f0 55 bc 52 bd 03 44 0b bd a8 6a c7 bd 4c 7d dc bc
       -0.05144914 -0.034000408 -0.0973714 -0.026915215

value_net.0.bias f4 [256]
000000 f8 6c 0d be 31 c9 c2 bc dc 0f 13 3e ae fe ef 3c
       -0.138111 -0.023777576 0.14361519 0.029296245
000010 32 03 e9 3d 27 d2 89 3b cf 3f 01 3e d9 ae b1 3d
       0.113775626 0.0042059603 0.12621997 0.08675928
000020 15 53 a5 bd 9f ba 19 3e e8 dc 94 bd 3a f2 9d bd
       -0.08072487 0.15012597 -0.07268697 -0.07712217
000030 4e 5a 95 bc 96 30 1a 3e 8a b6 03 3c 27 51 cc bd
       -0.018231537 0.15057597 0.008039126 -0.09976416
000040 7e 14 09 3e 64 b1 15 be 68 26 f0 3d 7f 7c 82 3d
       0.13386723 -0.1461845 0.117260754 0.06371402
000050 52 1f 15 3e d4 38 ad bd ca 18 cd bd e6 64 fa bb
       0.14562729 -0.08458105 -0.10014494 -0.0076414226
000060 60 2d 02 bd d8 51 c7 bd 33 a5 f7 3d 41 7c ec bd
       -0.031781554 -0.09732407 0.12092056 -0.11547137
000070 98 c0 cf bd b5 da e3 bc 31 2a 87 bd 4a 0c 8f 3c
       -0.10144156 -0.027814249 -0.06599844 0.017461915
000080 30 14 04 bd 67 70 95 3c c7 ed df 3d a2 21 3a 3c
       -0.032245815 0.018242074 0.10934024 0.011360558
000090 d6 15 d1 bd 96 a3 91 bd 95 74 90 bc 15 05 1e 3e
       -0.10209243 -0.0711128 -0.017633716 0.15431626
0000a0 b9 84 58 bc 1f 8a 87 3d 57 67 09 3e b2 99 d5 3d
       -0.013215237 0.066181414 0.13418327 0.10429706
0000b0 33 6f 68 3d 08 36 c5 3d 29 de de bd 16 fa a6 bc
       0.056746673 0.09629446 -0.108822174 -0.020382922
0000c0 93 1e 82 bc 65 ee 1d 3e f0 45 0a 3e fe c3 73 bc
       -0.01588372 0.15422972 0.13503242 -0.014878271
0000d0 1b 64 86 3c 72 90 5e bd f7 d7 15 bd c4 82 fb 3d
       0.016405156 -0.054336973 -0.036582913 0.12280801
0000e0 2d 4f 0b bd 0a a0 d6 bd 50 8d 17 bb b6 7a 80 3d
       -0.034011055 -0.10479744 -0.0023125 0.06273405
0000f0 d0 07 82 3c 1a 83 1c 3d 95 69 c3 3c cf bd fa 3d
       0.015872866 0.038210966 0.023854056 0.12243234
000100 15 31 aa bc 14 a8 fb 3d 08 bb d5 bd 91 f1 19 3e
       -0.020775357 0.12287918 -0.10436064 0.15033557
000110 3e 93 fa 3c 01 22 03 be a3 83 0c be 5e 78 d3 3d
       0.030587789 -0.1280594 -0.1372209 0.103256926
000120 4d 34 c5 3d bb 0d 87 bd 10 5e 16 be eb 6b fe bd
       0.09629116 -0.06594416 -0.1468432 -0.124229275
000130 da 30 8b 3d dc 00 eb 3d e3 12 5c bd 42 60 d2 3d
       0.06796427 0.11474773 -0.05372895 0.10272266
000140 a0 fe 54 bd 52 a0 bd bd c5 d4 1c be fd fc 14 be
       -0.05200064 -0.09259094 -0.1531554 -0.14549632
000150 fd 0a 15 3e 25 ca 67 bd bc 19 b5 3d 46 b5 a6 bd
       0.14554973 -0.056589264 0.08842799 -0.08140044
000160 d7 58 3f 3d 37 98 3b bd cf 3e 80 bc 84 db c4 bc
       0.046715584 -0.04579946 -0.01565495 -0.024030454
000170 ce 5d 14 be 75 7a 38 3d 74 ed 4b 3d 81 8d 55 bd
       -0.14488909 0.04503866 0.049787 -0.0521369
000180 83 b2 06 3e 06 c0 75 bd 7c 48 c1 3d 42 b3 12 3e
       0.13154034 -0.05999758 0.094376534 0.14326194
000190 46 a3 4b 3c b1 25 17 3c 5c 7f 1a 3e 62 f0 ee bd
       0.012429064 0.009225295 0.15087646 -0.11666943
0001a0 cd 14 d5 3c 98 03 16 3e 5f 56 17 be fd 77 f6 3d
       0.026010895 0.14649808 -0.14779042 0.12034605
0001b0 26 3c ac 3c fb 32 a8 39 6b 53 ad bd 46 69 0d 3d
       0.021024775 0.0003208144 -0.08463176 0.034524225
0001c0 83 76 ba bd 1e 02 48 bc 98 62 fb 3d 6f fa f5 3c
       -0.091046356 -0.012207536 0.12274665 0.030026643
0001d0 c5 12 94 3d 82 60 a1 3d 18 b7 60 bd a4 49 0c be
       0.072301425 0.078797355 -0.05486211 -0.13699967
0001e0 b8 47 15 bc 62 fe d3 bc d0 90 a7 3d d9 11 19 be
       -0.009111337 -0.025878135 0.08181918 -0.14948215
0001f0 a2 f5 84 bd bc 72 0a be 91 31 98 3d af cc 1c be
       -0.06492163 -0.1352033 0.07431329 -0.15312456
000200 e1 01 12 be 00 dd 21 3d 0e 92 da bc 92 df 66 3c
       -0.14258529 0.039517403 -0.026680972 0.014091389
000210 d4 92 c5 3c 2f c2 0c 3e d1 70 9d bc f0 fa 97 bd
       0.024117865 0.1374595 -0.019218834 -0.074209094
000220 d0 0a 67 bd 93 06 e8 3d 93 ee ad 3d aa 6a 0b be
       -0.056406796 0.11329379 0.0849277 -0.13614908
000230 b2 dc b1 bd 91 40 f1 bd 78 c0 d4 bd 99 62 a2 3d
       -0.086846724 -0.11779893 -0.10388273 0.07928962
000240 95 4f 13 be c5 c4 0b be bf a9 97 bd c2 7b 93 3d
       -0.14385827 -0.1364928 -0.074054234 0.07201339
000250 80 7a ea bd 59 9f 7d bd 15 67 d2 ba 1f d1 25 3d
       -0.11449146 -0.061919544 -0.0016052449 0.040482637
000260 2d 0f a5 3d 74 4f 04 3d 34 c0 73 3d 1c 70 a6 bb
       0.08059535 0.032302335 0.05950947 -0.0050792824
000270 d9 5c b2 3d 48 8d 31 3c fb 55 12 3e e3 45 fb 3d
       0.087091155 0.010836907 0.14290611 0.12269189
000280 c3 23 e7 3d a6 df 25 3c 19 ec d4 bd 71 63 2e bc
       0.11286118 0.010124123 -0.103965946 -0.010643826
000290 d5 fc 02 3e c5 72 13 3e 14 f9 09 3e bf 39 4c bd
       0.1279176 0.1439925 0.13473922 -0.04985976
0002a0 0b 47 a6 bd fc 6b 14 3c f9 28 dc bd 99 0a 76 bc
       -0.08119019 0.009058949 -0.107500024 -0.015017175
0002b0 b9 80 1b 3e 41 fb 46 3d 16 6c 9b 3d 58 4f d7 3d
       0.15185823 0.04857946 0.07588975 0.105131805
0002c0 23 ef f7 3d b5 e7 a2 bc 02 7e 6c 3d d8 1f ab 3d
       0.121061586 -0.019885877 0.057737358 0.08355683
0002d0 61 c2 0c be 63 9c 6c 3c 8a 7a ea bd a4 fb 02 3d
       -0.13746025 0.014441582 -0.11449154 0.031978264
0002e0 fe 6e db bd 32 03 d5 bb d0 34 cd 3d 4a 8b 45 3d
       -0.107145295 -0.006500625 0.10019839 0.04822854
0002f0 30 bb a1 3d 2b 5d d6 3d e7 ad 92 bd 90 c2 66 3d
       0.07897031 0.10466989 -0.071620755 0.056337893
000300 43 85 a0 bd b3 f3 c1 3d 02 be 54 bc 8f fc bf bd
       -0.07837918 0.0947031 -0.0129847545 -0.093743436
000310 75 1c 5f bd 79 37 0c be c0 b6 6b bd ac c7 cf 3d
       -0.054470498 -0.13693036 -0.05754733 0.10145506
000320 17 14 f9 3d f5 67 82 bd 9e 58 61 bd 7c 41 39 bd
       0.12162035 -0.063674845 -0.055016153 -0.045228466
000330 8d 2e 15 be 40 50 02 be 4c 56 73 3d 46 e0 75 3b
       -0.14568539 -0.12725925 0.05940847 0.003751771
000340 c0 51 c1 3b 75 77 68 bd ae 7f 34 bc 5e 41 0c be
       0.005899638 -0.056754548 -0.011016769 -0.1369681
000350 e8 b0 09 be 0c 8f db bd 47 65 99 3d 78 0b ea bd
       -0.1344639 -0.107206434 0.0749002 -0.11427969
000360 24 6b 25 bb 06 a5 aa bd 4c 02 83 bd 08 cb 90 bd
       -0.0025240863 -0.08332257 -0.063969225 -0.07069975
000370 47 d5 4f 3b 15 2f 44 bd 57 79 c1 bc 72 89 0f be
       0.0031712817 -0.047896463 -0.02361743 -0.14017275
000380 a5 24 22 3c e0 8c 16 3d f0 09 74 3d b0 40 37 bd
       0.009896432 0.036755443 0.05957979 -0.044739425
000390 41 d4 03 3d e9 48 dc 3d 18 8e 1c 3d 29 45 03 3c
       0.032184843 0.10756094 0.03822145 0.008012095
0003a0 77 25 31 3d 38 b5 c2 3d c6 61 b9 bd 7b 70 01 3d
       0.04324862 0.09507221 -0.09051852 0.03160141
0003b0 0e ce 89 3d 6f f9 0e 3e 59 78 f6 3d c0 46 e4 3d
       0.06728755 0.13962339 0.12034673 0.11146307
0003c0 64 53 30 bd dc c7 b4 bd ff 16 d1 3d 8e ba 17 3e
       -0.043048277 -0.08827183 0.10209464 0.14817259
0003d0 fb ef 29 3d e4 30 ff 3c d6 ba a1 bd e9 2a 0d be
       0.04148863 0.031151243 -0.07896964 -0.137859
0003e0 38 37 1f be 1e 63 11 3d 2a 01 78 bc 67 5d 2d bd
       -0.15548408 0.035494916 -0.015136996 -0.042325404
0003f0 bb 05 b6 3d a1 02 f2 bd 11 c8 43 3d 77 74 0f be
       0.08887812 -0.11816908 0.04779822 -0.14009272

value_net.2.weight f4 [256, 256]
000000 e8 1d 7b bd c8 73 2b 3c 04 5b 8d bc f8 bc 0b 3c
       -0.061307818 0.010464616 -0.017255314 0.00852894
000010 b6 5b 71 bd a2 fe 78 bd ae 92 4f 3d 96 de 44 bd
       -0.058925353 -0.06078971 0.050676994 -0.048063837
000020 04 4c e4 bc 6c e2 1f 3d dc 7e f8 bc 22 66 19 bd
       -0.027868278 0.039034292 -0.030333929 -0.037450917
000030 00 df a6 ba 9e 7d 79 3d 16 de 18 3d 62 4f 3b 3d
       -0.0012731254 0.060910814 0.037321173 0.045730002
000040 58 e2 a5 3c 22 4a 79 3d 78 25 51 bd 40 94 c9 3b
       0.02024953 0.060861714 -0.051061124 0.006151706
000050 c8 3a f1 3c 10 19 5a bc 6c 84 ef 3c a0 e7 32 3c
       0.029446974 -0.013311639 0.029237948 0.0109194815
000060 80 2c 7f 3b 90 ce 24 bd 3c b3 63 3d 3c c0 b2 3c
       0.0038936436 -0.040236056 0.055590853 0.02182018
000070 06 b7 2f 3d c0 ac 47 3d 8a 56 6e 3d 82 e6 23 3d
       0.042899154 0.04874873 0.058188 0.04001475
000080 20 3c a8 bb e6 0b 69 3d d4 0d 42 bd 00 48 1b b8
       -0.0051341206 0.056896113 -0.04737647 -3.7021935e-05
000090 d6 a9 05 3d 70 57 26 bd 48 6d 53 bd e0 df 12 bc
       0.03263267 -0.04061073 -0.05161789 -0.008964509
0000a0 88 ad b7 3c 80 21 64 3d f4 8a fa 3c 6e 62 0f 3d
       0.022421613 0.05569601 0.030583836 0.03500598
0000b0 ee 35 72 bd 80 48 88 3b c0 c1 ba ba 60 88 1e 3c
       -0.059133463 0.0041590333 -0.0014248416 0.009676069
0000c0 b0 1f 5c bd 80 c3 75 3d 70 cb 1e 3c b4 c2 b9 bc
       -0.053741157 0.060000896 0.009692058 -0.02267585
0000d0 48 5d 21 3d 90 e5 e8 3b ae dc 17 3d 00 ce 79 b9
       0.0393956 0.007107444 0.03707569 -0.00023823231
0000e0 98 a6 ec bc 3c ed 1f 3d 68 bb 85 bc 3c eb 30 3d
       -0.028888032 0.039044604 -0.016324714 0.043193087
0000f0 28 81 67 3d 86 39 01 3d 20 eb 16 bc 52 80 21 bd
       0.056519657 0.031549 -0.009211332 -0.039429016
000100 f2 bc 27 3d 20 c1 b9 3b b0 09 a9 bc 32 c6 49 3d
       0.040951677 0.0056687742 -0.020634502 0.04926128
000110 1c d9 ed bc 70 31 f2 bb 88 a7 1a bd 58 59 1a 3d
       -0.02903419 -0.0073911473 -0.037757427 0.03768286
000120 3a 0e 4c 3d 70 51 59 3d 50 d6 1c bd e8 68 c1 3c
       0.049818255 0.05305618 -0.03829032 0.023609594
000130 56 8e 23 bd 00 2a f5 bc b6 fc 65 3d 10 39 40 3c
       -0.039930664 -0.029927254 0.056149207 0.011732355
000140 a8 70 ee bc ca 1f 1f bd 08 72 6a bd 30 d5 cd 3c
       -0.029106453 -0.038848676 -0.057237655 0.02512607
000150 90 02 a9 3c fe 7f 19 3d 80 d2 cc bc 88 c2 d7 3c
       0.020631105 0.03747558 -0.025002718 0.026337877
000160 2a 60 57 bd 3a 54 71 bd 8e f8 55 3d fe d9 1a bd
       -0.052581944 -0.058918215 0.052238993 -0.03780555
000170 48 ef 99 3c 6c 3f e8 3c a8 b8 08 bd 68 c9 e2 3c
       0.018790856 0.028350554 -0.033379227 0.027683929
000180 bc 15 39 bd a4 eb 52 3d e2 7a 78 3d 0c 9a fc 3c
       -0.045186743 0.051494256 0.060664065 0.030835174
000190 6c 94 38 3d c4 48 e7 bc 42 17 38 3d 52 6e 7f 3d
       0.04506342 -0.02823294 0.044944055 0.06236107
0001a0 98 ca 77 3d f0 d4 1e 3d 86 3f 42 bd c4 87 a3 3c
       0.060495943 0.03877729 -0.047423862 0.019962199
0001b0 b8 3a 1e 3c 80 65 5e 3d a0 96 68 bc 20 06 7d bc
       0.009657554 0.054296017 -0.014196068 -0.015443355
0001c0 e8 68 c5 bc a8 81 61 bc 90 7d 65 3d 98 c6 27 bc
       -0.024097875 -0.013763823 0.05602795 -0.0102402195
0001d0 64 8f be 3c 90 bc d3 bc 66 69 01 bd 40 1c 83 bb
       0.023261733 -0.02584675 -0.031594656 -0.0040011704
0001e0 20 9a 79 3b 88 f7 64 3c 76 d3 26 bd 3e ee 25 bd
       0.003808625 0.013975032 -0.04072901 -0.04051041
0001f0 a0 e7 ca bb b8 a3 76 3d ae 6c 29 bd a4 ad 18 bd
       -0.0061921626 0.060214728 -0.04136341 -0.03727497
000200 00 a4 8c 38 e0 30 50 bd 40 19 a0 3c c0 b9 6f bb
       6.7062676e-05 -0.05082786 0.01954329 -0.0036579221
000210 e4 bd e0 bc ac 0a 94 3c 40 66 62 bb 8c 62 07 3d
       -0.027434297 0.018071495 -0.003454581 0.033052966
000220 a4 dd 49 bd 90 3f 49 3c 80 ba c3 3a 1e 57 5b 3d
       -0.04928364 0.012283221 0.0014932901 0.05354988
000230 70 ec 5d 3c f0 67 03 bd 60 30 79 3c 40 7c 10 bb
       0.013545141 -0.032081544 0.015209287 -0.0022046715
000240 64 b6 60 3d 0a f6 2b bd b8 1c d0 bc fc 16 46 3d
       0.05486144 -0.041982688 -0.02540432 0.048361763
000250 94 c0 54 3d c4 81 aa bc 28 75 4e bd 68 91 55 bd
       0.05194147 -0.02081383 -0.050404698 -0.052140623
000260 5a 14 2b bd d8 15 69 bd 48 2f 17 bd 32 65 1c 3d
       -0.041767456 -0.056905597 -0.036910325 0.038182445
000270 7c 8a 3e 3d a8 d0 5a bc 60 10 c8 bc d8 a2 30 bc
       0.046518788 -0.013355412 -0.02442187 -0.0107810125
000280 ca 99 66 3d c0 52 79 3d e4 2c d6 3c e8 c6 e9 3c
       0.05629901 0.060869932 0.026144452 0.028537229
000290 70 b3 d1 bc c8 e4 1b bd 58 25 6e 3d 0c 4a 01 bd
       -0.025598258 -0.03805998 0.058141083 -0.031564757
0002a0 9a ac 66 bd 70 78 45 bd 50 bb e1 bc e0 45 f7 bc
       -0.05631695 -0.04821056 -0.027555138 -0.030184686
0002b0 14 df bb 3c 80 c9 86 bc 40 36 ee 3a bc b7 c0 3c
       0.02293352 -0.016453505 0.0018174127 0.023525111
0002c0 d0 0f b2 3c 7e 13 71 bd 38 4d c4 bc 70 62 dc bb
       0.021736056 -0.05885648 -0.023962602 -0.006725602
0002d0 b0 54 ce bc 30 ee a7 3b 3e 8d 19 3d 72 1e 31 bd
       -0.025186867 0.0051248297 0.037488215 -0.043241926
0002e0 68 5a 15 3d 1c ab e0 bc a0 ef 83 3b 00 c6 ce ba
       0.03646317 -0.027425341 0.0040263683 -0.0015775561
0002f0 3a a1 1b 3d 7a f9 63 bd ce 4b 13 3d 90 bd 1a bd
       0.037995555 -0.05565784 0.035960965 -0.037778437
000300 08 cf 0b 3c ea 51 39 3d 70 f4 76 3c 38 5d 33 3d
       0.008533247 0.045244135 0.015072927 0.043790072
000310 8c 83 c1 bc 4a 8b 6e bd ee 2c 22 3d 80 6a 22 3c
       -0.023622297 -0.058238305 0.03959363 0.009913087
000320 50 db 0e 3c e4 0d f0 bc 88 de 01 bc b4 20 02 bd
       0.00871928 -0.029303499 -0.007926591 -0.03176947
000330 4c 02 2c bd 78 b1 d9 3c 20 2c f9 3c b0 16 a7 3c
       -0.041994378 0.026573882 0.030416548 0.02039656
000340 66 58 7b 3d b8 ea 6a bc 08 af 05 bc 40 e5 de ba
       0.0613636 -0.014338188 -0.0081594065 -0.0017005578
000350 c0 59 a3 bc 20 b4 1b bd fe a2 6b 3d ec 5f 3f 3d
       -0.019940257 -0.038013577 0.05752849 0.046722338
000360 fc 38 da 3c 52 48 58 3d 28 dd a5 bc 54 0a f9 bc
       0.0266385 0.052803345 -0.020247057 -0.030400433
000370 e0 6f 7d bb d6 b5 1f bd 00 45 74 ba d8 a8 5c 3d
       -0.003867142 -0.03899177 -0.0009318143 0.05387196
000380 8e 9e 3f 3d 88 5b 14 bc 18 85 28 bd a0 c5 64 3c
       0.04678207 -0.009055026 -0.041142553 0.013963133
000390 3c 45 cf 3c f0 aa 81 bc 20 23 79 3d 60 71 64 3d
       0.025301568 -0.01582858 0.060824513 0.055772185
0003a0 ec 6a 40 bd 8a f8 05 bd e4 93 47 bd 90 95 4c bc
       -0.04697697 -0.03270773 -0.048725024 -0.01248683
0003b0 b8 d5 7d 3c b6 af 74 bd f6 98 32 bd 3c c4 b1 bc
       0.015492849 -0.059737884 -0.043602906 -0.021700017
0003c0 48 f0 5e 3d 00 f9 68 bb d8 69 56 bc 4a 17 40 3d
       0.05442837 -0.0035548806 -0.013086759 0.04689721
0003d0 e8 78 ba bc 5e b0 7f bd 00 78 34 b8 10 52 2c 3c
       -0.02276273 -0.062424056 -4.3027103e-05 0.010517612
0003e0 b8 88 53 3d b8 a5 09 3d ec 5f 9b bc 34 8e 9e bc
       0.051644057 0.033605307 -0.018966638 -0.019354917
0003f0 b2 98 2d bd 94 4b 9a bc 4c b9 e3 3c 72 2b 52 bd
       -0.04238195 -0.018834867 0.027798317 -0.051310964
