AM_RL/controller/model/pretraining_controller.pth (torch, 627426 bytes, 11 tensors)

policy_net.0.weight f4 [256, 41]
000000 c8 43 0c 3e 66 53 a4 bd 3a 5b 79 be ef 88 14 3e
       0.13697731 -0.080237195 -0.24351206 0.14505361
000010 f5 41 ea bd 7d 48 e8 bd 97 91 80 3d 89 af e6 bd
       -0.114383616 -0.11341951 0.06277769 -0.112639494
000020 ca fc db bd 4e b1 95 3d dd 00 f0 bd 54 3b 29 3d
       -0.10741575 0.07309209 -0.11718915 0.041316345
000030 33 5f 6b bd 47 f2 be 3d 26 af d4 3c 67 42 b6 3d
       -0.057463836 0.093235545 0.025962424 0.08899384
000040 cd d7 06 3e d8 ce ad 3d 38 80 e3 3d 35 2b e2 bc
       0.13168259 0.08486718 0.1110844 -0.027608493
000050 3c 68 22 bd eb 2a 0f bd 11 6c 8a bd 3a d3 9e bc
       -0.039650187 -0.03495304 -0.06758893 -0.01938783
000060 a8 b6 2f bd 3e 35 68 3c 53 39 9d bc 19 ed c0 3d
       -0.042898804 0.01417285 -0.019192373 0.09420223
000070 92 b2 08 3e 48 64 1a be 5b 1e 4d be b6 88 ac bd
       0.13349369 -0.15077317 -0.20031111 -0.08424513
000080 fa 11 05 3e bd e6 20 be a2 18 6e bc de 67 0c 3c
       0.12995139 -0.1571302 -0.01453224 0.008569686
000090 34 46 07 3d fa 9a 0e 3e ce 6c 09 bc e4 62 93 3d
       0.033025935 0.13926306 -0.008387757 0.07196596
0000a0 cd 91 1b 3e 6e 3e 9e 3b f8 e8 38 be f8 72 8c 3e
       0.15192337 0.0048292195 -0.1805762 0.27431464
0000b0 49 bf b5 3d cb 25 1b 3e c6 13 3e 3d d1 cd 2a bd
       0.088743754 0.15151136 0.046405576 -0.041700188
0000c0 48 2d a2 bd bd ff a1 3d b7 e4 d2 bd fb 41 1b 3c
       -0.07918793 0.07910106 -0.1029753 0.00947618
0000d0 67 a1 1f be ba d7 c4 bd 5e b9 cf bd 82 8d 41 bd
       -0.15588914 -0.09611459 -0.10142778 -0.047254093
0000e0 ad 05 ba 3d 4e 8a f7 3d 71 66 94 3d a3 f2 a1 bd
       0.09083114 0.120869264 0.07246102 -0.079076074
0000f0 34 ec 0a bd 77 92 db bc 46 10 13 3a 3f 74 4e 3d
       -0.033916667 -0.026803238 0.000561003 0.05040383
000100 ce c3 de bd dc 29 ff bd 8e 22 04 bc c6 ee 7c bd
       -0.108771905 -0.12459156 -0.008064879 -0.06175115
000110 c3 92 82 3d 6d 5b b9 bd 60 2a 92 bd 68 20 be 3d
       0.06375649 -0.09050641 -0.07136989 0.09283525
000120 10 78 c6 bd e4 f2 d7 3d 70 1e 91 bd 59 fe 55 bc
       -0.09690869 0.105443746 -0.070858836 -0.0130611295
000130 17 f2 0a be 12 f6 d4 3d 72 ba b2 bd 1c 05 9b bd
       -0.13568912 0.10398497 -0.08726968 -0.07569334
000140 5d 9c 75 bd 87 59 3d 3c 5f 60 fa 3d 43 70 51 3c
       -0.059963573 0.0115569895 0.122254126 0.012783113
000150 ae 22 2c 3e 3e 82 01 bd f8 17 f0 3d eb 4f ad 3d
       0.16810104 -0.03161835 0.11723322 0.08462509
000160 f5 2c 48 3d 53 da 6d 3e 4c 47 0d bd 1b 2a e6 bc
       0.048871 0.23227815 -0.034491822 -0.02809625
000170 05 b3 02 be 11 d9 1f bd a3 11 2a 3d e5 ff d7 bc
       -0.12763603 -0.03902537 0.041520726 -0.026367137
000180 64 9d b1 3c 3f 41 f6 bd 88 7a 97 3c 80 37 0f be
       0.021681495 -0.120241635 0.018491045 -0.13986015
000190 3a 0a dd bd 6e 08 b9 bd fc 68 56 3d 52 bd 79 be
       -0.10792966 -0.09034811 0.052346215 -0.24388626
0001a0 3b 89 00 3e d9 23 a4 bd c5 fe a8 3c 15 7a 34 3d
       0.1255235 -0.0801465 0.020629296 0.04406174
0001b0 05 21 8e bd a4 f4 96 3d 9e 25 ca bd 21 3e f7 3d
       -0.06939892 0.0737088 -0.09870456 0.12072397
0001c0 67 f1 5f 3d e7 79 99 bc 72 35 19 3d de 3e 94 3d
       0.05467358 -0.018734885 0.037404485 0.072385535
0001d0 db 00 a2 3d 97 c5 ea 3c fe cd 01 be 37 db ea 3d
       0.079103194 0.028658671 -0.12676236 0.11467593
0001e0 3e 15 01 be a0 a0 10 3d 08 ee 04 be e6 f0 93 bd
       -0.1260576 0.035309434 -0.12981427 -0.07223682
0001f0 e6 4d e0 bd c4 30 eb bd 3c d9 5d be 67 ee b6 3c
       -0.10952358 -0.11483911 -0.216649 0.022330476
000200 85 1f 4f bd 61 75 b3 3d a6 c3 ee bc 7e a6 ce bd
       -0.05056717 0.087626226 -0.029146027 -0.100903496
000210 d2 62 c2 bd 06 ee 86 bd df 82 69 bc ff ef 7b 3d
       -0.09491505 -0.06588368 -0.0142523935 0.061508175
000220 3d 9e 32 bd 24 5d e9 bd 7c f1 f8 3d 1b 43 de bd
       -0.04360794 -0.11394718 0.121554345 -0.10852643
000230 b7 42 dd bd 20 d9 4e bd 63 c7 96 bd 31 82 15 be
       -0.108037405 -0.050500035 -0.07362249 -0.14600445
000240 13 4c 1e 3e 23 04 f3 bd e9 3e 8f bd 29 2b 61 bc
       0.15458708 -0.118660234 -0.06994421 -0.0137432
000250 bf 95 22 bc ee 2c a8 3d b1 19 42 3d 82 fa b0 3d
       -0.009923398 0.08211695 0.047387782 0.086415306
000260 67 e7 f9 3c e5 f4 3d be c9 23 ee bd 41 05 aa bd
       0.030505849 -0.18550451 -0.11627919 -0.08301783
000270 d1 36 18 be 23 cc c1 bd 4a af 43 bd 87 b9 b9 bd
       -0.14864661 -0.09462764 -0.04777459 -0.0906859
000280 ee d1 f7 3d 48 10 c9 3c 5a 64 3b 3c cf 5d e2 bc
       0.12100588 0.024543896 0.0114375 -0.027632622
000290 9f 5c 32 3d 23 9e 02 3e 8c ca 84 be e7 40 65 3d
       0.04354536 0.12755637 -0.2593578 0.0559701
0002a0 18 20 c6 3d ec 86 c4 bd 4d 8c c4 3d 47 85 4c bc
       0.0967409 -0.09596047 0.09597073 -0.012482948
0002b0 4c 7b 2d 3e ed 31 a8 bd d4 1d 09 3e 51 70 ab 3d
       0.16941565 -0.082126476 0.13390285 0.08371032
0002c0 51 26 db bd ff be c7 bd 01 7b bb bc 2f 9b 14 3e
       -0.10700668 -0.097532265 -0.022885801 0.14512323
0002d0 a7 fd c5 3d 10 9c 9c bd 72 88 05 be 8d b1 c5 bd
       0.09667521 -0.07646954 -0.13040331 -0.09653006
0002e0 05 ba 09 bd a2 e4 03 3e 75 ec d2 bd 0c 62 91 3d
       -0.033624668 0.12880185 -0.10299007 0.07098779
0002f0 b0 bb f5 3d cb d2 6e bd 35 11 c0 bd c1 86 74 bd
       0.11998689 -0.058306497 -0.09378282 -0.059698824
000300 5a 62 50 bc 10 44 80 3d f0 8f 9a bd 02 eb 38 bd
       -0.012718761 0.06262982 -0.07546985 -0.045145996
000310 50 6b ec 3d f1 4d 3f bd 9a 4f ce 3d db 8b 57 bd
       0.11543906 -0.04670519 0.100737765 -0.05262361
000320 b5 38 7d bc 85 cd a5 3c 24 7d b3 3a b6 c0 ed bd
       -0.015455415 0.0202396 0.0013693911 -0.11609022
000330 46 b9 e0 3d 23 b9 0b be 95 b3 0f be 76 4b a2 3e
       0.10972838 -0.13644843 -0.14033349 0.31698197
000340 64 2a 32 be f4 7f e0 3d 41 a1 44 bc f7 c7 bc 3b
       -0.17398983 0.10961905 -0.012001337 0.0057611424
000350 0b 1f 69 3d e5 3d 9d 3d a8 cc b1 bc 41 50 63 3d
       0.05691437 0.07677821 -0.021704033 0.055496458
000360 da 7e 0f be db 3e c6 3d 22 fc 16 3e 0d bd 01 3e
       -0.14013234 0.096799575 0.14744619 0.12669773
000370 4f 00 12 be 04 91 37 bc 06 00 19 be ef 0c d9 bd
       -0.1425793 -0.011204008 -0.14941415 -0.1059817
000380 70 bf a4 3d 66 72 aa 3d 60 89 3c be ce be 0a 3e
       0.08044326 0.08322601 -0.1841178 0.13549349
000390 d0 cf 12 bc 5f e7 02 bd 84 fa 0b 3e 71 72 bd 3d
       -0.008960679 -0.031958934 0.13669783 0.092503436
0003a0 32 7a c6 bd 7b 52 23 bd 7e ab 91 bd 4a db 18 bd
       -0.09691276 -0.03987358 -0.07112788 -0.037318505
0003b0 23 7c ce bd 88 f2 b5 3d d4 36 87 bd 92 7f 98 bd
       -0.10082271 0.0888415 -0.066022545 -0.07446207
0003c0 0d f4 e4 bc e4 6f 68 bd 17 20 cb 3b 89 13 21 be
       -0.027948404 -0.056747332 0.0061988938 -0.15730108
0003d0 8a b4 81 3d 8d de 84 3d bd 48 ef bd 73 74 14 3e
       0.06333263 0.06487761 -0.116837956 0.14497547
0003e0 f3 0a 98 bd 45 42 f1 bd 36 ba fa 3d 39 95 f6 3d
       -0.074239634 -0.11780218 0.12242548 0.12040181
0003f0 42 e4 11 bd a0 eb a2 bd 46 79 fd bc 9f 06 18 bd
       -0.035618074 -0.07955098 -0.030941617 -0.03711569

policy_net.0.bias f4 [256]
000000 33 96 07 3e 27 8a 04 be 42 2c 15 3d 04 3f 16 3e
       0.1324089 -0.12943326 0.03641916 0.14672476
000010 79 20 11 be ed 14 ae bc 35 91 74 3d 4b e2 fe bd
       -0.14172544 -0.021250213 0.059708793 -0.12445506
000020 33 20 c7 3d c5 6b 18 3d 7c 32 6a 3c 30 7c 93 bd
       0.097229384 0.037212152 0.014294263 -0.07201421
000030 30 9b e3 3c a7 c8 91 3a c4 35 89 bc 87 e1 82 bd
       0.02778396 0.0011122421 -0.01674927 -0.06390672
000040 3e 58 07 be d5 82 03 3d 86 c2 18 3e 04 c0 53 3d
       -0.13217255 0.032107193 0.14917955 0.051696792
000050 a1 22 75 3d e1 4e b0 bd b2 65 eb 3b da 4d 93 bd
       0.059847478 -0.08608795 0.007183754 -0.071925834
000060 e4 e2 05 3e 6f 63 fb bd 88 e5 ac 3d ff 98 77 3c
       0.13074833 -0.12274825 0.08442217 0.015112161
000070 e5 df 03 be 0e aa e6 3d 0b 7f ef 3d 25 86 f3 3d
       -0.12878378 0.11262904 0.116941534 0.118908204
000080 46 bd 02 bd 8f 24 e9 3d 11 79 e8 bb 15 f1 c0 3d
       -0.031918786 0.11383926 -0.0070945104 0.09420983
000090 fe 9d 95 bd 3b fc 18 be 3f 33 5f bd 0c 21 0c 3e
       -0.07305525 -0.14939968 -0.05449223 0.13684481
0000a0 0d 8a 00 be 08 1d f0 3d cb 60 63 3d e4 a7 cc 3b
       -0.12552662 0.11724287 0.05551223 0.0062456
0000b0 7a cb ba 3d 16 82 89 bd a9 f3 d5 bd 14 65 aa bc
       0.09120841 -0.06714265 -0.10446865 -0.02080015
0000c0 f4 d9 c5 3c 00 72 bd 3d 15 4b 13 3e 92 db 93 bd
       0.02415178 0.092502594 0.1438411 -0.07219614
0000d0 ef 04 a1 bd cc aa c3 bd 03 7a 11 3e 29 e4 f7 bd
       -0.07862269 -0.09554061 0.142067 -0.12104065
0000e0 52 b2 c7 3d b5 08 3d bd ab 5e bb bd 01 28 04 3e
       0.09750809 -0.04615088 -0.09148916 0.12905885
0000f0 33 e3 11 be 8f b9 14 3e 76 96 bd 3d 86 25 f7 3d
       -0.14246826 0.1452391 0.09257214 0.12067704
000100 0a 6e 8d bd 14 4e b4 bd a4 0b c4 3d 15 34 46 3b
       -0.06905754 -0.08803955 0.09572533 0.0030243446
000110 eb 8e 11 3e d8 60 89 3d d9 94 f1 bd d1 53 14 be
       0.14214675 0.067079246 -0.117959686 -0.14485098
000120 f4 40 84 3d b2 dc 19 bd 60 9f ce 3d 8c 68 81 bd
       0.06457701 -0.037563987 0.10088992 -0.06318769
000130 9d 1f 78 bd fc 1b f4 3d 7c d2 11 bd a7 e8 49 3d
       -0.060577024 0.119194 -0.035601124 0.04929414
000140 14 b0 00 3e 22 7b da bd bf e8 78 3d 2c 58 0c 3e
       0.12567168 -0.10668017 0.06076884 0.1370551
000150 85 b4 3e bd cf 73 1b bc 14 b8 85 bd 67 20 65 3d
       -0.046558876 -0.00948806 -0.06529251 0.055939104
000160 e3 23 1d be f4 01 e0 bd fe 97 7f 3b f1 2a 15 be
       -0.15345721 -0.109378725 0.0039000507 -0.14567162
000170 58 9c dd 3d 75 93 cb 3d 92 cb 8f bd da c4 38 bc
       0.10820836 0.099402346 -0.0702125 -0.011277402
000180 34 5a 09 be 38 f5 10 be a6 21 af 3d be 9f 0d be
       -0.13413316 -0.14156044 0.0855134 -0.13830468
000190 a7 e7 c2 bd cb f4 08 be 17 47 4f 3d 26 9c 0a be
       -0.095168404 -0.13374631 0.050604906 -0.13536128
0001a0 0e 27 16 be f6 69 02 bc df ea 20 3d 4d f8 ab 3d
       -0.14663336 -0.007959833 0.03928649 0.08396969
0001b0 6e e8 d3 3d 00 f5 83 bd 28 f1 62 bd 71 23 be 3d
       0.10347067 -0.064432144 -0.055405766 0.09284104
0001c0 3a 1d 9b 3d 88 e2 8a bd 4a 4f fc 3d 8c b5 0e be
       0.07573934 -0.06781489 0.12319811 -0.13936442
0001d0 de 66 98 3d 4e 10 27 bd 46 a7 ea bc 26 f6 c9 bc
       0.07441495 -0.040787034 -0.028644215 -0.024653506
0001e0 46 80 60 3d 4d d9 0a be b1 b8 05 bd 5f 76 80 bc
       0.05480983 -0.13559456 -0.03264684 -0.015681444
0001f0 d9 95 cc bd de 81 ea bc 42 75 cc 3d b6 53 0a 3d
       -0.09989519 -0.028626379 0.09983303 0.03377124
000200 8f b9 56 3d af 8c f9 bb ae ca 6f bd 34 d0 f1 bb
       0.052423056 -0.0076156477 -0.0585429 -0.007379556
000210 5e 33 22 3d dd 82 0b bd c2 d2 ce 3d 5a 8a 2d bd
       0.03959977 -0.034060348 0.100987926 -0.04236827
000220 ea 42 ad bd ab 78 aa bc de f2 15 3e f5 42 1d be
       -0.084600285 -0.020809492 0.14643428 -0.15357573
000230 67 7b 0d bd f3 7e e0 3d 64 8c 19 be 76 63 ad 3d
       -0.034541514 0.10961714 -0.14994961 0.08466236
000240 31 f3 ed bd e4 a4 e7 3d ab 55 9e bd b6 8f a5 bd
       -0.11618651 0.11310747 -0.077311836 -0.08084051
000250 8c ad 48 bd 96 d5 ac 3d 9a 2a 0c 3e cc dc f6 3d
       -0.048993632 0.08439176 0.13688126 0.120538324
000260 04 aa ba bd fb 8e 37 3d f3 75 0f 3e 7e 96 ba bd
       -0.09114459 0.04481409 0.14009838 -0.09110735
000270 7f 7f 13 bd dd fb 82 3d d9 ed 0b 3c 93 c4 8d 3b
       -0.03601026 0.06395695 0.008540594 0.004326412
000280 4a 9c 71 bc f5 0b f2 3d 99 c2 ca bd 0a d2 c8 bd
       -0.014746735 0.11818687 -0.09900398 -0.09805687
000290 77 01 02 bd 33 ab 9a 3d 38 5c 3b bc 73 9a 00 bd
       -0.03173968 0.07552185 -0.011435561 -0.031397294
0002a0 92 61 e0 3d 67 b6 4f 3d ea 89 e5 3d f3 65 11 3e
       0.1095611 0.05071106 0.11207946 0.14199047
0002b0 22 f5 12 3e 40 82 59 bc 3d 00 f9 3c c6 aa a4 bd
       0.14351323 -0.013275683 0.030395621 -0.08040385
0002c0 fd df e1 bd 76 52 b3 bd 58 44 0d 3e ec 4b bd bd
       -0.110290505 -0.087559626 0.13795602 -0.092429966
0002d0 3f a0 31 bd 5f 07 8c 3d ec 80 ef bd 9b e9 06 be
       -0.043365713 0.068373434 -0.11694512 -0.13175051
0002e0 63 c6 d2 3c 6a 54 e7 bc d1 6d f4 bd 28 d1 93 3d
       0.025729364 -0.028238494 -0.11935008 0.07217628
0002f0 82 bb 06 3e 1c 44 cb 3c ba a6 0f 3e 7c 0c d9 3d
       0.13157466 0.02481275 0.14028445 0.10598084
000300 1c 08 12 3d b7 42 93 bd de 26 cc bc 87 9f c9 3b
       0.035652265 -0.07190459 -0.024920877 0.0061530503
000310 20 96 36 bb c4 ad 18 3e ca 74 be 3d ee 16 19 3e
       -0.0027860478 0.14910036 0.092996195 0.14950153
000320 ff 73 a5 3d 16 cd b7 3d a6 1b d1 bd f1 28 d3 bd
       0.08078765 0.08974664 -0.10210352 -0.10310543
000330 fc 45 13 3e aa 07 a2 3c 89 fa 3c b9 21 47 02 3c
       0.14382166 0.019779045 -0.00018022409 0.007951529
000340 0b 49 2b 3d f0 7d 13 be c3 d1 63 3d 0a b2 8a bd
       0.041817706 -0.1440351 0.055619966 -0.067722395
000350 60 61 0b 3e 86 93 c3 3d 53 4e 99 bd fb db a7 3d
       0.13611364 0.09549622 -0.07485642 0.08196255
000360 8a f2 55 bd 59 b0 f6 3d 73 0a 8c bd 34 54 82 3d
       -0.052233256 0.120453544 -0.068379305 0.06363717
000370 9a 48 81 3d 22 d8 e5 bd 35 ec aa 3d bd aa 01 3e
       0.06312676 -0.11222865 0.08345834 0.12662788
000380 30 c3 08 3e 45 ac ec bd 6b 75 06 be 47 bd 0d be
       0.13355708 -0.11556295 -0.13130729 -0.13841735
000390 25 1a 9b 3d a7 46 d3 bd e2 7d 7b ba 99 2f a2 ba
       0.07573346 -0.1031621 -0.0009593648 -0.0012373804
0003a0 07 9f 04 3d 06 2f 25 bd 53 84 b8 bb 19 af bd bd
       0.032378223 -0.04032805 -0.0056310087 -0.09261913
0003b0 89 8a 3f 3d 7d a7 5b bb 62 92 cc bd b3 c3 92 3d
       0.046762977 -0.003351658 -0.09988858 0.07166233
0003c0 eb b6 9a 3d 53 38 d6 3d 22 bb 70 bd 53 a5 e5 bd
       0.0755442 0.10459962 -0.058772214 -0.11213174
0003d0 e1 fe a0 3d cf 18 0a be f1 c2 8b 3d 37 ee e3 bd
       0.07861114 -0.13486026 0.068242915 -0.1112942
0003e0 c2 4c db bd 16 d7 96 3c 0a ae e4 bd 5f 59 2e 3d
       -0.10708 0.018413108 -0.11166008 0.0425657
0003f0 44 cc 10 3e e6 a7 1b 3d 9a ee b0 3d c5 3f 08 3d
       0.14140421 0.038001917 0.0863926 0.03326394

policy_net.2.weight f4 [256, 256]
000000 76 4b 3a 3d 7b 60 01 bd cf 27 41 bc c3 bf 3b 3d
       0.04548212 -0.03158615 -0.011789276 0.045837175
000010 76 3d bd bc fc 8b 29 bd dd 7f 69 3d db 00 3b 3b
       -0.023100596 -0.041393265 0.057006706 0.0028534445
000020 5d e7 31 bd b2 c3 20 bd 31 ee da 3c 96 86 0d 3d
       -0.043433536 -0.03924913 0.026724907 0.03455218
000030 35 93 5d bd c9 c1 ac bc 6d 49 4b bd be fb 6a bc
       -0.054095466 -0.021088498 -0.04963057 -0.014342247
000040 3c d1 9b 3c b9 25 9a bd b2 b2 31 bd 6b fc 6c bd
       0.01902067 -0.07526726 -0.043383308 -0.057857912
000050 81 8f 20 bd b0 3d 97 3d 57 42 15 3d 17 98 49 bd
       -0.039199356 0.07384813 0.03644022 -0.04921731
000060 2f e6 4e 3d c8 15 d1 bb 38 67 47 3d 5b e1 a5 3b
       0.05051249 -0.0063807704 0.04868242 0.005062265
000070 74 ab a9 3c 36 34 3c bd 90 63 f9 ba 61 00 66 3c
       0.020711638 -0.04594823 -0.0019026864 0.014038176
000080 91 6f 76 bd 7b b5 59 3c fc 80 a5 bd 8b b0 25 3d
       -0.06016499 0.013287897 -0.080812424 0.040451568
000090 6a fa b6 bb 39 2e 3f bd 5b 99 31 3d 15 94 e6 3c
       -0.005584051 -0.04667494 0.04335914 0.028146783
0000a0 ab 99 36 bd 86 02 c4 3c 5b 42 14 bb 43 a7 84 bd
       -0.044580143 0.023926985 -0.0022622559 -0.06477215
0000b0 d0 73 75 bd 5f 2b c3 3c 65 c0 d3 ba 95 e2 59 3d
       -0.0599249 0.023824392 -0.001615536 0.0531946
0000c0 9c 8d bb 3c 14 97 0b 3d 0e 0c ba 3c 54 05 d0 3c
       0.022894673 0.034079626 0.022710826 0.025393166
0000d0 95 76 6d 3d d7 45 1e 3d 29 01 bc 3c 30 37 4e bd
       0.057974417 0.038640823 0.022949772 -0.0503456
0000e0 9f 39 8d bd 9b f1 05 bd 59 2a 08 3d bf d8 77 bd
       -0.06895756 -0.032701116 0.03324351 -0.06050944
0000f0 2c 2b 18 bd fa 08 2b bd 23 8b 57 bd 97 87 df 3c
       -0.037150547 -0.041756608 -0.052622925 0.027286334
000100 45 0f 4e bc 7f 5a b5 3c ce 92 c1 3b 8a 6e a4 3c
       -0.012576883 0.022137878 0.005907393 0.02007224
000110 be 5f 60 3c c9 a0 5b bd 5a 05 9d 3c 48 05 c2 bc
       0.013694702 -0.053620134 0.01916759 -0.023684159
000120 e1 a5 3f bd 1e 2d b1 3c 43 6b 3a 3d f4 91 84 3c
       -0.046789054 0.021627959 0.04551245 0.016182877
000130 48 ff 04 3b a4 43 1f 3c af 24 92 bc 96 c2 59 bc
       0.002029376 0.009720717 -0.017839758 -0.013291022
000140 0a 3f 70 bd cf 85 12 bd 14 60 60 3c e4 c8 9a 3d
       -0.05865387 -0.03577214 0.013694782 0.07557848
000150 64 b0 2b bd 31 e4 57 3c 0c 25 94 bc 62 43 83 3d
       -0.041916266 0.013176964 -0.018084072 0.064093366
000160 7f 08 b8 bc ef cd 92 3b 78 5c 0d bd 00 5f 3d bd
       -0.022464989 0.0044801156 -0.034512013 -0.046233177
000170 ad 71 84 bd db 81 a4 3c 34 d5 e2 ba 02 92 be bc
       -0.064669944 0.020081451 -0.0017305971 -0.023262981
000180 09 1f 24 bd ad 27 43 3d 8f 80 78 3d f7 76 5e 3d
       -0.04006866 0.04764526 0.060669478 0.054312672
000190 7e 7a 05 3c ad cd 99 3d ca b9 41 bd 2b 0a 51 3d
       0.00814688 0.07509933 -0.047296323 0.051035088
0001a0 3b 58 5e 3c 56 9a 59 bd e2 5d 89 3c f9 41 4f bc
       0.0135708405 -0.0531257 0.0167684 -0.012650006
0001b0 c4 dd 39 bd 7d 04 f1 3b fd 3c 2b 3d c4 39 cd 3b
       -0.045377508 0.0073552714 0.04180621 0.0062629897
0001c0 03 81 48 bd e6 61 a1 3c d1 5e 1f bd be b2 06 bd
       -0.04895116 0.019700002 -0.038908783 -0.032885306
0001d0 fc 34 42 bd 31 0c 74 3c a2 53 84 3d 5e cf 8c 3d
       -0.04741381 0.014895485 0.06461264 0.0687549
0001e0 ce a8 88 bb 05 86 0c 3d 9a 13 ac 3c 14 0b a3 3c
       -0.0041705137 0.0343075 0.02100544 0.019902743
0001f0 08 ec 13 3d 1e fc 63 3b 93 a3 22 3d 80 fc d9 3b
       0.03611377 0.0034787725 0.039706778 0.006652415
000200 d0 70 78 bd c7 f4 52 bd 5f e9 89 bc f2 be 3a 3d
       -0.06065446 -0.05150297 -0.016834913 0.045592256
000210 a8 a0 4b 3b 1a 95 87 3d b5 be 82 bc de d2 53 bd
       0.00310711 0.06620236 -0.015960077 -0.05171477
000220 41 2a 55 3d 5e 9e 31 bd 1a 9e ba 3c 5a 83 7d 3c
       0.05204225 -0.04336392 0.022780467 0.015473211
000230 a7 e6 23 3d 9b 9c 50 bc 73 ab f9 3c bd 1d d3 3b
       0.04001489 -0.01273265 0.030477261 0.006442754
000240 26 79 30 3d bc ed 7c 3c 3b 88 06 3d b9 f0 9d bc
       0.043084286 0.01543754 0.032844763 -0.019279825
000250 ba cd 81 bd 2f 31 30 bd 8d 22 a9 bc 79 1d a8 3c
       -0.06338067 -0.043015655 -0.020646358 0.020521866
000260 bf 6a b3 bb 5e fe 9b 3c df 58 71 3c 1d bb 5b 3d
       -0.0054753716 0.01904219 0.014730661 0.053645242
000270 3f 06 58 3d 71 5a 2f bd 6b a9 7f 3d f2 96 44 3d
       0.05274033 -0.04281086 0.06241743 0.047995515
000280 d7 4d 43 3d c2 aa 21 3d 75 13 94 bc 13 01 1a 3c
       0.047681656 0.039469488 -0.018075684 0.00939967
000290 45 c8 55 bc cd e8 b1 38 8d c8 45 3d b9 3c 8b bc
       -0.013048236 8.48338e-05 0.048286963 -0.016996728
0002a0 1c 7c 31 3d c3 4e ae bd db 2b 9d 3c 37 95 f1 3c
       0.04333125 -0.08511116 0.019185951 0.029490096
0002b0 82 d3 2f 3d 7d b2 3e 3b 36 c5 2f 3d e7 04 2d 3d
       0.04292632 0.0029098087 0.042912684 0.042241003
0002c0 a9 6c 50 bd 6c b3 40 bd 19 74 a1 bb 68 86 46 3c
       -0.050884876 -0.04704611 -0.00492717 0.012117006
0002d0 c4 9f 16 3d a5 59 d8 3c 9c fb 0c 3d f5 b3 78 3c
       0.036773458 0.026409933 0.03441964 0.015179624
0002e0 ff da 82 bb a0 b9 0c 3d f1 ff 2c 3d f3 74 b7 bd
       -0.0039933915 0.034356713 0.042236272 -0.08957853
0002f0 97 48 86 bd ab 6e 8b 3c 8d d3 3e bd 35 42 08 3d
       -0.06556814 0.017020544 -0.04658847 0.033266265
000300 bf 86 33 3d 2d 9a ac bc 9b f1 4c bd 46 02 41 bd
       0.043829676 -0.02106961 -0.0500351 -0.04712131
000310 01 25 26 3c 3c dc 88 bc 89 65 a5 bb 29 f4 4d bd
       0.010140658 -0.016706578 -0.0050475043 -0.050281677
000320 db 36 b0 bb 73 6a d2 b8 ff 15 72 3c 77 ac d9 3c
       -0.005377633 -0.00010033408 0.014775752 0.026571495
000330 ad 65 0d bd 95 b0 a8 3c 2f 2d 0f bc 16 56 20 3b
       -0.034520794 0.020592013 -0.0087388 0.0024465374
000340 e4 9c 85 bd 26 43 12 3c 06 17 01 3d 3b f7 06 bd
       -0.06524065 0.008927142 0.031516097 -0.03295062
000350 4b 4b 2d 3d 82 52 fc bc 51 79 4c 3d 58 40 39 bd
       0.042308133 -0.030801062 0.049920384 -0.04522738
000360 c2 27 12 bd 90 b9 32 bc f5 ef 1b 3d c7 4d 22 bb
       -0.035682447 -0.010908499 0.038070638 -0.0024765597
000370 00 d7 dd bb 06 d6 1a bc ce 47 4b bd db 00 5d bc
       -0.0067700148 -0.009450441 -0.049629025 -0.0134889735
000380 1e 26 0f bd 18 58 f4 bc 1a 3a f6 bc 4c cf ff 3b
       -0.03494846 -0.029827163 -0.030057002 0.007806694
000390 c4 50 42 bd 46 6b 05 3b 95 07 15 3d 8c d1 91 bd
       -0.047440305 0.002035813 0.036384184 -0.07120046
0003a0 5e d9 93 bb 3f c2 65 bd 09 08 3f 3c 96 4b b5 bc
       -0.004511996 -0.05609345 0.011659631 -0.022130769
0003b0 b2 1e b3 bb 13 44 3a 3d bc 0a 85 3b 3e 6d 50 bd
       -0.0054663057 0.045475077 0.0040601175 -0.05088543
0003c0 06 c2 0d bd 26 cc 86 bd cf 44 37 3c 74 3b 21 3d
       -0.034608863 -0.06581907 0.011185839 0.03936334
0003d0 f1 cc 58 3d cd 3a 15 3a a7 2d 40 bd 79 36 83 3d
       0.052929822 0.0005692661 -0.046918537 0.06406874
0003e0 9a 49 8c 3d 56 8e 73 bc 6b d3 62 bd a3 af 4b 3d
       0.06849976 -0.0148654785 -0.055377405 0.049728047
0003f0 3c f6 02 3c 3f 0e 6e 3d b7 fd 1e bd 28 61 82 3d
       0.007993277 0.058119055 -0.03881618 0.06366187

policy_net.2.bias f4 [256]
000000 80 35 2d bd fc 29 bf 3c 71 46 b2 3c 9f 4b 64 3d
       -0.04228735 0.02333545 0.021762105 0.05573618
000010 60 a1 ef bc 02 a6 3c 3a e0 b7 35 bd 49 2c 99 bc
       -0.029251754 0.0007196368 -0.04436481 -0.018697875
000020 1b 98 82 3d fd bf fe bc 81 a2 0e 3d b8 23 74 bd
       0.06376668 -0.031097407 0.034822945 -0.059604377
000030 a6 46 5c 3c 8c 76 01 bd d6 09 10 bd cd 21 0d bd
       0.013444578 -0.031607196 -0.03516563 -0.034456063
000040 6a 8d 2f bd 34 0d 57 bd 30 d1 c2 3b 23 d4 2e bd
       -0.042859472 -0.052502826 0.0059453472 -0.042682778
000050 73 37 59 3b d1 2c ef bc a1 38 d0 3b 60 f3 e1 3b
       0.0033144623 -0.029196175 0.006354407 0.0068954676
000060 57 67 12 bd 63 d0 20 3d 05 dc c9 3c 27 4f 6f 3d
       -0.035743084 0.039261233 0.024641046 0.058425095
000070 e9 ad 90 bc 73 fc 6d bd c3 9d 53 bd f9 ee 22 3d
       -0.017661052 -0.058102082 -0.051664125 0.039778683
000080 74 60 bc bb 15 af f3 bc 45 df 84 bd 5c c3 17 3d
       -0.005748803 -0.029746572 -0.06487898 0.037051544
000090 a2 26 d7 3c 6a 53 f1 bc f6 9a f6 3b 9d b8 02 3d
       0.026263539 -0.02945872 0.007525797 0.031914342
0000a0 5b 56 4a 3d d2 b0 55 bc 6e 25 f9 3c d3 44 01 bd
       0.04939876 -0.0130426455 0.030413356 -0.031559777
0000b0 cd b3 35 3c 8a 09 4a bd fa f8 20 bd 4a 16 37 ba
       0.011090231 -0.049325503 -0.039299943 -0.00069842173
0000c0 f1 3a e0 bc ae de 22 bc 91 20 2a bb b7 46 4c bd
       -0.027371855 -0.009940786 -0.0025959352 -0.049872126
0000d0 af 76 e9 3c ba 3d 5c 3b dc ba 61 bb e0 09 be ba
       0.028498976 0.0033606128 -0.0034443652 -0.0014498793
0000e0 89 53 2f bd c3 c5 ad bc fe 27 15 3d 56 1d 43 3d
       -0.042804275 -0.021212464 0.036415093 0.0476354
0000f0 22 54 70 bc 84 0b 31 bd f1 7e 28 3d 64 e9 23 bc
       -0.014668496 -0.043223873 0.041136686 -0.010004375
000100 28 a8 19 3d c7 85 60 3c a8 af e8 bc 04 ae 1e bb
       0.037513882 0.01370377 -0.028404072 -0.0024212608
000110 ee 42 a4 bc a4 62 fb 3c f3 8b 19 3d 04 72 27 3d
       -0.020051446 0.030686684 0.03748698 0.04088022
000120 6e 94 1d bd 97 ae 6b 3d 60 20 31 bd c1 6a 3c bd
       -0.03847163 0.05753955 -0.043243766 -0.046000246
000130 5c 8e 33 bc a1 2d 6e 3d e2 8f 21 3d f5 7a 74 3d
       -0.010959234 0.058148984 0.039443858 0.059687573
000140 c1 53 00 3d ee 3e b7 b9 25 fe 2a 3d 14 29 03 bc
       0.031329874 -0.00034951366 0.041746277 -0.008005399
000150 5b 53 59 3d b5 c2 80 3d cf ab 9c bc a8 9d 20 bd
       0.05305801 0.062871374 -0.019124893 -0.039212853
000160 78 bd 26 bd 4c 7a 80 3d 45 c9 6b bc 22 0d 3c 3d
       -0.040708035 0.06273326 -0.014391248 0.045910962
000170 18 e6 37 bd 25 d2 46 3d 98 5a b3 3c c6 de 0e 3d
       -0.04489717 0.048540253 0.021893784 0.034880422
000180 4e 40 75 3d fc 66 a8 bc 52 56 50 3a 1c 73 1a bd
       0.05987578 -0.02055692 0.0007947433 -0.037707433
000190 b8 eb e4 bc a0 a6 33 3d 2b 0d 89 bb fe cd 1f 3d
       -0.02794443 0.043860078 -0.004182478 0.03901481
0001a0 bb 89 6d bb 70 32 41 bd 07 aa 25 bd bf 3c 7e b9
       -0.0036245424 -0.04716724 -0.040445354 -0.00024245957
0001b0 e5 51 1d bd c4 45 19 3d cb 16 bb bc 8f b5 3c 3c
       -0.03840818 0.03742005 -0.022838017 0.011517896
0001c0 50 f6 8c bc 24 e3 e3 3c d6 ef 94 bb a3 d0 3c bd
       -0.017207295 0.02781827 -0.0045451922 -0.04609741
0001d0 9b 81 41 3d 9e ed ff 3c eb eb 6a bc cd 52 00 bd
       0.047242742 0.031241234 -0.014338474 -0.031328965
0001e0 e2 da 2b 3d e6 f1 35 3c 0d 51 0d bd ac b8 6f bc
       0.04195679 0.011105036 -0.034501124 -0.014631432
0001f0 0f fd 4e bd aa ee 40 bc aa 76 4a 3d c8 9f a7 bc
       -0.050534304 -0.011775652 0.049429573 -0.020461932
000200 b8 17 29 3d ab 34 39 bd 88 fb a6 bc bc 11 d9 3c
       0.041282386 -0.045216244 -0.020383611 0.026497714
000210 c6 3b 3b 3d 1b 14 7d 3c ad 32 9c 3b 64 7b c9 3c
       0.0457113 0.015446688 0.004766783 0.02459497
000220 92 39 b1 bc 01 24 ab bc fe 2a 80 bc 94 3a 97 bc
       -0.021633897 -0.020891191 -0.0156455 -0.01846055
000230 9d 4e 22 3d c5 8b 90 3b c6 6e 29 3d be 80 74 bd
       0.039625753 0.004411193 0.041365407 -0.05969309
000240 2b d7 d2 3b 09 fa b0 bc dd eb 41 3d af 34 19 bd
       0.0064343414 -0.021603601 0.047344077 -0.03740376
000250 7f 3e 80 bc 84 fb 31 3d 17 c8 45 ba 3e 2c 4e bd
       -0.0156548 0.043452755 -0.00075447693 -0.05033516
000260 42 2c 3e bd ae d6 6f 3d 41 b8 58 bd c2 8b bc 3c
       -0.046428926 0.058554344 -0.052910093 0.02301586
000270 1b 29 4c 3d 79 fc 26 bd e5 7f ea bc b5 b6 32 bc
       0.04984389 -0.04076812 -0.028625438 -0.010907819
000280 8e 07 63 3d 3c 5e 73 3d ca 31 2f 3d 4e 45 69 bd
       0.055427127 0.05941604 0.042772092 -0.05695086
000290 cf dc 6c 3b 55 d8 2c bc 82 1c 5d bc 77 12 d4 bc
       0.0036142354 -0.010549624 -0.013495566 -0.025887711
0002a0 91 89 41 3d 3d db 83 3d 5c 2c 21 bd 1c 92 4c 3d
       0.047250334 0.06438301 -0.039348945 0.04994403
0002b0 87 68 1a 3d f9 81 e4 bc 59 2d a2 3c 5b 13 85 3d
       0.03769734 -0.027894007 0.019797014 0.064978324
0002c0 13 6e 48 3c f3 f3 44 3a b0 1e 00 bd 6f 3d 4d bd
       0.012233275 0.0007513158 -0.031279266 -0.050107416
0002d0 3a 1d 36 bd 18 99 32 bd a7 01 71 3d 9e d4 84 bd
       -0.044461466 -0.043603033 0.058839466 -0.06485866
0002e0 e1 77 1f 3c 04 50 25 bc b3 33 80 bc 77 82 84 3d
       0.009733171 -0.010089878 -0.015649652 0.06470197
0002f0 fd 33 ed 39 97 ea b1 bc 04 c0 5c bd 14 ec 4f bc
       0.00045242897 -0.021718306 -0.053894058 -0.012690563
000300 96 2d 8f bc e2 8b 36 3d b1 88 2b bd 0b f9 98 3a
       -0.017477792 0.044566996 -0.041878406 0.00116709
000310 85 d8 45 3d b0 ba 63 3d fe f0 05 bd ed b4 67 3d
       0.048302192 0.05559796 -0.03270053 0.05656903
000320 62 62 2c 3d 65 6f b7 3c 05 ff f7 bb d1 ef 63 3d
       0.042086013 0.022391984 -0.0075682425 0.05564863
000330 31 4f 2a 3d d1 05 30 3d 45 73 2c bd be 61 d2 bc
       0.04157943 0.042974297 -0.042102117 -0.025681373
000340 09 73 4f 3d 15 66 69 3c 94 c8 d8 bc ef 5b 9e 3c
       0.050646815 0.01424553 -0.02646283 0.019330947
000350 35 de 21 3d aa 36 1e 3d 9f 84 13 bd 46 68 93 b8
       0.039518554 0.03862635 -0.03601515 -7.028929e-05
000360 b3 84 38 3d 73 44 72 3d a0 33 20 bd f3 ea 56 bb
       0.045048427 0.05914731 -0.039111733 -0.003279385
000370 ac 6f 8f bc 26 7e fb bc ac 9a 55 3d ad 27 9c 3c
       -0.017509304 -0.0306998 0.05214946 0.019061888
000380 bb dd 05 3d 57 c5 89 3b 2a 87 62 bc 76 75 51 bd
       0.03268216 0.004204433 -0.013826171 -0.05113741
000390 e5 82 61 3c bb f5 25 3c b0 34 7c 3d dd 37 21 bd
       0.013764118 0.0101293875 0.061573684 -0.039359916
0003a0 1d f9 71 3d ee da 5a bd 5c 12 d5 3c 41 39 8b bc
       0.059075464 -0.053431444 0.026009731 -0.016995074
0003b0 1f 80 0c bc 6b 84 b2 3c d1 8b f8 bc c0 3c ec bc
       -0.008575468 0.021791657 -0.030340107 -0.028837562
0003c0 cc 3b 1a 3d a0 27 39 bd a6 57 60 bc f1 1f 06 3d
       0.037654683 -0.045203805 -0.013692772 0.032745305
0003d0 50 fe 50 3d 38 98 30 3d c7 9b 11 3d ca 7a 1d 3c
       0.05102378 0.043113917 0.03554895 0.009611795
0003e0 b8 32 22 bc 38 dc 0e bc 9a 33 8a bc 40 1c 26 bd
       -0.009899788 -0.008719496 -0.016870309 -0.040554285
0003f0 18 19 f5 bc 94 cf 6b 3c eb 50 c9 3b 8b 18 e6 3c
       -0.029919192 0.014392752 0.0061436794 0.028087875

policy_net.4.weight f4 [9, 256]
000000 ab 03 0e bd 72 3f 4c 3d 7b a8 f9 3c a2 04 21 bd
       -0.034671467 0.049865194 0.030475846 -0.03931106
000010 1a bb 18 3d e1 52 47 3d dd 9a 8d 3c 9a 9f 85 3c
       0.03728781 0.048663024 0.017285759 0.016311456
000020 e0 5f 39 3c 0f a9 ba bc 1d 74 ec bc 5a 03 89 bd
       0.011314362 -0.022785692 -0.02886396 -0.066900924
000030 81 94 67 bd 8f fd 7c 3d 3a 2e 14 bd 69 d7 a3 3c
       -0.05653811 0.06176525 -0.036176898 0.020000177
000040 70 be ef ba 48 fb c4 3d 5c 02 69 bc 7b a3 16 3d
       -0.0018291008 0.096182406 -0.014221754 0.036777
000050 ae 83 af bd e7 1a a8 3d 14 49 7d 3d 0b 34 97 3d
       -0.08570038 0.08208256 0.06183727 0.07382973
000060 6b 70 92 3c 7c ac a0 3d b8 86 4b bd 54 44 95 3d
       0.01787587 0.07845399 -0.049689025 0.07288423
000070 ab bd 2b 3d e9 81 0c 3d 2a 3c b3 3c 50 89 82 bd
       0.04192893 0.03430358 0.021879274 -0.063738465
000080 ae 7e f7 3b ca a6 4b 3d 3d 22 21 3b 70 00 1f 3d
       0.007552943 0.04971961 0.0024587058 0.038818777
000090 ca 95 18 bd 5b c4 75 bd 18 35 47 bd 6d 66 97 bd
       -0.037252225 -0.060001712 -0.04863462 -0.07392583
0000a0 48 ac e4 bc c6 af cd bc 5b c6 25 3d dd 06 81 3a
       -0.027914181 -0.02510823 0.04047237 0.0009843964
0000b0 ac a9 3e 3d d5 ba db 3c c7 ef 29 3d 0c d0 4a bd
       0.04654853 0.026822487 0.041488435 -0.049514815
0000c0 a4 dd c2 3d 6d 1f 97 3d 78 6f ad 3c a8 ef 49 3d
       0.09514931 0.07379041 0.021171317 0.04930082
0000d0 c8 6f 1a bc 5d da 66 3d 2e c5 86 3d 6d f9 04 3d
       -0.009426065 0.05636059 0.06580578 0.032464433
0000e0 b2 51 9c bd 5b 4c 32 bc 06 64 9f bc 73 db f3 3b
       -0.0763277 -0.010882462 -0.019456875 0.007441932
0000f0 f2 6a a0 3d 76 83 75 bd 53 e6 1d 3d 86 77 cd 3c
       0.07832898 -0.059939824 0.038549732 0.025081407
000100 c1 88 1d bd 1e 3a 7b bd 16 ba 7e bc 47 1c 68 3d
       -0.038460497 -0.06133472 -0.015547296 0.056667592
000110 a5 e5 5d bd d0 0d b4 bd 0d 01 3c 3d 71 9f f3 3c
       -0.054174084 -0.08791697 0.04589944 0.029739114
000120 9f aa 2c 3d 69 1b 89 bc 65 53 b9 3c 1a a8 e9 3c
       0.042154904 -0.016736703 0.022622773 0.02852254
000130 41 cc 08 3d 03 9a 4d 3d 9c 87 a8 bc 98 f6 42 bd
       0.033397917 0.050195705 -0.020572476 -0.04759845
000140 0a 77 77 bd 70 77 81 3d ba 42 cb bc 0c 33 99 bb
       -0.06041626 0.06321609 -0.024812091 -0.0046752747
000150 5e 36 90 3d e0 92 46 bd c8 52 8a 3d 47 00 ae 3c
       0.0704162 -0.048479915 0.067540705 0.021240367
000160 ec 2b 9a bc 70 10 7e bd 9f e9 f3 3b a0 b4 87 3c
       -0.018819772 -0.062027395 0.0074436213 0.01656562
000170 d0 9b 9c 3c 66 f9 8d 3d af 2d a7 3b ee 4d c4 3c
       0.019117266 0.069323346 0.0051018815 0.023962941
000180 d2 28 68 bc dc 92 8f bd ef 79 24 bd 78 77 30 bd
       -0.014169889 -0.07010433 -0.040155347 -0.043082684
000190 18 fc d9 bc 07 71 8d 3d 80 2e 94 bd ba ab cc bd
       -0.026609465 0.06906324 -0.07235432 -0.09993692
0001a0 5f 8d aa bd 4d f8 3f 3d 79 58 85 bd 87 e0 07 3d
       -0.08327746 0.046867657 -0.065110154 0.03317311
0001b0 81 b0 60 3d 2d 2d 91 3d dd 71 20 3c dd 89 28 bd
       0.054855827 0.07088695 0.009792772 -0.0411471
0001c0 6a a2 b8 bb ea 37 22 bd 47 5d ce bc e1 ad 30 3d
       -0.0056345956 -0.039604105 -0.025190962 0.043134574
0001d0 ab a2 26 bc 38 7a eb bb 8f 86 84 bd 4b d9 7c 3d
       -0.010170619 -0.0071862005 -0.064709775 0.061730664
0001e0 d4 58 33 bd 30 7a eb 3c 7b e8 00 3a a3 f2 d6 bb
       -0.043785885 0.028744787 0.0004917455 -0.0065596863
0001f0 bf 93 54 bd cb 9b 80 bd 02 c2 1e bd 35 98 df 3c
       -0.051898714 -0.06279715 -0.03875924 0.027294258
000200 12 8b 89 bd 3d 2a fd 3c 80 7f 15 3b 7f 6e 0e bd
       -0.06715979 0.03090393 0.0022811592 -0.034773346
000210 77 f6 2f bd d2 e4 b4 bc c7 e7 87 3d b0 79 eb bb
       -0.042959657 -0.022081766 0.06636005 -0.007186137
000220 16 3e ff bc cd 37 5b 3c 67 e9 92 bd d2 99 38 bd
       -0.031157535 0.013380003 -0.07173424 -0.04506857
000230 db e2 b4 bd 1f ba 80 3c 37 3e 34 bd fa ac 8f bd
       -0.08832332 0.01571375 -0.044004645 -0.070154145
000240 50 74 8f bd 5c 7f 38 3d 19 a2 68 3d df b9 5f bd
       -0.07004607 0.045043334 0.056795213 -0.05462062
000250 61 c1 89 3d 6c c2 21 3d 1f cf d9 3c 13 44 5a 3d
       0.06726337 0.039492056 0.02658802 0.053287577
000260 28 a7 6e 3d 02 f9 07 3a 37 21 62 bd 48 c6 2f 3c
       0.05826488 0.00051869464 -0.055207457 0.010728426
000270 69 e3 93 3c 71 f2 80 bd fe d5 c2 bb 32 18 1a bd
       0.018052774 -0.06296242 -0.00594592 -0.03762073
000280 e9 97 05 bb fd 50 03 3c 55 19 10 bc 02 10 dd 3c
       -0.0020384735 0.008014915 -0.008795102 0.026985172
000290 cc 67 81 3d 8f a4 97 bd 4a 80 95 bc 0f 78 56 bd
       0.06318626 -0.07404434 -0.01824965 -0.05236059
0002a0 0a a4 8f bd d1 21 34 bd 8b 28 29 3b 7b 8a 8f bd
       -0.0701371 -0.043977562 0.002581152 -0.07008835
0002b0 0b bb 6f 3d 1c 6c 5b bd c8 ca 89 3c 07 28 19 3c
       0.058527987 -0.053569898 0.016820326 0.009347922
0002c0 7e df aa 3d f0 41 2b 3d 8e 69 ce bd 0a 67 52 bd
       0.08343409 0.04181093 -0.10078727 -0.051367797
0002d0 25 cf 6f bb 5f 1a 89 bd ea d7 9a 3d ca bb 7f bd
       -0.0036591974 -0.06694483 0.075607136 -0.06243495
0002e0 77 cd ed bc bf cb 04 bd 5b 53 9d bc 8f 60 75 3d
       -0.029028637 -0.03242087 -0.019204786 0.05990654
0002f0 02 b1 96 3d 27 dd b7 bd 59 8b fd 3c e8 a9 23 3d
       0.0735798 -0.08977728 0.030950235 0.039956957
000300 95 ee 33 bd 4e 71 6f 3c 4b 69 59 bd 4c e3 23 bd
       -0.0439287 0.014614416 -0.05307893 -0.04001169
000310 01 27 9f bd dd f8 ab 3d 88 f1 fc bc a8 e1 b8 3c
       -0.07771111 0.08397076 -0.03087689 0.022568539
000320 73 28 6c 3d d6 d8 5d 3d 65 cf c5 3b a3 34 de 3c
       0.057655763 0.05416187 0.0060366862 0.027124709
000330 3e 4e d8 3d 31 00 35 3d 81 4c 7a bd 78 00 65 3c
       0.105617985 0.044189636 -0.061108116 0.013977163
000340 50 45 e5 bc 28 48 09 3d 92 af 04 bd d4 08 2f bc
       -0.027987152 0.03351608 -0.032394 -0.010683257
000350 74 c3 19 3d b1 01 a6 bb be b8 2b bd 3d 79 9c bc
       0.037539914 -0.0050661196 -0.04192423 -0.01910078
000360 3d 74 81 3d eb be 9c 3d b6 a5 d1 bc d9 78 3a bd
       0.06320999 0.07653602 -0.025591712 -0.045525406
000370 5d 70 77 bc 3c d7 3f bd f4 a2 8b 3d 6c a2 95 3d
       -0.015102473 -0.046836123 0.0681819 0.0730637
000380 88 db 1e 3d 1a ad c7 3c a6 2c f0 bc e8 d7 f2 bc
       0.03878358 0.024374533 -0.029318165 -0.029643968
000390 ed 8b fa bc 86 61 49 3c 9f e1 b9 3d a3 bf 07 bd
       -0.0305843 0.012291318 0.09076237 -0.033141743
0003a0 0a 12 96 3b 04 57 b2 3c 05 06 cc bd 1c 81 a2 3c
       0.004579787 0.021770008 -0.09962086 0.019836955
0003b0 11 2b bc bc dc e0 46 bd 1b bb 04 3d 90 00 2e 3c
       -0.022969754 -0.048554286 0.032405 0.010620251
0003c0 c7 63 a8 bc 0e 88 a4 bb 80 c0 24 bd d6 57 15 bb
       -0.02055539 -0.005021102 -0.040222645 -0.002278795
0003d0 ed 9a 88 3c de 61 ef bc f6 f3 69 3c e6 38 4a 3d
       0.016675437 -0.029221471 0.014279356 0.04937067
0003e0 86 56 93 bd 66 37 ac bc b2 55 7d 3d d6 37 b0 bc
       -0.071942374 -0.02102251 0.061849304 -0.021511
0003f0 62 76 74 bc a7 78 81 3d e9 51 9b bd 2f c8 ac bd
       -0.014920803 0.06321841 -0.075839825 -0.084366195

policy_net.4.bias f4 [9]
000000 41 4b 15 3d 97 00 1a bd ae 5b 6b 3d 6a da 78 3d
       0.03644872 -0.03759822 0.05746048 0.06075517
000010 51 9d 1c 3d ad 05 46 bd 9f b8 6b bd ec 1d ac bc
       0.038235966 -0.048345257 -0.057549115 -0.021010362
000020 5b c0 ae 3c
       0.021331957

value_net.0.weight f4 [256, 41]
000000 10 4b 93 3d 96 46 a0 3d ee 9b 3c 3b d6 e2 fd bb
       0.071920514 0.07825963 0.0028779465 -0.007747988
000010 91 e9 0f 3d 80 bd d9 bc 3d bc 1d 3e ab ce 7a bd
       0.035134856 -0.026579618 0.15403838 -0.06123225
000020 fa ff 01 3e 03 3e ff 3d 94 bc 14 3e e7 41 87 3d
       0.12695304 0.12463 0.14525062 0.06604367
000030 b6 4b 91 3c 73 6c a6 3d 28 35 90 bd cf 35 4d 3d
       0.017736297 0.08126154 -0.07041389 0.050100144
000040 b2 eb ad 3c 73 e2 0b be 5e 7b f9 3d 69 1b a7 bd
       0.021230552 -0.13660602 0.121817335 -0.08159525
000050 49 88 3b 3c 97 f2 1c bc 19 10 73 3d 03 25 c7 3c
       0.011446067 -0.009579322 0.059341524 0.02430964
000060 4a e2 ab bd 2f 46 cf bd df 61 dc 3d 66 e7 c8 3d
       -0.083927706 -0.10120808 0.10760855 0.09809761
000070 5e 33 f2 bd 73 f0 9d 3c 1f c9 c8 3d cb 66 07 be
       -0.11826204 0.019279694 0.09803986 -0.13222806
000080 be 42 1f be 1d 5f 0c 3e 9f ef b1 bd 48 88 04 3e
       -0.15552804 0.13708158 -0.08688282 0.12942612
000090 30 9b f0 3d 99 db 10 bd 2f d2 7d 3d b5 34 47 3d
       0.1174835 -0.035365675 0.061968025 0.04863425
0000a0 99 b8 b8 bc 49 78 93 bd b6 ae da bc 22 37 07 3e
       -0.02254896 -0.07200677 -0.026694637 0.13204625
0000b0 2d 8d 0f 3e a6 a0 c5 bb ec c4 aa 3d 01 d6 61 3d
       0.14018698 -0.0060311137 0.08338341 0.05513573
0000c0 02 60 74 bc c6 f4 fa bc 18 2f 52 bc df 1d 1d be
       -0.014915468 -0.030634295 -0.012828611 -0.15343426
0000d0 57 d2 98 bd 49 08 1e 3d 5b dc c5 3d 40 25 97 bd
       -0.07461994 0.03858212 0.0966117 -0.07380152
0000e0 0d 2b e2 bd 87 a8 6c 3d 29 6d 8c bd 13 70 42 bd
       -0.110433675 0.057777908 -0.06856758 -0.047470164
0000f0 f4 79 9d 3c e1 ad 65 bd 4e a0 50 3b 1d a1 84 3c
       0.01922319 -0.056074027 0.003183383 0.016190106
000100 25 ca 49 bd 30 cc c2 bd 2a 0f 8c 3d f3 4d cc bd
       -0.049265046 -0.09511602 0.0683883 -0.09975805
000110 00 c2 d9 3d 2b 55 2b bd ae 86 a8 bd f5 4a cb bc
       0.10632706 -0.04182927 -0.08228813 -0.024816016
000120 fe a4 02 be c7 69 14 3d 24 1a 1d bd 95 2e 27 3d
       -0.12758252 0.03623369 -0.038355008 0.04081591
000130 5d dc ee bd 90 fc 8a 3c ae 8b 93 bc 28 79 e3 3d
       -0.11663125 0.016966134 -0.01801094 0.11107093
000140 bb 6b cb 3d c7 83 c3 bd fc 56 0c 3e 16 83 1a be
       0.09932657 -0.09546619 0.13705057 -0.15089068
000150 41 e7 d2 bd 86 ff b1 bd 8d 65 5b bc 9d 78 b9 bd
       -0.102980144 -0.08691315 -0.013390911 -0.09056208
000160 df 70 e2 3d cd c9 dd bd af 9b 14 3e 88 9b bc 3d
       0.11056685 -0.10829506 0.14512514 0.09209353
000170 3a a7 de 3d d4 32 07 be 6b f6 2b 3c c8 a2 c8 3c
       0.1087174 -0.13202983 0.010495762 0.024491683
000180 3b 0f 8d bd 7a 9a 0e 3e 3b 34 d1 bd 7e 47 1e 3e
       -0.068876706 0.13926116 -0.1021504 0.1545696
000190 26 82 e2 3c 99 48 35 3a 2d c4 89 3d 54 c5 40 bd
       0.02764995 0.000691542 0.06726871 -0.047063187
0001a0 6b d3 dd 3d d3 34 a4 bc 83 c5 7a bd 81 93 9f 3d
       0.108313404 -0.02004472 -0.061223518 0.07791806
0001b0 a3 46 cd 3c 96 02 11 be e7 04 08 be f4 85 0c be
       0.025058096 -0.14161143 -0.1328312 -0.13722974
0001c0 ae 6c 18 3d fa cf cb 3d 54 ad 17 3d dd fb 0c be
       0.03721302 0.09951778 0.037030533 -0.13767953
0001d0 8b 4e 8a bc ad 3d 80 bc 99 72 7c 3d 97 15 ea 3b
       -0.016883155 -0.01565441 0.061632726 0.007143687
0001e0 13 78 96 3d 7f b6 d7 bd 03 b3 1a 3e 77 12 29 3d
       0.07347121 -0.10532855 0.1510735 0.041277375
0001f0 d1 d1 c8 bd c5 2e fd bb 28 ff 80 3d c0 6b eb 3d
       -0.09805644 -0.0077265226 0.06298667 0.11495161
000200 3f c7 9b bd fe 60 00 be 8a 0a 10 be 89 6e 22 bd
       -0.076063626 -0.12537 -0.1406652 -0.039656196
000210 42 45 bf bd ac 49 1a bd ef 79 c2 3c 06 2a f8 3d
       -0.09339382 -0.037667915 0.023739783 0.1211739
000220 6f 8e 1a be b6 ce 97 bd 42 c9 9f bd 16 78 b4 bd
       -0.15093397 -0.07412474 -0.07802059 -0.08811967
000230 4a aa 11 3e cc ce de bc c6 cc cb bc 92 70 8f bd
       0.14225116 -0.027198218 -0.024877917 -0.07003893
000240 11 66 25 3c ba ee aa bd 03 13 d3 3d cb 33 18 be
       0.010095135 -0.08346315 0.103063606 -0.14863507
000250 6b 67 ac bd 32 97 6a 3d 48 24 ef 3d 43 7a 06 3e
       -0.08418163 0.057273097 0.11676842 0.13132577
000260 f8 4b d0 bc 14 83 cc bd 3e 5c 06 be 1e aa 7c 3d
       -0.02542685 -0.09985939 -0.13121125 0.061685674
000270 38 8e 6d 3d 06 dd 1f 3e a2 0d 1b 3d f4 34 37 3d
       0.05799696 0.15611658 0.0378548 0.044728234
000280 b3 1a 1d 3e 29 e5 62 3d e2 d0 d0 3d 37 6e 09 be
       0.15342216 0.055394325 0.10196091 -0.1342095
000290 57 af 49 bd db bf 0f 3e 39 f0 b3 bd ed d9 97 bd
       -0.049239483 0.14038031 -0.08786053 -0.07414613
0002a0 69 b4 f0 bd 33 c1 a6 3c 74 e7 8c bc b5 68 37 bc
       -0.117531605 0.020355796 -0.01720021 -0.011194398
0002b0 6a 3a d3 bd 2d 8d f3 bc 2a fe 1e 3d df 04 50 bd
       -0.10313876 -0.029730404 0.03881661 -0.050785895
0002c0 5f 94 20 bc d7 d6 da 3d 01 69 f1 3c 63 1b b8 3d
       -0.009800999 0.10685509 0.029469015 0.089895986
0002d0 56 cf b5 bd 9d 27 bb ba c4 ee af 3d c2 a4 8d 3d
       -0.08877437 -0.0014278773 0.08590463 0.06916191
0002e0 22 6c 98 3c bf 15 b2 3d e5 f3 00 bd 90 ef 32 3c
       0.01860625 0.08695554 -0.031482596 0.010921374
0002f0 67 98 35 bc 28 1f 29 bd cd c1 ea bd c5 c5 0c be
       -0.011083699 -0.04128948 -0.11462746 -0.13747318
000300 de fc e9 3d 34 9c e5 3d b8 69 ec bd 4c f2 e4 bc
       0.11425184 0.11211434 -0.11543602 -0.027947567
000310 20 32 69 bc ca cf db 3c 55 b0 97 bc fa 4c 93 3c
       -0.014233142 0.02683248 -0.018516699 0.017981041
000320 a1 b8 88 3d c3 54 5b bc 7f 09 e1 3d 1e 63 fb 3d
       0.0667584 -0.013386908 0.10988139 0.122747645
000330 68 8a 10 bd dd 67 d3 3d ec df 0d be df 88 0d 3e
       -0.035288244 0.10322545 -0.1385495 0.13821743
000340 f9 fe a4 3d b1 df 84 bd 0c 22 ac bd ed 5f 95 bd
       0.08056445 -0.06487978 -0.084049314 -0.07293687
000350 f5 99 e1 bd cb 9c 96 3d 6f c6 11 be ad 6e a0 3d
       -0.11015693 0.07354125 -0.14235853 0.0783361
000360 0e 1c 84 bb 2f 3d 93 3d 3d 7b 33 bd 6b b8 14 be
       -0.0040316647 0.07189404 -0.0438187 -0.14523475
000370 33 39 11 be d5 e7 1e bb bc dc a2 3c 35 13 06 3d
       -0.14181976 -0.002424707 0.019880645 0.03273316
000380 7d 83 1e bc ac 41 e4 bd 92 5d b6 3c 64 eb 47 bd
       -0.009674904 -0.111453384 0.022261415 -0.04880847
000390 a3 e9 e5 bc d8 44 9d bd bd bd b3 3d ba 81 18 3e
       -0.028065508 -0.076791465 0.08776424 0.14893237
0003a0 2b 77 20 3c ee 99 13 bb fd 27 f5 bd 7c 88 4d 3d
       0.009794037 -0.002252217 -0.11970518 0.05017899
0003b0 75 1c 00 be b4 60 c0 3d 55 69 5a 3b ce 22 dd bd
       -0.12510855 0.09393445 0.0033326943 -0.10797654
0003c0 3e 17 84 bd d1 36 38 bd 3e 70 c6 bd 60 b7 b4 3d
       -0.064497456 -0.044974152 -0.09689377 0.088240385
0003d0 29 79 af 3c 2b 42 8a bc fc f0 fa 3c 0a 10 2d 3d
       0.021420078 -0.016877254 0.030632488 0.042251624
0003e0 6f f0 16 3d f4 94 f4 bd b9 f9 93 3d 20 79 0d 3d
       0.03685039 -0.11942473 0.07225365 0.034539342
0003f0 bc 46 f6 3d 1f 53 b3 bd 5a ab 52 3d fe 23 64 3c
       0.1202521 -0.087560885 0.051432945 0.013924597

value_net.0.bias f4 [256]
000000 8b 19 80 bd 4f 01 13 3e 32 cf 03 3d ca 1d 2e bd
       -0.06254872 0.14355968 0.03218002 -0.042508878
000010 05 bd 70 3d 31 65 df bc 9e cd 4e bd 3c 8b 25 3d
       0.058774013 -0.027269932 -0.05048906 0.040415987
000020 2c 5c 0c be af 2d cb 3d 42 db 00 bd 67 38 17 be
       -0.13707036 0.09920823 -0.0314591 -0.1476761
000030 fb 6a 9e bd 4a be 0e be 0e cb 5c 3d 09 a2 16 bd
       -0.07735249 -0.13939777 0.053904586 -0.036775623
000040 bf 8e ca 3d 7b c1 db bd d6 05 56 bd 4d 25 17 bb
       0.09890508 -0.10730263 -0.05225166 -0.0023063004
000050 e5 44 b6 bd 3a 20 3f 3c b4 29 87 3b ad da 97 3d
       -0.08899859 0.011665398 0.0041248444 0.07414756
000060 84 d2 1c be 7a fb b3 bd 0b 25 37 3d 9e d8 c5 bd
       -0.1531468 -0.087882 0.04471306 -0.09660457
000070 4b 53 30 bd c2 91 1d be f7 48 bb 3d 5a bf ad 3d
       -0.043048184 -0.15387633 0.09144776 0.08483763
000080 67 39 61 bc 86 32 31 bd 23 8e 0b 3e 60 a9 fc 3d
       -0.013746596 -0.043261074 0.1362844 0.12336993
000090 b4 6e bf bd 96 07 ac bd 34 df da 3c 74 55 16 3e
       -0.09347287 -0.083998844 0.02671776 0.14681035
0000a0 6f 7d 20 3d ab fe f5 3d 9b 92 b8 bc 60 08 c7 3d
       0.039182123 0.12011465 -0.022530844 0.09718394
0000b0 c8 69 03 3e e3 f5 15 be 79 eb ea bc 82 b8 9a bd
       0.12833321 -0.1464458 -0.028676735 -0.07554723
0000c0 9d c4 a7 3d 13 53 ea bd fb 4f 12 be 07 46 a7 3d
       0.08191798 -0.114416264 -0.14288323 0.081676535
0000d0 c6 4d 38 bd 0f 1b ea bc 9b db f7 bd c9 26 06 be
       -0.044996046 -0.028577356 -0.12102433 -0.13100733
0000e0 70 b5 b6 3d ed 01 35 bc 6e a2 f6 bd a5 c9 b4 bd
       0.08921325 -0.011047822 -0.120427 -0.08827523
0000f0 a3 cb 34 bd 5a 90 f6 3d 75 25 c9 3c 45 0d a1 3d
       -0.044139516 0.120392516 0.024553994 0.07863859
000100 aa 36 06 3e 21 76 19 3e 52 5f 97 3c 8f 3d 13 3e
       0.1310679 0.14986469 0.01847807 0.14378951
000110 2d 02 b2 bd eb bd 83 3c 53 a7 1a be 77 d7 a2 3d
       -0.08691821 0.01608177 -0.15102892 0.07951253
000120 f1 20 f5 3d dc 6f cb bd d0 fa 15 3e 4e c1 00 3e
       0.11969174 -0.09933445 0.14646459 0.1257374
000130 bf 00 72 bd 45 98 dc 3d bd 97 d4 3d c9 07 30 bd
       -0.059082743 0.107712306 0.10380504 -0.042976175
000140 f9 f2 0c be 92 a2 02 3e 77 66 a5 3d c6 12 46 3d
       -0.13764562 0.12757328 0.08076184 0.048357747
000150 29 52 c0 bd 34 2a 58 3d d0 be 1b be 30 7b 07 bd
       -0.09390671 0.052774623 -0.15209508 -0.033076465
000160 c6 4e 82 3d 58 29 1f 3d ee fe 8c bd 18 c1 a6 3d
       0.06362681 0.038857788 -0.068845615 0.081422985
000170 e6 70 14 be f9 fb 82 bd 06 a2 d4 3d 22 b2 85 3d
       -0.14496192 -0.06395716 0.10382466 0.06528117
000180 71 50 f4 3d fc 0b 3d bd 9c 1b f7 bd 56 c2 7b 3d
       0.119294055 -0.046154007 -0.12065813 0.06146463
000190 82 b5 03 be 9e 83 c0 bd 00 97 f9 3d 9f fd f8 bd
       -0.12862208 -0.09400104 0.12187004 -0.121577494
0001a0 29 6d 0f 3e 32 bd 8f 3d 3b b9 a3 3d 69 d5 b9 3d
       0.14006485 0.07018508 0.07994314 0.09073908
0001b0 72 6c d9 bd 91 42 01 3c 9c 31 1e be 68 0f e8 3d
       -0.106163874 0.007889406 -0.15448612 0.113310635
0001c0 5a ed 1a 3e 98 90 c4 bd 6a da 12 be a4 ca 54 bd
       0.15129605 -0.095978916 -0.14341131 -0.051951066
0001d0 b7 14 cb 3d 78 d6 b6 bd f8 ee 27 bd 35 b9 cf 3c
       0.099160604 -0.089276254 -0.040999383 0.025356868
0001e0 f3 e8 c9 bd ea b1 c1 3c 11 48 8d 3d a3 70 c8 bd
       -0.09858885 0.023644406 0.06898511 -0.09787109
0001f0 15 a2 8d 3b dc 38 8e bd 41 f9 01 be 41 15 1c be
       0.0043223 -0.06944439 -0.12692739 -0.15242483
000200 54 0a 1a 3e 43 11 e2 3d 47 27 3d 3d c4 b8 97 3c
       0.15043002 0.11038449 0.046180036 0.01852072
000210 de 27 9c bd 4a 76 8b 3d bc 68 6f 3d 19 23 ce 3d
       -0.076247916 0.06809671 0.05844949 0.10065288
000220 b6 59 a4 3d 60 bb 18 be f7 a2 8a bd 51 fc 1e 3e
       0.080249235 -0.14915228 -0.06769364 0.15525939
000230 68 a8 0d 3d 23 3d 1c bd 05 dd e4 bc 3e 3e 00 3d
       0.034584433 -0.038144242 -0.027937422 0.03130936
000240 62 cc c1 3c 4b e6 f3 3d 2f 04 1e 3e 9f 22 5c bd
       0.023657028 0.11909159 0.15431283 -0.053743955
000250 e0 b0 34 3d 46 eb 9a 3d 53 b1 0a bc 66 82 f8 bc
       0.044113994 0.07564406 -0.008465129 -0.030335616
000260 9c 79 a3 3c c3 26 55 3d e5 9b f8 3d 2d 8c 11 3e
       0.019955449 0.05203892 0.121391095 0.14213629
000270 4e 9e 09 3a 79 1e 47 3d 72 80 4b 3d 84 fe 0b 3e
       0.00052497245 0.048613045 0.049683042 0.13671309
000280 49 ec 10 3e 02 bf f0 bd 94 5b 01 3e 88 4c 1a be
       0.14152636 -0.11755182 0.1263259 -0.15068257
000290 ea 42 b1 3d 93 44 c9 bd 88 f3 dd bc 18 70 3d 3d
       0.08655341 -0.098275326 -0.027093664 0.04624948
0002a0 e1 31 9d bc c8 5e cb 3d 9a 24 d7 3d 77 37 07 3e
       -0.019188823 0.099301875 0.10505028 0.13204752
0002b0 6a ba c7 bd 04 c7 09 be cb de 98 3d ca 73 a5 3d
       -0.097523525 -0.13454825 0.074643694 0.08078726
0002c0 d6 5a 89 3d 67 62 97 bc 63 62 b9 3d 07 88 85 bd
       0.06706779 -0.01847954 0.09051969 -0.06520086
0002d0 f3 ab d6 3d e7 45 78 3d cd 51 11 3e 34 ec 17 3e
       0.104820155 0.06061354 0.14191361 0.14836198
0002e0 e6 59 df bd 15 06 cb 3c 73 49 19 bd 36 d9 ef bd
       -0.10905819 0.024783174 -0.037423562 -0.117113516
0002f0 d3 7d 16 3d 9e 39 52 bd 67 96 3e bc 01 86 5c bb
       0.03674109 -0.05132448 -0.011632538 -0.0033649208
000300 73 79 45 bd 88 38 01 3e 56 45 78 bc 45 b5 04 be
       -0.048211526 0.12619221 -0.01515325 -0.12959774
000310 2f 0b 04 be 8d ea a0 3d 3d 9f 89 bb 5a 92 d8 bd
       -0.12894891 0.07857237 -0.004199891 -0.10574789
000320 a7 f7 d2 bd 11 60 79 3d f9 10 f5 bd 5e 08 55 bd
       -0.10301142 0.06088263 -0.11966128 -0.052009933
000330 9d 87 09 be 90 f9 5d 3d e5 42 2b 3d 0d 94 47 bd
       -0.13430639 0.05419308 0.041811842 -0.048725177
000340 51 9e 1b be 0b e5 f7 bd f8 ae 1c 3d 71 38 b5 bd
       -0.15197112 -0.12104233 0.0382528 -0.08848656
000350 c3 dc 1e 3e 7e fd cf 3c 2c 67 8f 3d f1 9e dd bd
       0.15513901 0.02538943 0.070021 -0.10821331
000360 d8 32 7a bc d5 4b 7a 3d 6d 35 1f be e7 96 b3 3b
       -0.015270911 0.061107475 -0.15547724 0.0054806354
000370 c0 49 67 bd 42 d9 bd bd 74 0f 9e bc c3 b6 0e be
       -0.056466818 -0.09269954 -0.019294478 -0.13936906
000380 a7 ae 5a 3d 8f 1c d1 bd ea 60 48 bd 84 9f f2 3d
       0.053389218 -0.10210525 -0.04892055 0.118468314
000390 cb 35 50 3c 56 22 1f 3e e8 c6 fb bc 63 e4 0d 3e
       0.012708138 0.15540442 -0.030734494 0.13856654
0003a0 e2 5b 03 be 9f f5 b8 3d 3f 26 22 3d 5f 92 b3 bd
       -0.1282802 0.090312235 0.039587256 -0.087681524
0003b0 fa 1b 54 3d dd 68 93 3d 33 f3 8b bd 89 96 63 bd
       0.051784493 0.071977355 -0.06833496 -0.055563483
0003c0 97 17 b4 bd c8 0e cf bc ed 6d f1 bd 7f d2 c1 bd
       -0.08793562 -0.025275603 -0.11788545 -0.09463977
0003d0 db ac f5 3c 97 9a e2 bb 57 b8 e2 3d f7 ec 09 3e
       0.02998965 -0.006915401 0.11070316 0.13469301
0003e0 7f 26 c3 bd d0 54 7a bc e6 c0 68 bc 56 bd 58 3d
       -0.09528827 -0.01527901 -0.014206147 0.05291494
0003f0 c1 48 e7 bb b2 44 b8 3d 34 ad af 3d d6 14 03 3e
       -0.0070582335 0.089974776 0.08577958 0.12800917
