pretrain/BC/norm_params.npz (npz, 1382 bytes, 4 tensors)

state_mean f8 [19]
0	0x3feb93cf7c9b29f7	0.8617932733262127
1	0x3fe4025675571101	0.6252853671835795
2	0x3fb7ca96aaa4d340	0.09293500581845837
3	0xbf9f878a0ead1c00	-0.030790478845371894
4	0x3f83db831b4047b3	0.009696029919755355
5	0xbf8ae8d204f57df5	-0.013139382149062387
6	0x3fe310661573b5c9	0.5957518023475866
7	0x407dfbd35d178c3d	479.73910245130884
8	0xc09966b6bfb067bb	-1625.67846561082
9	0xc09fac1d5b6c26e7	-2027.028669061541
10	0x402102a9229860bf	8.505196648693866
11	0x403924bd08cfe481	25.143509436373737
12	0xc072fd6cd06ad779	-303.8390659497741
13	0xc052029880fa78c3	-72.0405580945981
14	0xc080eca2d6a7b3f6	-541.5795109845919
15	0xc043b7133853b6f4	-39.43027404868727
16	0x40cf31cbaf309e3b	15971.5912838719
17	0xc0ea64afa5b25d6c	-54053.48897665259
18	0xc0f083f37b8c320e	-67647.21766299775

state_std f8 [19]
0	0x402d9bad9286a18f	14.804058627066096
1	0x402941b45e13f640	12.628329219757802
2	0x402611b0e260998f	11.03455264500806
3	0x3fd520ed1d86f541	0.33013465770257616
4	0x3fd691686f317e3e	0.3526249967453373
5	0x3fd019548dc3d0ec	0.2515460380957524
6	0x3fe2dbc405070e69	0.5893268678850748
7	0x40d2735d34aaa6bf	18893.456339514578
8	0x40eb5b52047da66e	56026.563048195894
9	0x40eff1b5cfac89df	65421.68160082748
10	0x40cb03ea077355fa	13831.828352372151
11	0x4081d14614b015a8	570.1592191464051
12	0x40d0d82e032c638b	17248.718943688593
13	0x40cce4fd1a1a5cd3	14793.977359099697
14	0x4106da07995fc41e	187200.94988969056
15	0x40c677c16ccdd384	11503.511132934836
16	0x412338c1edb113f8	629856.964241623
17	0x413c84218cdf54e2	1868833.5502827694
18	0x4140a2ff296626b8	2180606.3234299086

target_mean f8 [3]
0	0xbfe454e566fc0238	-0.6353632937826381
1	0x3fed700c53f642ae	0.9199277534372265
2	0x3fe0c005043d0126	0.5234398920802377

target_std f8 [3]
0	0x4017ae93e00e1d53	5.920485974179729
1	0x4017102beabf6646	5.765792529995059
2	0x3fd250f9ac4d6579	0.2861923391952455
