pretrain/BC/pretraining_model.pth (torch, 161623 bytes, 6 tensors)

fc.0.weight f4 [256, 22]
000000 cf 72 95 3d f8 14 0a be ae 37 d9 3d 06 7d 5c be
       0.072972886 -0.13484561 0.10606323 -0.21532068
000010 d5 9a db 3d 13 c6 00 be 68 d9 1d be 38 48 81 be
       0.10722891 -0.1257556 -0.15414965 -0.2525041
000020 cf c8 87 3e 4a a8 00 bd e1 ff 28 3e 20 5b a2 3e
       0.26520392 -0.031410493 0.1650386 0.31710148
000030 07 90 a8 bd 70 b9 59 be 55 45 b7 be 72 0a 10 be
       -0.08230596 -0.21262145 -0.35795084 -0.14066485
000040 11 c8 f6 bd fe 2a af 3c 27 ee b6 3c eb 25 4e be
       -0.120498784 0.021382805 0.022330357 -0.20131652
000050 8c 25 6a 3e d2 06 ee bd ee 45 5a be a4 e7 e9 3d
       0.22865885 -0.116223946 -0.21315739 0.11421135
000060 6b 13 29 bd b0 31 72 3e b3 6a 49 3e 06 4a 2f 3e
       -0.041278284 0.23651767 0.19669609 0.17118081
000070 38 65 9d 3d b5 3d 26 bd d5 2a 18 3d 70 48 3e 3e
       0.076853216 -0.040586192 0.037150223 0.1858232
000080 ab f5 5c be d6 f5 64 bd ad 2b 42 3d 48 bd 0a 3d
       -0.2157809 -0.05589851 0.047404934 0.03387192
000090 34 be d6 3d 2d f4 3b 3e 11 ce 0e 3e ad 4e 87 3c
       0.10485497 0.18354864 0.13945796 0.016517008
0000a0 40 f7 a9 3d 5a ec e6 bd 15 a2 6b 3e 82 a7 81 be
       0.08299112 -0.11275549 0.23011048 -0.2532311
0000b0 98 ad f5 3d e5 c4 75 be a9 0e 81 3e 42 40 af be
       0.11996001 -0.2400089 0.25206497 -0.34228712
0000c0 fb 5a 76 3e 9d c9 99 be e6 e9 8f 3c 92 d7 ad bd
       0.24058144 -0.3003663 0.017567586 -0.084883824
0000d0 60 f5 3e 3e b9 d7 33 be b1 67 3c 3d f6 b1 0e 3e
       0.1864829 -0.1756276 0.045997325 0.13935074
0000e0 9e 31 48 be d8 14 ca bd 62 6e 9a be 47 ac b4 bd
       -0.19550177 -0.09867257 -0.3016234 -0.08821922
0000f0 aa af 09 be bb 87 c6 3d fb 2e 39 3d c7 cc a6 bd
       -0.13445917 0.09693857 0.04521082 -0.08144527
000100 d4 9c 88 bd 19 76 a7 bb 03 2e 47 3d 67 18 47 be
       -0.066705376 -0.005110514 0.048627865 -0.19442903
000110 8c a8 ae be ef 02 60 3c e9 85 a6 bd f7 89 54 3e
       -0.34112966 0.013672574 -0.0813101 0.20755754
000120 be dc 19 3d 12 8f 80 3d 5a 7f 16 3d 42 a4 af 3c
       0.03756403 0.062772885 0.036742546 0.021440629
000130 98 e2 a3 3c 7c cc 87 3e d8 bb 7b 3e 98 87 3d bd
       0.02000551 0.26523197 0.24583375 -0.04627189
000140 84 8d 9f 3d db 91 9a bd be aa 9e 3c 87 45 17 3e
       0.07790664 -0.07547351 0.019368526 0.14772616
000150 61 f1 6a bd b2 00 80 3e 99 9f 49 be 98 85 a1 be
       -0.057359103 0.2500053 -0.19689788 -0.31547236
000160 40 69 cb 3e 06 4e cc bd 79 11 9f 3e 66 cd b9 bc
       0.39728737 -0.09975819 0.31068018 -0.02268095
000170 81 de 2e 3d 38 aa ba be 85 35 fe 3c db 84 1a be
       0.042692665 -0.36457992 0.03103138 -0.15089743
000180 bd 24 f0 3d 73 4f 08 be 05 d5 c6 3d 4a 1b 4d 3e
       0.11725757 -0.13311557 0.09708599 0.20029941
000190 9b dd 55 be 37 b6 cc 3d 55 bb 80 be 65 71 c9 3e
       -0.20885317 0.09995692 -0.25142923 0.39344326
0001a0 b4 20 43 be 58 f3 06 3e 36 01 ac 3d 84 82 1c 3e
       -0.19055444 0.13178766 0.083986685 0.15284163
0001b0 64 f3 1e 3d 75 66 24 3e f4 a4 1a 3e e8 4f 9d be
       0.038806334 0.1605471 0.15101987 -0.30725026
0001c0 b8 24 17 be 66 ce aa 3d 9e 7f db 3c 44 09 90 3e
       -0.14760101 0.08340149 0.026794251 0.2813207
0001d0 ac ea 20 be 20 b2 9c be 7a 68 11 bd 23 39 81 3d
       -0.1571452 -0.3060465 -0.035500027 0.06309726
0001e0 0b 26 92 bc 38 59 a6 3e 4f 0e c6 3d f9 71 d0 bd
       -0.017840406 0.32489944 0.09670698 -0.101779886
0001f0 91 c5 92 3d b3 6f cf 3d 89 5d ae be a9 84 58 bc
       0.07166589 0.10128727 -0.34055737 -0.013215222
000200 11 41 94 bd d6 b6 9d be 41 f7 a8 3c ac e3 42 be
       -0.07238973 -0.30803555 0.020625712 -0.19032162
000210 5c 29 37 be 75 25 99 3d 89 1b aa be a8 d9 6a bd
       -0.17886871 0.074778475 -0.33224133 -0.05733648
000220 9e 9a 47 be 9e 73 7c 3e aa 2e 72 3d 36 3f 76 be
       -0.19492576 0.2465348 0.059126534 -0.2404755
000230 14 d5 62 bd d9 9f 5c 3e ba f9 d3 3c 0d 2b 41 3e
       -0.05537899 0.21545352 0.025875915 0.18864079
000240 b4 b8 26 3e d5 ce f4 3d d8 56 93 3e 22 6e 70 be
       0.16281396 0.119535126 0.28777194 -0.23479512
000250 92 b3 88 be 38 37 ab 3d 47 c2 75 bc ab 15 4c bd
       -0.266995 0.083601415 -0.014999933 -0.04982535
000260 27 df 17 be f1 5d a9 be 31 02 d4 3d 5e bc 50 be
       -0.1483122 -0.33079484 0.103519805 -0.20384356
000270 07 85 65 3e 12 61 89 3c 22 74 8b 3e 4d 7a 96 be
       0.22414027 0.01676992 0.2723704 -0.29390183
000280 16 08 b4 3c 97 17 8b 3d a4 c1 57 3d b3 bc 56 be
       0.021976512 0.06791609 0.052674904 -0.2097042
000290 06 31 cc ba 89 0d 07 3e af 28 17 3e 8f f3 77 be
       -0.0015578575 0.13188757 0.14761613 -0.24214004
0002a0 b1 7c f4 bc 2f ae 8c 3e 3d 14 27 be 39 f8 10 3e
       -0.029844614 0.27476642 -0.16316314 0.1415719
0002b0 57 17 9d bc a7 d5 5e 3e 8b 60 da bb 90 58 47 bd
       -0.019176168 0.2176119 -0.006664341 -0.048668444
0002c0 77 f1 59 bd a0 20 a7 be b1 06 ac bc d8 72 8e be
       -0.053208794 -0.32642078 -0.020999284 -0.27821994
0002d0 34 5a 23 bd 7b b9 a7 bd db ca c8 be eb c9 65 3d
       -0.039880946 -0.081896745 -0.39217266 0.056100767
0002e0 23 88 bb 3e b7 cc f7 bd bd ca 8d bd 7e 40 8f 3e
       0.36627302 -0.12099593 -0.06923435 0.2797889
0002f0 72 df e9 3d 12 01 80 be 5b 0e 11 bd 2b 97 2f be
       0.11419572 -0.25000817 -0.03541408 -0.1714751
000300 07 e2 58 be bd 87 09 3e bc 81 ae bd 43 f6 3f 3e
       -0.21179973 0.13430686 -0.085208386 0.18746285
000310 b4 4f 6a be cc 6b 5c 3d 57 e4 22 3e 69 97 d5 bd
       -0.22881967 0.05381374 0.15907417 -0.1042927
000320 5a be bc 3e 9e c3 9e be 01 2a 40 3e 9e f4 01 be
       0.36863977 -0.3100862 0.18766023 -0.1269097
000330 29 e8 5b 3d 8f c7 61 be 73 32 8f 3e 01 53 56 3e
       0.053688202 -0.22048782 0.27968177 0.20930101
000340 00 50 fd 3d 3f 0f 10 be 3f 42 76 3e 77 fd a9 3d
       0.123687744 -0.14068316 0.24048708 0.08300298
000350 96 c2 83 3e 0b 26 ec bc 16 9d 4a 3c cc 5d 52 3e
       0.25734395 -0.028826734 0.012366554 0.20543593
000360 66 75 72 3c d2 57 df 3d 98 88 11 3e bb bd 31 3e
       0.014798498 0.10905422 0.14212263 0.17357533
000370 03 dc b8 bd 1c 7e a6 bd 44 31 67 be 1d e1 6a 3e
       -0.09026339 -0.08129522 -0.22577387 0.22937436
000380 dc 43 84 be e1 23 62 3e f7 39 27 bd a5 22 20 be
       -0.25833023 0.22083999 -0.040826764 -0.15638216
000390 dc 45 a9 3e 44 2c 83 be 23 38 97 3e de b1 97 3e
       0.3306111 -0.2561971 0.29535016 0.2962789
0003a0 aa 5b da bd 4f f4 1b 3e 26 71 2e 3d 1f 79 8d be
       -0.10662015 0.15229915 0.042588376 -0.2763147
0003b0 5b 02 65 be eb 1a 8e 3e b4 66 92 be 4e 93 21 3d
       -0.2236418 0.27754912 -0.2859398 0.03944712
0003c0 32 99 38 3d 7e d3 ab be 93 8d 38 3e 4a fa 2a be
       0.045067973 -0.33559793 0.18022756 -0.1669704
0003d0 e8 b2 42 bc ab ef 8e 3e f0 19 9c be 41 d8 b0 3d
       -0.011883475 0.27917227 -0.3048854 0.08634997
0003e0 21 96 a1 be d7 81 9c be 47 40 00 3e e4 36 20 be
       -0.31559852 -0.3056781 0.1252452 -0.15645939
0003f0 6f 32 a9 bd b5 c1 62 3e 68 97 49 3e 9e 55 c9 3d
       -0.082615726 0.22144206 0.19686663 0.09830783

fc.0.bias f4 [256]
000000 a0 09 e6 bc 7f 8d 88 bd 56 50 b0 3e b6 52 71 3d
       -0.028080761 -0.06667613 0.3443629 0.05891677
000010 c9 f6 b0 3a d6 05 9b 3d 38 52 f3 bc bd 0d aa 3e
       0.0013501282 0.075694725 -0.02970229 0.33213606
000020 4e ac 2a 3e 5f b0 6f 3e d2 8c 50 3e 2c fa d2 3d
       0.16667292 0.23407124 0.20366219 0.10301623
000030 39 e3 a2 3e d7 85 cf 3e dd c4 c0 3e a3 d3 5b 3e
       0.31813982 0.405318 0.37650195 0.21467452
000040 f8 7c 07 bd dd 98 5d 3d 0a f1 dd 3d 70 6b 8d 3c
       -0.033078164 0.05410086 0.1083699 0.017263144
000050 ec 3f 46 3e 5c 82 59 3e bc 3c 79 3e ac 70 91 3e
       0.19360322 0.21241134 0.24339575 0.28406274
000060 d1 e7 be 3d 01 c4 65 3d 2c 84 c4 3d bd 1e 01 3d
       0.09321559 0.056095127 0.09595522 0.031523455
000070 74 bd a3 3d 17 33 92 3e 29 07 88 3e e6 ae 3d 3e
       0.0799512 0.28554603 0.26567963 0.1852375
000080 d0 8c 2d 3e e5 eb 45 3e 1b c4 c7 3e 30 2f 07 3e
       0.16948247 0.19328268 0.39016804 0.13201594
000090 33 62 d2 3d 2b 4a 8e bd d4 b2 bf 3d c8 73 38 3e
       0.10272636 -0.0694774 0.09360281 0.18012917
0000a0 d3 85 38 3e 05 83 fe bc 29 b8 e1 bb 4b bc 0b bd
       0.180198 -0.031068334 -0.0068884087 -0.034115117
0000b0 09 6a 92 3e 68 ce 61 3e fd 44 02 bd 4b d3 f7 bb
       0.28596523 0.22051394 -0.031804074 -0.00756303
0000c0 90 9d a0 3e 7c 12 8d 3e 31 39 c9 3d c1 7e 1b bc
       0.3137021 0.27553165 0.098253615 -0.00949067
0000d0 54 e3 7e 3e 83 96 b6 3e 2d f7 bb 3d b1 7f 8d 3e
       0.24891406 0.35661706 0.091780044 0.27636483
0000e0 e9 7a 1f 3d a8 b4 40 3e 5d fd bc 3e b9 fb 37 bd
       0.038935576 0.18818915 0.3691205 -0.044917796
0000f0 8e cd a9 3e 38 7b bb 3e dd bb 09 3e b5 8d b9 bc
       0.33164638 0.36617446 0.1345057 -0.022650579
000100 f4 73 9a bc ce ff 8a 3d c2 fa a8 3d 58 17 d5 bc
       -0.018854119 0.06787072 0.08250953 -0.026012108
000110 87 4f 46 3e 82 f3 29 3e 77 d8 7b 3d 09 ab 0d bd
       0.19366275 0.16596797 0.061485734 -0.03458694
000120 00 37 7b 3d 50 14 ae 3d 3d d4 50 bd 77 8c 02 3e
       0.06133175 0.08499968 -0.050983656 0.12748896
000130 7a 00 2f 3e 26 14 b5 3e bb 37 dc 3d 95 75 07 3e
       0.17090026 0.35366935 0.10752817 0.13228448
000140 c7 9f f5 3d 3d 23 06 bd 55 7b ca bd fc 62 47 3e
       0.11993366 -0.03274845 -0.09886805 0.19471353
000150 66 1d 3b 3e ba be a7 3e c1 65 a6 3e ce 42 d7 bc
       0.18272933 0.327627 0.32499507 -0.026276972
000160 98 82 bc 3e 82 ee ee 3d 25 66 e5 3c 90 f4 79 3e
       0.36818385 0.116665855 0.028002808 0.244097
000170 66 87 d1 3d 31 59 a8 3e 2e 9f 8d 3e 24 3b 51 3d
       0.10230903 0.32880548 0.27660507 0.05108179
000180 18 a6 b8 3e b9 94 14 3e b4 de 4f 3e 61 ba 92 3c
       0.3606422 0.14509858 0.20299798 0.017911138
000190 c4 c1 06 3e 28 9c 71 3e b3 ae 02 3e b8 28 41 3d
       0.13159853 0.23594725 0.12761955 0.047157973
0001a0 36 bb bd 3d f2 5b af 3e 5e 24 4f 3d 7f 74 ef bc
       0.09264223 0.34249836 0.05057179 -0.029230354
0001b0 87 35 05 bd a7 67 a2 3c 7d fd 61 3e 99 60 89 bb
       -0.03252175 0.019824816 0.22069354 -0.0041924235
0001c0 0e 89 e8 3c b8 8b 9d 3e b7 dd b0 3e 9d 9e bb 3e
       0.028385665 0.3077066 0.34544155 0.3664445
0001d0 e2 e7 83 bc c9 44 73 3e 08 ba f6 3d 2d ec 2d 3d
       -0.016101781 0.23756708 0.120472014 0.042461563
0001e0 66 6b 7b 3e 9b 67 a2 3e 11 dd 98 3e 65 b5 a6 3e
       0.24552688 0.3171967 0.2985616 0.32560268
0001f0 49 03 84 3d fd 4a 96 3e f2 df b2 3e ea 89 97 3e
       0.06445939 0.29354087 0.34936482 0.29597408
000200 10 c2 0c 3e ab 39 33 3e 59 db 45 3e 15 1c 7e 3e
       0.13745904 0.17502467 0.19321956 0.248154
000210 13 76 b2 3e 7a 42 95 bd 4f 2f 88 3e ff 7f 9a 3e
       0.34855708 -0.0728807 0.26598594 0.30175778
000220 bc 04 af 3e 8b e9 f2 3a 6e f9 2a 3e f2 41 c4 bb
       0.341833 0.0018532736 0.16696712 -0.0059893066
000230 96 e4 5a 3e 80 07 9c 3e 3b 30 80 3e a8 e6 29 bd
       0.21376261 0.30474472 0.25036797 -0.041479737
000240 81 ea b1 3e 7f 58 83 3d ab 21 8b 3e 8a 77 95 bd
       0.34749225 0.06413364 0.27174124 -0.07298191
000250 29 65 08 3d 70 5f af 3e 0b dc f5 3d ce af b0 3e
       0.0332996 0.342525 0.120048605 0.34509128
000260 52 1a 5b 3e 12 56 83 3e ed 9d f1 bc 1e 49 f7 3d
       0.21396759 0.25651604 -0.02949425 0.12074493
000270 4d a7 be 3d d0 61 25 3d 94 d8 e8 3d db 39 3c 3e
       0.09309254 0.040376484 0.11369434 0.18381445
000280 ca 1b a5 3e 17 47 b6 3e 47 5b 49 3e 51 f9 08 3e
       0.32247764 0.35601112 0.19663726 0.13376357
000290 c4 43 10 3d 3a 82 3d 3e a9 04 36 3d 6e d4 3b 3d
       0.035220876 0.18506709 0.044438038 0.045856886
0002a0 1a da 09 3e 0e 03 69 3e 60 9d fb bc 5d b6 07 3e
       0.13462105 0.22755072 -0.03071469 0.1325316
0002b0 92 be b4 3d 99 b5 89 3d 85 e8 75 3e ca c1 31 3d
       0.08825411 0.0672409 0.2401448 0.043397702
0002c0 c8 b6 2f 3e c8 12 7b 3e 46 f3 c0 3e 37 6c 4a 3d
       0.1715957 0.24518883 0.37685603 0.049419608
0002d0 57 b5 5e bd df b1 64 3e ca df f4 bc 1b ae 46 3e
       -0.054372158 0.22333477 -0.029891867 0.19402353
0002e0 f3 cc 5e 3e c5 81 a4 3e 29 b7 28 3d 55 b7 1a 3e
       0.2175787 0.32130256 0.0411903 0.15108998
0002f0 62 10 18 3e 6c e2 00 3e 53 75 b2 3e 24 bd 34 bd
       0.1485 0.12586373 0.34855136 -0.04412569
000300 59 b6 ce 3d 44 22 93 3d bd a8 9d 3d f4 d3 32 bc
       0.10093374 0.0718427 0.076982 -0.010914791
000310 75 fc 5d 3e cc 42 83 3d 72 0d c6 bc 87 e2 04 bd
       0.21678336 0.06409225 -0.024176333 -0.032442596
000320 23 cf 7b 3e 66 70 5e bd 15 19 8e 3e 3c 79 15 3d
       0.24590735 -0.05430641 0.2775351 0.03649257
000330 8d 69 43 3e 7d 90 2c 3e d4 ee 10 3e 15 53 96 3d
       0.19083233 0.16851993 0.14153606 0.073400654
000340 33 66 79 3c 58 bd 27 bd 85 4e 9b 3e 18 e4 00 3e
       0.01522212 -0.040952057 0.30333343 0.12587011
000350 64 e7 39 3e 6c 55 82 3e 66 2a 87 3e 3d 02 d7 3d
       0.18154675 0.25455797 0.26399535 0.10498474
000360 c4 92 8a 3e b4 b8 3a bc e9 7f 7b 3e a0 ec 1c 3e
       0.27065098 -0.011396576 0.24560513 0.1532464
000370 4e a1 eb 3c 77 61 44 3e 0c 01 37 3e 48 4d 94 3e
       0.02876344 0.19177805 0.17871493 0.2896521
000380 49 05 72 3d 6c 35 6e 3e 31 db 1a 3e 73 05 b1 3c
       0.05908707 0.23262566 0.15122677 0.021609044
000390 cd 2a 84 3e 92 0c 85 3e d0 d5 96 3e 88 39 01 bd
       0.25813904 0.25986153 0.2946 -0.031549007
0003a0 33 fa 63 3d de 3b c1 3e fe 55 3f bb ae e0 00 3e
       0.05565853 0.37740988 -0.0029195542 0.12585708
0003b0 70 53 3d bc 57 53 88 3e 9f 1c 4e 3e f9 3c 77 3e
       -0.011555538 0.26626083 0.20128106 0.24144353
0003c0 a4 c5 81 3e e8 86 37 3e 93 b1 0c 3e cb 4b 83 bd
       0.253461 0.17922556 0.13739614 -0.06410941
0003d0 6a 6f 9f 3d 62 a2 6b 3d 94 35 9b 3d 79 88 8a 3b
       0.077849224 0.057527907 0.075785786 0.0042276946
0003e0 2e 91 52 3e 34 e2 65 3e d4 0a 84 bd 6f b8 19 3e
       0.20563194 0.22449571 -0.06447378 0.15011762
0003f0 a8 c7 21 3e 68 6e 53 3d 1a 6b 9c bd 43 11 5b bb
       0.15798819 0.051618963 -0.076376155 -0.0033427037

fc.2.weight f4 [128, 256]
000000 bd 53 86 3d 0e 38 8e bc ae d0 34 bc d3 07 c7 3d
       0.065589406 -0.017360713 -0.011036081 0.09718289
000010 74 cc 69 bd 69 09 6d 3d 2a a4 bc 3d c2 43 8a bd
       -0.057079747 0.057870302 0.09210999 -0.06751205
000020 33 5a fd 3d 29 09 f2 bb 1b 8e 09 3e 96 92 ff 3d
       0.1237072 -0.007386346 0.13433115 0.12479131
000030 e8 03 8b bd 64 ea e1 3d 8e e6 6f 3d 86 61 7a 3d
       -0.067878544 0.110310346 0.058569483 0.06112816
000040 06 50 ba 3d d3 2e d8 bd 14 4d 81 bd e1 7e 8e bd
       0.090972945 -0.10555806 -0.063135296 -0.06957794
000050 68 ff 5a b9 c4 b7 15 3e 18 e0 16 3e 6c ad 0e 3e
       -0.00020885246 0.14620882 0.14733922 0.13933343
000060 33 3b 37 3e 85 1f 16 3d 0a 89 cc bc 6d 44 8f bd
       0.17893676 0.036651153 -0.024967689 -0.06995473
000070 78 44 3e bd 1d 90 63 bd 58 49 d1 bd 65 15 0e be
       -0.046452016 -0.05555736 -0.10219067 -0.13875349
000080 d3 fd 93 bc f3 9f 77 3d 83 36 cc 3d 28 cc e2 3d
       -0.018065369 0.060455274 0.09971335 0.11074096
000090 63 88 27 bc e8 56 da 3d e7 19 fb 3d 98 a6 26 3e
       -0.010225388 0.10661107 0.122608 0.16274488
0000a0 44 74 20 3e 34 23 6d bc 04 ff 90 3d 87 3a 02 3e
       0.15669352 -0.014473725 0.0707989 0.12717639
0000b0 2f d5 90 3d 63 07 6a 3d f6 b0 ec 3d f3 9b b1 bd
       0.070719115 0.05713595 0.1155719 -0.08672323
0000c0 34 00 08 3e 4c ed 3c bd 7c c4 09 3e 80 bb be 3c
       0.13281327 -0.04612474 0.13453859 0.023282766
0000d0 10 58 83 3d d6 1e ee bd a6 06 03 3e 82 54 e4 bd
       0.06413281 -0.11626975 0.12795505 -0.11148931
0000e0 1c ac 04 bd 21 bf b6 3d 80 d2 4a 3d 94 84 fc bb
       -0.0323907 0.08923174 0.049517155 -0.007706234
0000f0 07 fd 9f 3d de e7 87 bd 85 da bd bd f7 ef 0a 3e
       0.07811933 -0.06636022 -0.09270195 0.13568102
000100 ff 03 28 bd 48 a5 a1 3d 7a 6c f6 bc 9b db 2c 3e
       -0.041019436 0.07892853 -0.030081023 0.16880648
000110 55 90 90 3d 9c 36 15 3e 96 fc 8b 3d ad 4e 73 3c
       0.07058779 0.14571613 0.06835286 0.014850301
000120 0a 23 93 bd cb 4d 2c bd 0c 84 ae bd 94 05 ba bc
       -0.071844175 -0.042066377 -0.0852128 -0.022707738
000130 6c 57 d3 3d f9 e7 93 bc 9a 63 fb 3d 08 15 eb bd
       0.10319409 -0.01805495 0.12274857 -0.11478621
000140 83 d2 90 bd e5 6f 01 3e c1 15 38 bd 7e 28 b6 bd
       -0.07071402 0.1264034 -0.04494262 -0.08894442
000150 6a 19 1a be 44 e7 37 bc b1 ff 24 3e 64 3d 88 bd
       -0.15048757 -0.011224572 0.16113164 -0.06652334
000160 57 7e 6d 3d f3 7b 08 3e 15 e6 bc 3c 19 b0 27 3e
       0.057981815 0.13328533 0.02305893 0.1637577
000170 de 5c b3 bc 44 f4 28 3d 88 1e 12 3e 4a 45 ef bc
       -0.021894868 0.041248575 0.14269459 -0.029207844
000180 f1 b0 10 3e 2a 68 a3 3d 5c fc 69 bd bd 61 a3 3d
       0.14129998 0.07978852 -0.057125434 0.079776265
000190 a2 65 eb 3d 17 c0 4a 3d af d7 c5 3d 31 a8 e7 3d
       0.11493994 0.049499597 0.09660279 0.11311377
0001a0 36 6e 10 be ee 21 9d 3d ae ed a6 bd bd bb d6 bd
       -0.14104542 0.07672487 -0.081508026 -0.10485027
0001b0 04 0b c1 3d 2b 56 e6 bb 8d 3a 44 bd 15 03 0d 3e
       0.09425929 -0.007029315 -0.0479074 0.13770707
0001c0 bf 97 8e 3d 91 80 c3 3d 5f 63 f1 bd c1 31 1e 3e
       0.06962537 0.095460065 -0.11786532 0.15448667
0001d0 dc 6b 2a 3e 1f c7 a6 bd e7 af bb bd 73 f8 8e bb
       0.16642708 -0.08143448 -0.0916441 -0.0043631135
0001e0 ff 53 76 bd 52 da fa 3d ae 46 d7 3d d1 f9 c2 3a
       -0.0601387 0.122486725 0.10511528 0.0014875476
0001f0 7c 9e 1d be ab cb 92 3d 09 26 e2 3c 6c bb 33 bd
       -0.15392488 0.07167753 0.027606027 -0.04387991
000200 52 fa 97 bd 88 fb 64 bd e9 b4 17 3e 5e dd ad 3d
       -0.07420792 -0.05590394 0.14815105 0.08489488
000210 b0 3a b7 3d a3 86 1c 3e 15 12 49 bd d5 7d fe bc
       0.089467406 0.15285735 -0.04908951 -0.03106586
000220 14 ea 0c 3e 72 ba 56 bd 66 4e c9 3d 42 b0 e9 bd
       0.13761169 -0.0524239 0.098294064 -0.11410572
000230 45 2c 1b 3e 71 15 32 3e 04 bb 1a 3e 77 ed 85 3d
       0.15153606 0.17390992 0.15110403 0.065394334
000240 1a 44 8e bd 1d 40 41 bd 18 f1 3e bd 58 34 98 3d
       -0.06946583 -0.047180284 -0.046616644 0.07431859
000250 0f 7b be 3d 87 ab c2 bd e2 63 8e bc f8 8b eb 3d
       0.09300815 -0.095053725 -0.017381612 0.11501306
000260 60 af a8 3d 8f ce 57 3d 5d 53 02 bd cf 33 79 bd
       0.08236575 0.052687224 -0.031817783 -0.060840424
000270 4e 6a 37 3d 7f 0a 05 3e fc 69 a1 3d a6 37 c8 3d
       0.044779114 0.12992285 0.07881543 0.09776239
000280 bc 86 25 3e 5e 79 a5 3d 00 a8 31 bc d6 d6 a6 bb
       0.16164678 0.080797896 -0.010843277 -0.0050915284
000290 ff 9e 87 bb d9 e7 07 3e 6a 39 3c bd 45 e4 dc bd
       -0.004138827 0.13272037 -0.04595319 -0.107857265
0002a0 4b f9 b4 3d 11 4b 65 3d eb 4b 85 3d e0 03 0d 3e
       0.08836611 0.055979792 0.06508621 0.1377101
0002b0 8e b0 2e bd dc 28 17 3e 12 5e 83 3d 44 3c b1 3d
       -0.042648844 0.1476168 0.06414427 0.08654073
0002c0 b8 46 0a bd 41 2a a0 bd 4c 9f 1c be c1 4c cc bd
       -0.03375885 -0.07820559 -0.15295142 -0.09975577
0002d0 87 35 08 3e ff 07 a7 3d c8 aa fb 3d 27 28 13 3e
       0.13301669 0.08155822 0.12288433 0.14370786
0002e0 de dd 95 3d 00 50 8a bd ac fd 28 3e 1d 33 bc bd
       0.073177084 -0.0675354 0.16503018 -0.091894366
0002f0 82 79 0a 3e 64 e5 db 3d fd 9e d0 3d b1 c8 3e bd
       0.13522914 0.10737112 0.101865746 -0.046578113
000300 b9 89 b8 3d 0d a2 62 3d 94 55 b1 3d 65 c2 f2 bc
       0.090106435 0.055330325 0.08658901 -0.02963371
000310 e9 ca 66 3d b9 d8 e4 bd 4a 7f e0 bd d7 09 05 3e
       0.056345854 -0.11174149 -0.109617785 0.12992035
000320 b6 7a be bd 86 19 1e bd b0 db 89 bc d8 15 d4 bd
       -0.09300749 -0.03859856 -0.016828388 -0.10355729
000330 29 28 0d be ea 32 8c bc 7f 3f 07 3c d7 49 75 bc
       -0.13784851 -0.017114121 0.008254885 -0.014971218
000340 69 bf 83 3d 61 18 1c 3e 04 82 6c bd b0 d0 9e bd
       0.06432993 0.15243675 -0.05774118 -0.07754648
000350 b8 e7 8b 3d 4e 72 de 3d 35 a2 6f 3c 7a e8 17 3e
       0.06831306 0.10861646 0.0146260755 0.14834777
000360 f4 cf 11 be 1e 06 cc bd b4 02 0d 3e 00 ba dd bd
       -0.14239484 -0.09962104 0.13770562 -0.10826492
000370 66 41 06 3e c1 b5 2f 39 32 9a d6 bb cd 75 e2 3d
       0.13110885 0.00016757009 -0.006549143 0.11057625
000380 03 31 04 3e f5 d1 16 be 90 2c a3 3d 1f 61 4a 3d
       0.12909321 -0.1472853 0.07967484 0.04940903
000390 5e e2 90 bd c4 4a d8 3d 0d f1 1f 3e 68 e2 13 bd
       -0.07074426 0.105611354 0.15619297 -0.03610459
0003a0 c1 3e 87 3d a6 08 61 bd 06 ce 2d 3e 9d 5a e7 3d
       0.06603766 -0.05493989 0.16973123 0.1129658
0003b0 71 56 fa 3d 46 a3 d6 3d 4f 60 d2 3d 5e d5 19 3e
       0.12223519 0.10480361 0.10272276 0.150228
0003c0 ac 99 ff 3d e9 84 39 bc fa 4e d1 3d 55 24 e0 3d
       0.124804825 -0.011323192 0.10220142 0.1094443
0003d0 a2 dd 0a be 39 02 87 3d 9d 3f f5 bd af 35 b8 bd
       -0.13561109 0.06592221 -0.11975024 -0.08994614
0003e0 27 61 9f bd 25 73 39 ba 2a 07 c3 3d bf b8 b5 bd
       -0.07782202 -0.0007074348 0.09522851 -0.08873128
0003f0 64 2e 29 3e a6 0b 15 ba de 2a 04 3e 37 e6 eb 3d
       0.16521603 -0.00056856347 0.12906978 0.11518519

fc.2.bias f4 [128]
000000 ee 58 a7 3d 08 dd cb 3d de 4c 54 3d 3a 04 d7 3d
       0.08171259 0.09954268 0.05183112 0.10498853
000010 cd 78 3c 3d 9f dc ae 3d 2f 3f 59 3d 07 27 73 3d
       0.046013642 0.08538174 0.053038772 0.05936339
000020 7e 47 15 3e 5c 47 8c 3d dc fc 17 3e 75 8b b9 3d
       0.14578053 0.06849548 0.14842552 0.090598024
000030 0e 8b 21 3e 3c de 16 3d ef 1b c9 3d 34 94 af 3d
       0.15775701 0.036833033 0.09819781 0.085731894
000040 e5 f1 26 3e 88 21 4a 3d f1 15 07 3e 0d 04 fa 3d
       0.16303213 0.049348384 0.13191964 0.12207804
000050 b3 68 32 3e 02 6c 27 bd 19 65 4b 3d 2c da 70 3e
       0.17422752 -0.04087449 0.04965696 0.23520726
000060 47 d1 13 bc a1 e3 13 3c 63 1c 24 3e 48 bc ab 3d
       -0.009022064 0.009026439 0.16026454 0.08385521
000070 ae f8 39 3e 7b c4 80 3d a9 ff 11 3e 49 c4 00 3e
       0.1816127 0.06287476 0.14257683 0.12574877
000080 43 25 ab 3d 59 76 2d 3d 32 f6 15 3e 52 00 e8 3d
       0.083567165 0.042349193 0.14644697 0.11328186
000090 ae 13 77 3d 51 11 a7 3d 62 58 5f 3d d5 51 45 3d
       0.060321502 0.081576 0.054527648 0.048173744
0000a0 36 6e 50 3d c2 c5 9f 3d e5 b2 b7 3d b1 d8 19 3b
       0.050886355 0.07801391 0.08969668 0.0023475105
0000b0 20 bc 20 3e 40 f2 f3 3d 45 e3 2f 3e 24 7b 2a 3e
       0.15696764 0.1191144 0.1717654 0.16648537
0000c0 1d 17 18 3e b2 3e b3 3a 32 cb ff 3d 4a 92 24 3e
       0.14852567 0.0013675301 0.12489928 0.1607143
0000d0 d2 9b b4 3d 61 ea 7e 3d a7 41 21 3e cd ac 49 3d
       0.08818783 0.06223524 0.157477 0.04923706
0000e0 d8 0d 04 3e 04 e8 8d 3d fe 49 5d 3d 87 77 06 3e
       0.12895906 0.06929019 0.054025643 0.13131534
0000f0 4d 79 fb bb 79 88 8e 3d 31 d6 27 3e e8 65 fe 3d
       -0.0076743723 0.06959624 0.16390301 0.12421781
000100 14 50 b7 3d 0a 3a 1d 3e bb f6 9e 3d 45 42 1e 3e
       0.089508206 0.15354171 0.07761904 0.15454967
000110 d5 cd 95 3d 56 66 bc 3d 9c eb a8 3d 6e 26 18 3e
       0.0731465 0.091992065 0.08248064 0.1485841
000120 07 1b 0a 3e af 0f 42 3e 23 6f 18 3e 35 36 1b 3d
       0.13486873 0.18951295 0.14886145 0.037893493
000130 ad 63 07 3e 09 77 18 3d 65 b4 8c 3c ef 97 aa 3d
       0.13221617 0.037222896 0.017175863 0.0832976
000140 da ba 98 3d a5 26 da bc 18 d5 91 3d af 6a 36 3d
       0.07457514 -0.026629755 0.071207225 0.044535335
000150 2e 32 5f 3d 74 0c 3f 3d e7 57 82 bd af 2a a9 3d
       0.054491214 0.046642736 -0.06364422 0.082600944
000160 98 5d ec 3d b4 85 10 3e a4 7d b6 39 14 d4 ae 3c
       0.11541289 0.14113504 0.00034807355 0.021341361
000170 de 89 5d 3d b4 c2 c1 3d db 44 23 bd 40 09 e6 3d
       0.05408656 0.09460965 -0.039860588 0.11232233
000180 c7 ec be 3d 55 0f 81 3c b5 31 0e 3d 33 11 11 3e
       0.093225054 0.015754381 0.034715373 0.14166717
000190 e1 ae f2 3d 9f 37 9a 3d c5 67 73 3d 6d 01 11 3d
       0.11849762 0.0753014 0.059425134 0.03540175
0001a0 99 52 2e 3e dd c5 44 3c 3a 1c ba 3d 48 c5 ab 3d
       0.17023696 0.012010065 0.09087415 0.08387238
0001b0 ef fc 4d bd bb 56 fd 3d 74 29 36 3e 00 d7 e2 3d
       -0.050290044 0.12370058 0.1778925 0.11076164
0001c0 cb 42 b6 3d 80 8e 0e 3e a8 a8 0f 3e 0b e2 66 3d
       0.088994585 0.13921547 0.14029181 0.056367915
0001d0 d2 68 0e 3e c7 a8 13 3e a0 39 a2 3d 03 52 c1 3d
       0.13907173 0.14419852 0.07921147 0.094394706
0001e0 5d 14 13 3e 46 dc cb 3d 48 f6 3c 3e c5 ed 19 bd
       0.14363237 0.09954123 0.18453324 -0.03758027
0001f0 48 02 fc 3d fc d2 ce 3d dd f3 23 3c c2 c6 90 3b
       0.123051226 0.10098836 0.010006872 0.004418225

fc.4.weight f4 [9, 128]
000000 f1 1e 48 3e 13 74 37 3e 81 c7 35 3e df b4 a0 3d
       0.19543053 0.17915373 0.17751886 0.078469984
000010 bd a3 07 3e ab 23 1a 3e e5 49 43 3e 25 fb 32 3e
       0.13246055 0.15052669 0.19071157 0.17478617
000020 2f 69 f9 3d a7 04 4f 3e 5d fb 3e 3e d5 6a 06 3e
       0.12178265 0.20216618 0.18650575 0.1312669
000030 8c 0b 80 3d 47 e6 47 3d a2 9a 26 3e fb 42 20 3e
       0.062522024 0.048803594 0.16269925 0.15650551
000040 5f 70 7a 3d 36 af 95 3d 2a c8 ad 3d ff 69 32 3e
       0.06114232 0.073088095 0.08485444 0.17423247
000050 90 2d e3 3d ba c2 a0 3c bc a7 e7 3d 0c 7c 0c 3e
       0.11092675 0.019624103 0.1131129 0.13719195
000060 96 a6 28 bc df 39 2c 3d 1f 91 4b 3d 2c be a1 3d
       -0.010293623 0.042047378 0.049698945 0.078976005
000070 8d ec c4 3d fd fa 41 3e 58 1b 0b 3e 6f c8 3e 3d
       0.09615431 0.189434 0.1358465 0.046577867
000080 4c b8 bd 3d ad 96 56 bd 8e 63 2d 3e fa 01 21 3e
       0.092636675 -0.05238979 0.16932508 0.1572341
000090 3b f4 71 3d ee ca 09 3e 0b ec 88 3d 90 6d 46 3d
       0.059070807 0.13456318 0.066856466 0.04844433
0000a0 9b c6 2b 3e 42 87 99 3c 87 08 d4 3d 65 74 2e bc
       0.1677498 0.018741254 0.10353189 -0.010647868
0000b0 2c 2c 25 3e fe 71 32 3e ae 46 06 3e 9b 9f 0d 3e
       0.16130131 0.17426297 0.131129 0.13830416
0000c0 aa 7a 1d 3e 3b 69 8b 3d 84 b0 3c 3e 02 df 0d 3e
       0.15378824 0.068071805 0.1842671 0.13854602
0000d0 c9 a5 8b 3d 16 0d 1e 3d 7a 56 be 3d 9d 4c 52 3e
       0.068187304 0.0385867 0.09293838 0.20537038
0000e0 e6 ab 8d 3d 33 b2 4d 3e 88 09 07 3d be 4b 10 3e
       0.06917553 0.20087509 0.032968074 0.14091393
0000f0 59 5e 9a 3d 46 b7 bf 3d ca de 26 3e ac 1a 43 3e
       0.07537527 0.093611285 0.16295925 0.19053143
000100 4c 2d 05 3e 2c fa f7 3d 24 2f 33 3e 58 14 8f 3d
       0.1300556 0.121082634 0.17498451 0.06986302
000110 13 46 32 3e 2e 63 02 3e a1 bd 16 3e 02 38 33 3e
       0.17409544 0.12733147 0.14720775 0.17501834
000120 65 e4 f4 3d c8 ba 9c 3d 91 56 00 3e ac 26 55 3d
       0.11957625 0.07652813 0.12533022 0.052038833
000130 cd 0f 4b 3e e1 40 f9 3d 49 0c 6e 3d 44 37 f0 3d
       0.19830246 0.12170578 0.058117185 0.11729291
000140 bd 44 ac 3d 03 30 97 bd bb 1f 94 bd 02 dd c6 3b
       0.08411548 -0.073822044 -0.072326146 0.0060688267
000150 8e ea 12 3e c2 da 40 3e 0b 90 a2 bc 5a eb fa 3c
       0.14347288 0.1883345 -0.019844076 0.030629802
000160 a3 60 db 3d 93 4c 81 3d 11 7a 3a 3a 2e ff 0f 3e
       0.10711791 0.063134335 0.0007113526 0.14062187
000170 b1 79 9a bd 92 e7 14 3e 7e 1f 64 bd e8 d7 b9 3d
       -0.07542742 0.14541462 -0.055694096 0.09074384
000180 4d b3 b3 3d 99 ff 36 3e d3 4a ae 3d 85 18 43 3e
       0.08774433 0.1787094 0.08510365 0.19052322
000190 7f bf 43 3e df dc 9b 3d 44 21 d9 3d 05 a0 76 bd
       0.19116019 0.07610487 0.10602048 -0.0602112
0001a0 da 01 08 3e 95 3c 29 3e 9f 3d 1e 3e 4a 01 5e 3d
       0.13281956 0.16527016 0.15453194 0.054200448
0001b0 a5 1e 8b 3d 8a dd 10 3e 54 ee b2 3d 09 0b 24 3e
       0.06792954 0.1414701 0.08736864 0.16019835
0001c0 3b 8c 29 3e 8a ef 17 3e 4d 77 4e 3e dd 37 1b 3e
       0.165574 0.1483747 0.20162697 0.15158029
0001d0 a3 dd 48 3e 18 9e 3b 3d 89 0b c3 3d b6 9f 8c 3d
       0.19615798 0.045805067 0.095236845 0.068664
0001e0 72 f9 25 3e d1 fa 17 3d e9 67 fa 3d f2 d5 02 be
       0.16208437 0.03710443 0.122268505 -0.12776926
0001f0 41 7b 30 3e e7 48 47 3e 49 b5 6d 3c 30 73 e4 bb
       0.17234518 0.19461404 0.014508554 -0.006971739
000200 89 e1 0a be 3b 07 44 3e e8 84 26 3e 00 6e 26 3e
       -0.13562597 0.19143383 0.16261637 0.16252899
000210 cd d4 2a be 01 88 75 be 25 b5 03 3e ec fc 86 3e
       -0.1668274 -0.23977663 0.1286207 0.2636484
000220 fe ee 44 3e 20 81 6b 3e 2e dc 01 3e a5 bd 25 3e
       0.19231793 0.22998476 0.12681648 0.16185625
000230 7c 60 e9 3d 3c fe 72 bd a0 2e 51 be 5f 26 56 3e
       0.11395356 -0.059324488 -0.20427942 0.20913075
000240 a2 43 e9 3d 9e f1 24 be c7 eb 40 be 88 d7 43 3e
       0.11389853 -0.16107795 -0.18839942 0.19125187
000250 63 2e 24 3e 79 33 f4 bd 35 5b 26 be cf 2c 47 3e
       0.1603332 -0.1192388 -0.1624573 0.19450687
000260 72 fb 00 3e e7 dd ac bc 91 9b 44 be ee e8 d4 3d
       0.12595919 -0.021101905 -0.19199969 0.1039599
000270 a4 c3 0b 3e 5a 76 1f 3e 19 c6 44 3e cc 35 0d 3e
       0.1364885 0.15572491 0.19216193 0.13790053
000280 ef 6b 44 3d 0b 6a aa bd 09 f3 15 3e d7 11 10 bd
       0.047954496 -0.08321007 0.14643492 -0.035173263
000290 e1 fe d7 3d a2 73 18 be 9e f1 07 be 43 aa 4a 3e
       0.10546661 -0.1488786 -0.13275763 0.19791512
0002a0 4c b6 4a be 8a 90 0b be 86 12 82 3c 14 b2 bc 3c
       -0.19796103 -0.13629356 0.015877973 0.023034133
0002b0 15 41 7a 3e 36 d8 d6 bd ea 97 77 3e e9 3a 48 3e
       0.2443889 -0.10490458 0.24179044 0.19553722
0002c0 b4 ef 27 3e 93 fa 9d bd 04 fb f8 3d 43 a2 3a 3e
       0.16400033 -0.07713809 0.121572524 0.1822596
0002d0 f7 18 22 be 02 a4 b6 3d 32 db 14 3e e4 c2 7a 3e
       -0.15829836 0.08918001 0.14536741 0.24488407
0002e0 44 8e 92 3d d6 13 74 3e 4a 13 92 3d dc b4 a9 bd
       0.07156041 0.23835692 0.07132585 -0.08286449
0002f0 8d fc ee 3d 47 e1 60 3e f4 4d 0f 3e 83 c0 d6 3d
       0.11669264 0.21960936 0.1399458 0.104859374
000300 6c e6 35 3e 92 c3 57 3e 74 80 33 be 7f f6 46 3e
       0.1776368 0.21070698 -0.1752947 0.19429968
000310 3e bf 1e be 2a d5 fd 3d a7 3c 40 be f6 5d 83 3e
       -0.1550264 0.123941734 -0.18773137 0.25657624
000320 46 c2 4a 3e de af 19 3e 98 35 43 3e 32 63 42 3e
       0.19800672 0.15008494 0.19063413 0.18983153
000330 2c 57 53 be f7 f4 23 3e 9e 54 1b be 3c 16 79 3e
       -0.20638722 0.16011415 -0.15168998 0.24324888
000340 52 6a 7d 3c 8e 21 32 bd f8 cd 14 3d 4e 07 18 be
       0.015467243 -0.04348903 0.03632924 -0.14846537
000350 38 b7 36 3e fe 68 70 3e dc 34 26 bc 70 b0 b0 3d
       0.1784333 0.23477551 -0.010144439 0.08627403
000360 c3 11 84 3e a5 60 77 3e de 36 1f 3d 1a 68 8f bd
       0.257948 0.2415796 0.038870685 -0.07002278
000370 a7 ba 77 bd e1 d3 26 3e 09 38 70 bd 67 21 6b 3e
       -0.06048074 0.16291763 -0.05864719 0.2296196
000380 0d 4b 2e be be 41 10 be d5 8b 94 bd 94 02 dc bd
       -0.17020817 -0.14087579 -0.07253233 -0.10742679
000390 66 4a 12 be a9 64 2e be 1e 95 8a bd b8 27 b1 bd
       -0.14286193 -0.17030586 -0.06766723 -0.08650154
0003a0 80 ea 7a 3e 70 78 43 3e fc dd 5a 3e 2c 8e 60 3e
       0.24503517 0.19088912 0.21373743 0.21929234
0003b0 bc c4 b8 bd 23 5f 7e 3e cc 98 59 3e 49 32 06 be
       -0.09021899 0.2484098 0.21249694 -0.1310512
0003c0 b0 90 38 3e 31 ae 21 3e 23 99 4f 3e ae aa 03 be
       0.18023944 0.15789105 0.20273261 -0.12858078
0003d0 9f 7c 30 3e 7c e8 28 be 36 34 fe 3d 40 da 40 be
       0.17235039 -0.16494936 0.12412302 -0.18833256
0003e0 76 0f 37 3e 00 1e 8d 3e 59 13 5d 3e fa a4 81 bd
       0.17876992 0.2756195 0.21589412 -0.06330295
0003f0 53 3b 50 be 41 b8 82 3e a8 73 ab bd 03 5e 00 bc
       -0.2033513 0.255312 -0.08371669 -0.007834914

fc.4.bias f4 [9]
000000 61 8d 1a 3e 55 a4 a7 3d 10 23 1a bc db a0 0c be
       0.15092994 0.08185641 -0.009407774 -0.13733236
000010 f2 36 3a 3e fe d2 07 bd 2b 01 6b bd 71 f7 1b be
       0.18185022 -0.033160202 -0.05737416 -0.1523111
000020 38 34 05 be
       -0.13008201
